saved_models/emnist_cnn_pro.pth (torch, 477374 bytes, 47 tensors)

conv1.weight f4 [9, 1, 3, 3]
1.0 -1.0 -1.0 -1.0 1.0 -1.0 1.0 -1.0
-1.0 1.0 -1.0 1.0 -1.0 -1.0 -1.0 1.0
1.0 1.0 -1.0 -1.0 1.0 1.0 1.0 1.0
-1.0 -1.0 -1.0 1.0 -1.0 -1.0 1.0 1.0
1.0 -1.0 -1.0 1.0 1.0 1.0 1.0 1.0
1.0 1.0 1.0 -1.0 -1.0 -1.0 -1.0 -1.0
-1.0 1.0 1.0 -1.0 -1.0 1.0 -1.0 1.0
-1.0 1.0 -1.0 -1.0 -1.0 1.0 1.0 -1.0
-1.0 -1.0 -1.0 1.0 -1.0 1.0 1.0 1.0
1.0 -1.0 1.0 1.0 -1.0 1.0 1.0 -1.0
-1.0
00000000: 0000 803f 0000 80bf 0000 80bf 0000 80bf
00000010: 0000 803f 0000 80bf 0000 803f 0000 80bf
00000020: 0000 80bf 0000 803f 0000 80bf 0000 803f
00000030: 0000 80bf 0000 80bf 0000 80bf 0000 803f
00000040: 0000 803f 0000 803f 0000 80bf 0000 80bf
00000050: 0000 803f 0000 803f 0000 803f 0000 803f
00000060: 0000 80bf 0000 80bf 0000 80bf 0000 803f
00000070: 0000 80bf 0000 80bf 0000 803f 0000 803f
00000080: 0000 803f 0000 80bf 0000 80bf 0000 803f
00000090: 0000 803f 0000 803f 0000 803f 0000 803f
000000a0: 0000 803f 0000 803f 0000 803f 0000 80bf
000000b0: 0000 80bf 0000 80bf 0000 80bf 0000 80bf
000000c0: 0000 80bf 0000 803f 0000 803f 0000 80bf
000000d0: 0000 80bf 0000 803f 0000 80bf 0000 803f
000000e0: 0000 80bf 0000 803f 0000 80bf 0000 80bf
000000f0: 0000 80bf 0000 803f 0000 803f 0000 80bf
00000100: 0000 80bf 0000 80bf 0000 80bf 0000 803f
00000110: 0000 80bf 0000 803f 0000 803f 0000 803f
00000120: 0000 803f 0000 80bf 0000 803f 0000 803f
00000130: 0000 80bf 0000 803f 0000 803f 0000 80bf
00000140: 0000 80bf

conv1.bias f4 [9]
-0.40951142 -0.07836417 0.19452508 -0.43462738 0.30193216 -0.3482342 -0.9181611 -0.8632422
0.2820338
00000000: 7bab d1be 657d a0bd 9531 473e 7b87 debe
00000010: da96 9a3e c14b b2be 9b0c 6bbf 71fd 5cbf
00000020: bc66 903e

conv2.0.weight f4 [16, 9, 3, 3]
-0.07490461 -0.11949369 0.17972915 0.36457646 -0.16890639 0.032419432 0.51519734 -0.032241687
-0.2804104 -0.24506372 0.04642697 -0.076908305 -0.31634063 -0.062283088 0.21995701 -0.11368628
0.0110187335 -0.15449594 0.32728577 -0.063714474 -0.04053706 0.30621448 0.13058662 -0.30538455
0.0075331973 0.44652385 -0.2687479 -0.25673908 0.4838972 -0.23147294 -0.17182754 0.3375327
0.16415998 -0.07474698 -0.016417185 0.21757413 -0.14081788 0.050893836 -0.2312092 -0.20399706
0.26913264 -0.02171533 -0.2966638 -0.046631 0.029563142 0.14281951 -0.012194823 0.24868622
0.08416939 -0.33807597 -0.0496217 -0.26903877 -0.23883273 -0.1796701 -0.1781496 0.022068247
0.1273647 -0.7178617 0.12595105 -0.1159274 -0.34742692 0.01915027 -0.0918619 -0.26054853
-0.1969915 -0.09361129 -0.16591057 -0.13211694 0.029105617 0.23929016 -0.35367778 -0.039591264
0.20311484 0.21245536 0.32454005 0.141368 0.07401089 0.07825035 0.30322698 -0.09579459
-0.19993964 -0.38125694 -0.20845965 -0.03141408 -0.09988282 0.046463124 -0.062339548 -0.11548926
0.078267865 -0.045891687 0.114614874 0.2761173 0.039061874 -0.06649499 0.24191086 0.21290071
0.011444397 -0.17091022 -0.285934 0.17425069 0.2638393 -0.09503073 0.0442621 0.46706992
0.17571987 0.06730555 -0.5427243 -0.44104314 -0.025071215 0.20968376 -0.27506715 0.02535047
-0.08734431 -0.55506456 0.28398046 -0.11097042 0.09108129 0.07958145 -0.25331214 0.062896505
0.00021545676 0.4425185 0.1940792 0.05728106 -0.23167953 -0.16395193 -0.28312662 -0.08760974
-0.065242104 -0.29050615 -0.047327552 -0.05930385 -0.18705836 0.060036458 0.16486467 -0.1751325
-0.16544913 -0.048862886 -0.03685686 0.2386215 -0.22166532 0.28615028 0.35337624 0.20505655
0.29722136 0.32264823 -0.010199465 0.051512975 -0.033110846 -0.051678598 0.28797278 0.46414265
0.08881101 -0.16191997 -0.22127749 -0.01923888 0.25214592 -0.17449443 -0.0633748 0.08344719
-0.04970519 -0.27449477 -0.33338282 -0.29610848 0.19762619 0.06592744 -0.14870098 0.025380127
0.10241546 -0.11880724 -0.24705029 -0.22541986 -0.26073095 -0.20571944 -0.4304484 -0.13251732
-0.13360171 -0.28611937 -0.2743708 -0.051362224 0.10484674 0.11475249 -0.12946184 -0.09247426
-0.22209342 -0.104341045 -0.14861327 -0.06845636 0.14430231 -0.10426972 -0.23286895 -0.124300696
-0.14054051 -0.106695786 -0.08470704 -0.06289413 -0.036933288 -0.03730736 0.25801706 0.7164917
-0.049870707 0.0561491 0.09798674 -0.10855165 -0.21488771 -0.30973622 -0.20040825 -0.18574941
-0.0007641732 -0.017219596 -0.07554605 -2.0825672e-05 0.13468546 0.24483879 -0.063323796 -0.17178173
-0.46480238 -0.024214266 -0.21396966 0.22267142 -0.16744113 -0.24024026 0.24971524 0.10395032
0.0443651 -0.13799715 -0.21383075 0.107936434 -0.19451076 -0.057543933 -0.14083368 0.25268847
0.09073208 -0.08310405 0.00526441 0.14551869 0.07560705 0.1399718 -0.048248604 -0.07974263
0.21828097 -0.22356234 -0.17066532 -0.2542699 -0.31762907 0.050005283 0.15442842 0.616285
-0.23836274 0.12252062 0.047499735 0.17416497 -0.07643104 -0.110200286 0.036823 -0.18558495
00000000: 9767 99bd 1cb9 f4bd eb0a 383e c4a9 ba3e
00000010: ccf5 2cbe 3dca 043d f9e3 033f dc0f 04bd
00000020: f491 8fbe fcf1 7abe 352a 3e3d 1a82 9dbd
00000030: 66f7 a1be 8d1c 7fbd 693c 613e 5ad4 e8bd
00000040: eb87 343c 2f34 1ebe 0092 a73e bc7c 82bd
00000050: 300a 26bd 25c8 9c3e 80b8 053e 5d5b 9cbe
00000060: 0ad9 f63b c69e e43e 5399 89be 4e73 83be
00000070: 60c1 f73e 3e07 6dbe 8ff3 2fbe 16d1 ac3e
00000080: 8e19 283e f214 99bd 557d 86bc c1cb 5e3e
00000090: 9032 10be 0e76 503d 1bc2 6cbe 9be4 50be
000000a0: c1cb 893e 59e4 b1bc 51e4 97be 2600 3fbd
000000b0: 672e f23c 473f 123e cbcc 47bc 9aa7 7e3e
000000c0: 0061 ac3d 4b18 adbe 2040 4bbd 73bf 89be
000000d0: 9190 74be 70fb 37be d96c 36be 78c8 b43c
000000e0: e46b 023e c9c5 37bf 50f9 003e 586b edbd
000000f0: f1e1 b1be 07e1 9c3c 1822 bcbd 9e66 85be
00000100: 24b8 49be 47b7 bfbd 76e4 29be aa49 07be
00000110: e76e ee3c 7b08 753e 4115 b5be 732a 22bd
00000120: 56fd 4f3e e68d 593e 1d2a a63e c6c2 103e
00000130: 0693 973d b841 a03d 9140 9b3e f42f c4bd
00000140: fabc 4cbe 1c34 c3be 7276 55be 0dac 00bd
00000150: 5d8f ccbd 1e50 3e3d c157 7fbd a285 ecbd
00000160: e74a a03d ecf8 3bbd 34bb ea3d 3f5f 8d3e
00000170: 58ff 1f3d 862e 88bd 7bb7 773e a502 5a3e
00000180: 4881 3b3c 1703 2fbe f165 92be c66e 323e
00000190: f215 873e 799f c2bd 2d4c 353d ca23 ef3e
000001a0: e9ef 333e 7ed7 893d fbef 0abf 68d0 e1be
000001b0: 2662 cdbc 57b7 563e 9ad5 8cbe caab cf3c
000001c0: 93e1 b2bd b618 0ebf e365 913e 7644 e3bd
000001d0: d488 ba3d 99fb a23d 21b2 81be e2cf 803d
000001e0: 3cec 6139 c991 e23e b3bc 463e 8b9f 6a3d
000001f0: 663d 6dbe 04e3 27be f9f5 90be bc6c b3bd
00000200: a79d 85bd 39bd 94be 89da 41bd 98e8 72bd
00000210: 3a8c 3fbe cae8 753d 49d2 283e ef55 33be
00000220: 7f6b 29be 7324 48bd 38f7 16bd 3259 743e
00000230: 3cfc 62be 4a82 923e bbed b43e 58fa 513e
00000240: 662d 983e 2632 a53e a81b 27bc 45ff 523d
00000250: 3d9f 07bd f0ac 53bd 2b71 933e 1ba4 ed3e
00000260: 8ce2 b53d 59ce 25be 9196 62be db9a 9dbc
00000270: 4519 813e abae 32be a6ca 81bd 5ce6 aa3d
00000280: ab97 4bbd 948a 8cbe 27b1 aabe 889b 97be
00000290: 855e 4a3e f704 873d 1245 18be fce9 cf3c
000002a0: 32bf d13d 3651 f3bd c0fa 7cbe 77d4 66be
000002b0: 877e 85be 1ea8 52be bc63 dcbe 9fb2 07be
000002c0: e3ce 08be 3d7e 92be 547a 8cbe 3261 52bd
000002d0: e3b9 d63d 5a03 eb3d a591 04be 2563 bdbd
000002e0: 756c 63be c2b0 d5bd 142e 18be d932 8cbd
000002f0: fcc3 133e 5d8b d5bd 3375 6ebe 5d91 febd
00000300: dae9 0fbe 5283 dabd e27a adbd a3ce 80bd
00000310: 5c47 17bd 9acf 18bd d01a 843e 006c 373f
00000320: 3a45 4cbd 99fc 653d 46ad c83d 5450 debd
00000330: 860b 5cbe bf95 9ebe d237 4dbe 1835 3ebe
00000340: cc52 48ba 1c10 8dbc e3b7 9abd cab2 aeb7
00000350: fcea 093e 05b7 7a3e e8af 81bd 8de7 2fbe
00000360: 94fa edbe ff5c c6bc dd1a 5bbe fa03 643e
00000370: b075 2bbe 8b01 76be 5ab5 7f3e e8e3 d43d
00000380: 2eb8 353d 204f 0dbe 73f6 5abe c70d dd3d
00000390: d42d 47be 30b3 6bbd b436 10be 6260 813e
000003a0: bed1 b93d 7532 aabd 1281 ac3b da02 153e
000003b0: ded7 9a3d c454 0f3e 54a0 45bd 1b50 a3bd
000003c0: 0c85 5f3e 87ed 64be e4c2 2ebe aa2f 82be
000003d0: 47a0 a2be 57d2 4c3d 7c22 1e3e dbc4 1d3f
000003e0: 5d15 74be 17ec fa3d 158f 423d 4d58 323e
000003f0: e187 9cbd b0b0 e1bd b7d3 163d fb09 3ebe

conv2.0.bias f4 [16]
0.11656262 -0.08061748 -0.029388329 0.11628633 -0.010437719 -0.033244636 -0.033749044 -0.08280107
0.08219725 -0.101581365 -0.027588299 -0.16099933 -0.07328385 -0.083098546 -0.05628344 0.09355268
00000000: 62b8 ee3d c71a a5bd cbbf f0bc 8727 ee3d
00000010: f702 2bbc 872b 08bd 703c 0abd 9b93 a9bd
00000020: 0857 a83d e409 d0bd db00 e2bc 02dd 24be
00000030: d815 96bd 922f aabd 7789 66bd 8c98 bf3d

conv2.1.weight f4 [16]
0.896131 0.947242 1.0675356 1.0060973 1.0906999 1.0238432 0.8038951 1.1814693
0.80182 0.9843571 1.0959796 0.8813291 0.9517826 0.8954321 0.81430554 1.0308541
00000000: d768 653f 747e 723f 02a5 883f ccc7 803f
00000010: 0e9c 8b3f 4b0d 833f 12cc 4d3f 633a 973f
00000020: 1344 4d3f d4fe 7b3f 0f49 8c3f c99e 613f
00000030: 06a8 733f 0a3b 653f 5476 503f 07f3 833f

conv2.1.bias f4 [16]
0.022820877 0.02032045 -0.27938032 -0.23058766 -0.30354533 -0.07573274 0.07792354 -0.30577108
-0.004767115 -0.4364801 -0.17142816 -0.15647165 -0.079413146 0.091685854 -0.07203043 0.031807147
00000000: d9f2 ba3c 1377 a63c f00a 8fbe 2c1f 6cbe
00000010: 4b6a 9bbe c419 9bbd 6096 9f3d 078e 9cbe
00000020: 7635 9cbb 527a dfbe dd8a 2fbe 1b3a 20be
00000030: 5ca3 a2bd cbc5 bb3d b184 93bd 3648 023d

conv2.1.running_mean f4 [16]
-0.904892 -2.1121554 -3.8093572 1.4190053 2.1636455 3.2210479 1.9490966 -6.4891434
0.38015303 2.0015347 1.055894 -3.453937 3.2312775 6.189065 1.5701131 -5.3043375
00000000: 01a7 67bf 8e2d 07c0 82cc 73c0 f7a1 b53f
00000010: 2b79 0a40 a625 4e40 ff7b f93f 10a7 cfc0
00000020: 6ba3 c23e 2519 0040 8927 873f 4e0d 5dc0
00000030: 40cd 4e40 d20c c640 77f9 c83f 22bd a9c0

conv2.1.running_var f4 [16]
11.578914 11.938933 41.297626 12.478343 21.201353 8.115551 13.252148 26.212242
10.06642 18.72138 18.31468 15.7883215 11.584911 13.408065 12.704718 16.330362
00000000: 3b43 3941 df05 3f41 c530 2542 4ba7 4741
00000010: 5f9c a941 4cd9 0141 cc08 5441 acb2 d141
00000020: 0e10 2141 63c5 9541 7784 9241 f79c 7c41
00000030: cc5b 3941 6f87 5641 8646 4b41 95a4 8241

attention.channel_att.1.weight f4 [2, 16, 1, 1]
-0.97543263 -1.5309991 -1.409773 -0.60830975 -1.1560738 -0.6594825 -1.2623184 -0.9423072
-1.2945644 -1.7455994 -1.7488625 -1.6542977 -1.1271716 -0.7987126 -1.4003763 -1.4738259
0.3372378 -0.5740886 -0.3867266 0.35670742 0.09963857 -0.33363444 -0.009724942 -0.30419078
0.012854691 -0.65873456 -0.7715467 -0.6127098 0.2833169 -0.21129836 -0.3158238 0.04483804
00000000: f4b5 79bf c7f7 c3bf 7173 b4bf 30ba 1bbf
00000010: 3afa 93bf d8d3 28bf a693 a1bf 0b3b 71bf
00000020: 49b4 a5bf cd6f dfbf bada dfbf 07c0 d3bf
00000030: 2947 90bf 6e78 4cbf 883f b3bf 54a6 bcbf
00000040: 6faa ac3e 78f7 12bf 0701 c6be 5ba2 b63e
00000050: 4e0f cc3d 22d2 aabe 5d55 1fbc e5be 9bbe
00000060: 7b9c 523c d4a2 28bf 1684 45bf 8dda 1cbf
00000070: ea0e 913e 995e 58be a8b3 a1be 18a8 373d

attention.channel_att.1.bias f4 [2]
-0.7777119 -0.28285012
00000000: 2118 47bf bbd1 90be

attention.channel_att.3.weight f4 [16, 2, 1, 1]
-0.16506319 0.65670276 -0.013181205 0.9223409 -0.5389942 0.53230524 0.1399598 0.7156325
0.53332883 -0.099626146 0.030000051 0.16976888 -0.21438207 0.024919083 0.83909994 0.288324
0.07338803 -0.20906822 -0.5757361 0.35923684 -0.15821968 0.7822203 -0.72102773 0.9897643
-0.54958206 0.79270744 0.034716338 0.40920585 0.056227494 0.0915946 -0.29523304 0.65031797
00000000: 5306 29be ac1d 283f fbf5 57bc 891e 6c3f
00000010: 86fb 09bf 2845 083f 9f51 0f3e b133 373f
00000020: 3d88 083f cb08 ccbd abc2 f53c e5d7 2d3e
00000030: f986 5bbe 1b23 cc3c 41cf 563f 349f 933e
00000040: 774c 963d fb15 56be 7163 13bf e4ed b73e
00000050: 5704 22be 973f 483f 4695 38bf 3161 7d3f
00000060: 69b1 0cbf e0ee 4a3f b832 0e3d 6e83 d13e
00000070: cd4e 663d f395 bb3d c928 97be 3d7b 263f

attention.channel_att.3.bias f4 [16]
0.1865416 -0.3292239 -0.085029766 -0.11733826 0.18732505 -0.35390016 -0.1867044 0.13108568
0.24957733 0.47471982 0.1560952 0.274181 -0.3764402 0.115692586 0.1410031 -0.6552731
00000000: c304 3f3e 0990 a8be 1624 aebd 0b4f f0bd
00000010: 23d2 3f3e 6732 b5be 702f 3fbe 533b 063e
00000020: 3391 7f3e 7a0e f33e 6cd7 1f3e 7461 8c3e
00000030: c5bc c0be 3cf0 ec3d 1e63 103e fabf 27bf

attention.spatial_att.0.weight f4 [1, 2, 7, 7]
0.3101534 0.43952018 0.015448104 0.17018157 -0.0015942213 0.12221413 -0.025766535 0.43603134
-0.052932005 -0.27758095 0.10256291 0.30424863 0.36839464 0.24839145 0.31125373 0.07766354
-0.16142316 0.016424544 0.35109687 0.17186835 0.42290518 0.09865789 0.08501988 -0.13912146
-0.18371418 -0.27788553 -0.018819174 -0.06483838 0.10596187 -0.06532925 0.08108726 -0.13557383
-0.11937899 -0.05941325 0.092270054 0.24892741 0.39486465 0.044188857 -0.11905482 0.063326135
0.06692926 0.12793572 0.25647724 0.3800545 -0.039546408 -0.112210065 0.010770796 0.23606023
0.038729545 0.46996257 0.50119877 0.36192256 0.25369 -0.5095662 -0.2397985 0.34608677
0.18662103 -0.12001277 -0.06386021 -0.4318208 0.038777046 0.23594289 0.28779247 0.32251945
0.22932476 -0.031179942 -0.027376251 0.3214738 0.28194964 0.15078366 -0.21191727 -0.35575926
-0.59021264 -0.45911592 -0.3048691 -0.12625262 0.05085065 0.17762533 -0.028599923 0.29349685
-0.01644424 -0.026904771 0.09989264 0.5169087 0.5348483 0.43335116 0.5582625 0.018875252
0.24046272 0.22687438 0.37381452 0.6578283 0.4406321 0.19498363 -0.15457912 0.16104116
0.27682906 0.04407058
00000000: 6dcc 9e3e ca08 e13e 0b1a 7d3c 1444 2e3e
00000010: 31f5 d0ba 674b fa3d 5714 d3bc 803f df3e
00000020: 3bcf 58bd 171f 8ebe 810c d23d 7ac6 9b3e
00000030: 399e bc3e 545a 7e3e a65c 9f3e 100e 9f3d
00000040: 1d4c 25be c48c 863c f8c2 b33e 42fe 2f3e
00000050: 0787 d83e 260d ca3d e71e ae3d db75 0ebe
00000060: 921f 3cbe 0347 8ebe ab2a 9abc fcc9 84bd
00000070: 8902 d93d 58cb 85bd 1411 a63d ded3 0abe
00000080: f97c f4bd 4f5b 73bd 15f8 bc3d d4e6 7e3e
00000090: b32b ca3e 60ff 343d 03d3 f3bd 22b1 813d
000000a0: 3512 893d 9501 033e fc50 833e 8196 c23e
000000b0: 6afb 21bd 64ce e5bd fe77 303c c6b9 713e
000000c0: dfa2 1e3d ef9e f03e 904e 003f ea4d b93e
000000d0: a8e3 813e ee72 02bf bd8d 75be 4932 b13e
000000e0: 9519 3f3e 41c9 f5bd 24c9 82bd 9e17 ddbe
000000f0: aed4 1e3d 039b 713e 8959 933e 4521 a53e
00000100: 1cd4 6a3e 146d ffbc 2944 e0bc 3798 a43e
00000110: b45b 903e 0867 1a3e d700 59be 1426 b6be
00000120: 2d18 17bf 3e11 ebbe cd17 9cbe 5e48 01be
00000130: c548 503d 6ae3 353e 634a eabc 3845 963e
00000140: 12b6 86bc 6567 dcbc 8394 cc3d 2154 043f
00000150: d1eb 083f 34e0 dd3e 4bea 0e3f 46a0 9a3c
00000160: dc3b 763e c251 683e 9e64 bf3e 6f67 283f
00000170: 889a e13e caa9 473e fd49 1ebe f9e7 243e
00000180: 8abc 8d3e 5a83 343d

fc.0.weight f4 [128, 256]
0.24037246 -0.0739438 0.06535265 0.3744533 -0.24862956 0.00308714 0.030245816 0.25085214
0.14318392 0.04453678 -0.039177645 0.22002113 0.19905432 -0.09168071 -0.2238751 -0.036018386
0.08666548 -0.021001033 -0.13099317 -0.8839305 -0.295004 0.05581071 -0.2512559 -0.41174245
-0.2759014 -0.07538143 -0.103658 -0.2254656 -0.32663748 0.016693499 0.19057295 -0.19800362
0.20167719 0.01423789 -0.11549573 -0.069262706 -0.16805285 0.10518729 -0.03093133 -0.40079427
-0.16902146 0.30272132 0.13400227 0.026332496 -0.52255136 0.20126565 0.14758044 0.14547434
0.036052607 0.16261093 0.21537656 0.07225006 0.18317659 -0.16906866 -0.10545829 0.15153879
-0.017113449 -0.025852742 -0.06796454 0.14947072 0.1526218 -0.15945157 -0.15263706 -0.120874695
-0.24436353 -0.010947629 0.6253526 -0.021992061 0.17906205 -0.18292832 0.17985794 0.3818775
0.095538564 -0.024089731 0.019610588 -0.2984909 0.013149142 -0.10671215 -0.0710923 -0.44242117
0.06789946 -0.12840879 0.013831926 -0.21155865 0.1778437 0.018009083 -0.7908731 -0.077415355
0.0703357 -0.094480574 -0.31253007 -0.5496745 0.058774922 -0.073065564 0.2760242 -0.37032807
-0.26348695 -0.18653497 -0.09046013 0.010033406 -0.27488706 -0.41549313 -0.157254 0.02948727
-0.13810925 -0.24341805 0.12023588 0.13645692 0.24818127 -0.13757451 -0.14383276 0.027940776
0.18404017 0.18278085 0.12890962 0.033112004 0.23061661 -0.0046543665 0.26137307 0.101384655
0.038227804 0.08694145 0.30712223 0.10015578 0.014637614 0.03140316 -0.1467614 0.122078285
0.21095389 -0.53049064 -0.6285047 -0.57036954 0.040589113 0.0215124 0.066382304 0.15604016
-0.25600865 -0.13124509 0.021197274 0.078346446 0.18877952 0.1426872 -0.041087653 0.22410603
-0.45224294 0.006995198 -0.23903228 -0.38042822 -0.23815979 -0.028307378 -0.38302535 -0.5563585
-0.027403178 -0.014890452 -0.109963894 -0.35249224 0.105111845 0.047484044 -0.20833136 -0.33108824
-0.440824 0.15785944 0.16819684 -0.3899717 -0.17744875 0.06538558 0.08000167 -0.3781355
-0.07435592 -0.1383595 -0.23198697 -0.013706985 0.16964088 -0.3434662 -0.013409046 -0.110254675
-0.43553922 0.041067928 0.112212665 -0.6190222 0.19882336 0.20114338 -0.008930463 -0.47733018
-0.08895541 0.10681082 0.095125176 0.18812352 -0.27469838 0.0073698265 -0.06731867 0.069038026
0.106642865 0.075122744 -0.03973331 -0.31254834 -0.21715146 -0.11832686 0.12718022 -0.065378465
-0.18817025 0.089261904 0.15216714 0.032102577 0.25352183 0.19227529 0.05343305 0.018547041
0.11542214 0.06472088 0.085401855 0.21426275 0.0536414 0.22889301 0.22790955 0.028594157
-0.03940938 -0.13358143 -0.073911875 -0.23869368 0.116756976 -0.43846098 0.23989348 0.20394361
-0.33062124 0.02181165 0.11436632 -0.52632105 -0.34672213 -0.087676555 0.0036802627 -0.536743
-0.1396189 0.107337505 0.0064257956 -0.6603694 -0.42339367 -0.28427652 0.12594852 0.03572201
-0.34776682 -0.19980356 0.30210873 0.36526778 -0.109620005 -0.003431384 0.18244031 0.22820404
-0.20444404 0.085028894 0.14019267 -0.0924482 0.06667868 0.1745164 0.046335433 -0.12260771
00000000: 3324 763e d96f 97bd 9cd7 853d 58b8 bf3e
00000010: bf98 7ebe 9d51 4a3b 13c6 f73c b16f 803e
00000020: ce9e 123e 336c 363d bd78 20bd 384d 613e
00000030: e5d4 4b3e 19c3 bbbd 843f 65be 0488 13bd
00000040: ac7d b13d 5c0a acbc 1323 06be 4549 62bf
00000050: c40a 97be c599 643d 9da4 80be e8cf d2be
00000060: f342 8dbe 9461 9abd a54a d4bd 74e0 66be
00000070: 073d a7be cec0 883c 8e25 433e 76c1 4abe
00000080: 7784 4e3e 0a46 693c 0689 ecbd 9bd9 8dbd
00000090: 0c16 2cbe 6f6c d73d b363 fdbc e834 cdbe
000000a0: f613 2dbe 4afe 9a3e e437 093e 3fb7 d73c
000000b0: edc5 05bf 9518 4e3e 541f 173e 3af7 143e
000000c0: e6ab 133d 7b83 263e ac8b 5c3e d7f7 933d
000000d0: a592 3b3e 5620 2dbe 84fa d7bd fc2c 1b3e
000000e0: 8131 8cbc 21c9 d3bc fe30 8bbd da0e 193e
000000f0: e448 1c3e 4647 23be e44c 1cbe 278d f7bd
00000100: 6f3a 7abe af5d 33bc 1c17 203f b228 b4bc
00000110: 0b5c 373e 9051 3bbe ae2c 383e 7385 c33e
00000120: b9a9 c33d d457 c5bc 62a6 a03c cdd3 98be
00000130: 806f 573c e68b dabd d798 91bd 0785 e2be
00000140: df0e 8b3d 987d 03be 4d9f 623c d5a2 58be
00000150: a91c 363e c987 933c a976 4abf f18b 9ebd
00000160: 2a0c 903d 087f c1bd f103 a0be 78b7 0cbf
00000170: f9bd 703d 66a3 95bd 0b53 8d3e a49b bdbe
00000180: c3e7 86be 0603 3fbe 2943 b9bd 2863 243c
00000190: ffbd 8cbe 84bb d4be 3107 21be 4a8f f13c
000001a0: 836c 0dbe 9542 79be 3b3e f63d 5dbb 0b3e
000001b0: 3b23 7e3e 55e0 0cbe e548 13be 0ee4 e43c
000001c0: 0775 3c3e e72a 3b3e e200 043e 74a0 073d
000001d0: c326 6c3e a883 98bb b1d2 853e c2a2 cf3d
000001e0: c294 1c3d 5c0e b23d 203f 9d3e 791e cd3d
000001f0: 9ad2 6f3c 9aa0 003d 9f48 16be 2e04 fa3d
00000200: 4c04 583e 3cce 07bf afe5 20bf bd03 12bf
00000210: c540 263d c63a b03c 72f3 873d fec8 1f3e
00000220: 9113 83be 1d65 06be e8a5 ad3c 1a74 a03d
00000230: 6b4f 413e 981c 123e 874b 28bd 0d7c 653e
00000240: 638c e7be f937 e53b e1c4 74be 7dc7 c2be
00000250: 29e0 73be e0e4 e7bc e61b c4be 836d 0ebf
00000260: a17c e0bc 15f7 73bc c034 e1bd dd79 b4be
00000270: e144 d73d a17e 423d d154 55be 6684 a9be
00000280: afb3 e1be e8a5 213e cb3b 2c3e 5faa c7be
00000290: 20b5 35be e0e8 853d ead7 a33d fa9a c1be
000002a0: eb47 98bd 1dae 0dbe fe8d 6dbe 4393 60bc
000002b0: 57b6 2d3e cdda afbe 9eb1 5bbc 34cd e1bd
000002c0: fffe debe d836 283d c1cf e53d 3d78 1ebf
000002d0: 5a98 4b3e 88f8 4d3e 1451 12bc 9f64 f4be
000002e0: 412e b6bd a2bf da3d fdd0 c23d 74a3 403e
000002f0: 44a5 8cbe 967e f13b 5fde 89bd cf63 8d3d
00000300: 9367 da3d f4d9 993d 65bf 22bd 5606 a0be
00000310: f45c 5ebe 5a55 f2bd 883b 023e 25e5 85bd
00000320: b4af 40be f2ce b63d b4d1 1b3e fe7d 033d
00000330: 9dcd 813e d0e3 443e 9ddc 5a3d f7ef 973c
00000340: 7162 ec3d 618c 843d 2be7 ae3d b267 5b3e
00000350: 16b7 5b3d ee62 6a3e 1f61 693e 4b3e ea3c
00000360: bb6b 21bd 92c9 08be 1c5f 97bd 1e6c 74be
00000370: 481e ef3d f57d e0be a3a6 753e 98d6 503e
00000380: 3047 a9be 58ae b23c e438 ea3d fabc 06bf
00000390: 9085 b1be c48f b3bd 9030 713b fd67 09bf
000003a0: 42f8 0ebe c4d3 db3d 7b8f d23b f80d 29bf
000003b0: 0ec7 d8be b18c 91be a6f8 003e 3e51 123d
000003c0: 7e0e b2be 4e99 4cbe ffad 9a3e 6104 bb3e
000003d0: 7480 e0bd 12e1 60bb a2d1 3a3e 52ae 693e
000003e0: c759 51be a123 ae3d ab8e 0f3e 7b55 bdbd
000003f0: d58e 883d 6db4 323e 39ca 3d3d c019 fbbd

fc.0.bias f4 [128]
0.29762197 0.05117941 0.15411192 -0.13452251 0.02552363 0.08917861 0.024182318 0.18751848
0.103071004 0.044236176 -0.017407112 -0.0016689777 0.08687169 0.0060307784 -0.08026304 0.033762924
-0.100763984 0.16577883 -0.053498372 0.06230355 0.056642175 0.13951848 0.07540818 -0.0019053828
0.16814807 0.07484249 -0.08016046 0.059105013 -0.10581903 0.0657458 -0.010756035 -0.07771329
0.12659985 0.0922251 -0.027835608 -0.04454522 0.0084325075 -0.036246777 0.06790473 -0.021073945
0.21135011 0.2315587 -0.035357554 -0.12503353 -0.09258407 0.02571976 -0.008386281 0.11295317
0.066468395 -0.013265919 0.05217949 -0.07823764 -0.07905451 -0.16701812 -0.047458477 0.047147036
0.078351766 0.13109072 0.21111356 0.12316675 -0.074798666 0.1433282 0.13354212 0.13150533
0.13342445 0.06956933 0.2627625 0.013222463 0.11209514 0.08100512 0.20088686 0.04482493
-0.14091815 -0.018050566 -0.0029326722 0.18618652 0.08651031 0.148453 -0.020759579 -0.006664433
0.11598819 -0.037967727 -0.030873468 0.057587802 -0.0008050259 0.01720936 0.05677447 0.07644994
0.08794272 0.21204543 0.070085935 -0.13000105 0.19978236 -0.11480861 -0.07851536 -0.0072048875
0.044808116 -0.039190378 0.08890871 -0.032100935 -0.12034792 0.22302121 0.20869164 -0.15248817
-0.0659051 -0.029442376 0.028653802 0.15822847 -0.030397344 0.14594166 -0.03823832 0.032415435
0.09529208 0.15359144 -0.13482955 0.055898704 -0.05700457 0.09812709 -0.055913165 0.14073956
0.17384297 0.06927059 0.2639459 -0.05702272 0.23671833 0.11014469 0.22913405 -0.020653533
00000000: e861 983e 80a1 513d 84cf 1d3e 45c0 09be
00000010: ef16 d13c 46a3 b63d ff19 c63c d804 403e
00000020: e416 d33d fe30 353d 5c99 8ebc 99c1 daba
00000030: c9e9 b13d d69d c53b f360 a4bd fe4a 0a3d
00000040: 595d cebd edc1 293e 1c21 5bbd 0232 7f3d
00000050: a001 683d efdd 0e3e 9b6f 9a3d 0abe f9ba
00000060: 022f 2c3e 0547 993d 2b2b a4bd 1918 723d
00000070: a6b7 d8bd bca5 863d 153a 30bc 2528 9fbd
00000080: 64a3 013e 83e0 bc3d 8007 e4bc 0c75 36bd
00000090: 8028 0a3c 8077 14bd a311 8b3d 44a3 acbc
000000a0: 2a6c 583e b91d 6d3e 15d3 10bd ca08 00be
000000b0: b89c bdbd 3fb2 d23c 9d66 09bc fe53 e73d
000000c0: 9520 883d 4c59 59bc 29ba 553d 0e3b a0bd
000000d0: 55e7 a1bd cc06 2bbe d263 42bd 401d 413d
000000e0: e476 a03d a53c 063e 272e 583e d93e fc3d
000000f0: 0b30 99bd a1c4 123e 44bf 083e 55a9 063e
00000100: 6ba0 083e 5d7a 8e3d ce88 863e 08a3 583c
00000110: 2392 e53d 03e6 a53d 49b5 4d3e 599a 373d
00000120: d94c 10be c8de 93bc 1332 40bb aea7 3e3e
00000130: 512c b13d 1004 183e fe0f aabc 5161 dabb
00000140: 378b ed3d 0c84 1bbd 5bea fcbc 30e1 6b3d
00000150: 6008 53ba a5fa 8c3c 598c 683d c991 9c3d
00000160: 501b b43d 7022 593e 3789 8f3d ff1e 05be
00000170: bf93 4c3e c720 ebbd a9cc a0bd fa16 ecbb
00000180: b788 373d 1786 20bd c515 b63d 457c 03bd
00000190: f878 f6bd ac5f 643e 43b3 553e dc25 1cbe
000001a0: 41f9 86bd 2331 f1bc 61bb ea3c a506 223e
000001b0: da03 f9bc bb71 153e c99f 1cbd 0cc6 043d
000001c0: 7e28 c33d 1347 1d3e c210 0abe 0af6 643d
000001d0: a07d 69bd dbf6 c83d 3405 65bd 081e 103e
000001e0: e403 323e bddd 8d3d eb23 873e a890 69bd
000001f0: 4a66 723e 8a93 e13d 1ea2 6a3e 9931 a9bc

fc.3.weight f4 [27, 128]
-0.48232362 -0.3075203 -0.42837676 -0.86143315 -0.3291179 -0.20532343 -0.22946355 -0.5770945
-0.31995296 -0.5979921 -0.40338016 -0.15370178 -0.2927379 -0.38760638 -0.42874277 -0.4951449
0.05893062 -0.39886358 0.048095744 -0.06551633 -0.5568654 -0.66661125 -0.04316095 -0.66100967
-0.35273296 -0.26999202 -0.26029125 -0.20465499 -0.2912665 -0.43210933 -0.58837086 -0.1766832
-0.5406507 -0.34988254 -0.45233113 -0.15419678 -0.5219626 -0.638981 -0.26627022 -0.6536274
-0.7974763 -0.31465143 -0.5193845 -0.45873302 -0.38007575 -0.34810027 -0.30270025 -0.9329448
-0.2564106 -0.46470392 -0.3037842 -0.34901267 -0.43645573 -0.49991977 -0.1645875 -0.13858867
-0.097008206 -0.1830178 -0.3684344 -0.3736993 -0.5320494 -0.7224402 -0.39924183 -0.09436131
-0.25382438 -0.7576161 -0.42981964 -0.46100947 -0.24421808 -0.5702867 -0.22889322 -0.58207595
-0.4976868 -0.92699474 -0.1511542 -0.5645343 -0.5361264 -0.16799589 -0.83140826 -0.23278971
-0.3671426 -0.2038989 -0.2921805 -0.38228786 -0.40961668 -0.4336077 -0.6591539 -0.1509936
-0.41922665 -0.40882823 -0.47107986 -0.5420012 -0.46930736 -0.19605093 -0.51434815 -0.2899199
-0.60184705 -0.5687549 -0.47743812 -0.5097783 -0.32856944 -0.4066991 -0.4240187 -0.36690232
-0.5710945 -0.26758596 -0.23413426 -0.32753026 -0.22934769 -0.75210536 -0.6505448 -0.15877722
-0.23896924 -0.32411674 -0.50388145 0.037437283 -0.1945494 -0.5223554 -0.42397797 -0.48890644
-0.47160769 -0.4353082 -0.57993716 -0.16843002 -0.34766763 -0.31005988 -0.58084905 -0.33065268
0.2535226 0.10945287 0.10121159 -0.36976045 -0.1659467 0.10128543 0.17329825 0.19416758
-0.5037969 -0.5577228 0.29962528 0.0428588 0.21955898 -0.95788443 0.12773235 0.056070346
-0.13502969 0.07398439 0.20367227 -0.04384918 0.12569605 0.04050704 0.19916606 -0.18360117
0.20585199 0.16629225 -0.04171044 0.06051971 -0.22936155 -0.25976598 -0.07674706 -0.569577
0.104988776 -0.49209252 -0.514699 0.02626504 -0.2099035 -0.8809237 -0.5199904 -0.05035277
0.12326324 0.17351177 0.15237778 -0.57938075 -0.608618 0.23329034 -0.7094687 0.06765137
0.17000026 -0.5072253 0.09879816 0.43487597 -0.49247387 -0.18611681 0.048534703 0.12696333
-0.71530294 0.17433831 0.21256542 0.028059253 -0.42126542 -0.23912653 0.09268006 -0.18312022
-0.23211752 0.072669856 -0.016178945 0.037512828 -0.7064079 0.1524576 0.026514733 0.18486243
-0.47855866 0.034698777 -0.33269674 0.14943877 -0.09509002 0.09130372 0.13662934 0.34976912
0.18053992 -0.7194454 0.095006 -0.4392925 -0.44564024 -0.324538 0.07770001 0.107704185
-0.5778786 0.017157588 0.106290385 -0.46058136 0.0790067 -0.18401232 -0.11100009 0.21148486
0.040625297 -0.119719766 0.21409182 0.106964014 -0.36893642 0.05367694 0.120904975 0.047668543
0.07490863 -0.47873756 -0.6379241 0.17086974 -0.15936768 0.19997324 -0.04045512 0.31492183
0.2108817 0.09303614 -0.17033005 -0.58062065 -0.3189969 -0.60618865 0.2285303 -0.7116279
0.051559675 -0.260672 -0.0135998335 -0.81093097 0.089723974 -0.11603457 0.10129771 -0.04716923
00000000: 1ff3 f6be 4d73 9dbe 3354 dbbe e286 5cbf
00000010: 2482 a8be 4e40 52be 7ef8 6abe 77bc 13bf
00000020: e0d0 a3be 0316 19bf d887 cebe 0064 1dbe
00000030: bee1 95be 5874 c6be 2c84 dbbe a283 fdbe
00000040: 3c61 713d d937 ccbe 0b00 453d 6d2d 86bd
00000050: bb8e 0ebf 09a7 2abf 89c9 30bd ee37 29bf
00000060: 6a99 b4be 653c 8abe e544 85be 1491 51be
00000070: e220 95be 6f3d ddbe 799f 16bf 71ec 34be
00000080: 1668 0abf ce23 b3be f297 e7be c3e5 1dbe
00000090: 579f 05bf 4294 23bf 9254 88be 2054 27bf
000000a0: 6827 4cbf fe19 a1be 62f6 04bf 0edf eabe
000000b0: 4a99 c2be 333a b2be 87fb 9abe 78d5 6ebf
000000c0: 4048 83be aced edbe 9a89 9bbe cab1 b2be
000000d0: 2077 dfbe 7cf5 ffbe a089 28be 30ea 0dbe
000000e0: 3dac c6bd 0569 3bbe 6fa3 bcbe 8455 bfbe
000000f0: 6434 08bf d7f1 38bf 6d69 ccbe 8140 c1bd
00000100: 45f5 81be 21f3 41bf 5211 dcbe 6f09 ecbe
00000110: 4e14 7abe 4ffe 11bf fc62 6abe ee02 15bf
00000120: ced0 febe 874f 6dbf 2bc8 1abe 5285 10bf
00000130: 943f 09bf 1d07 2cbe 2cd7 54bf 6d60 6ebe
00000140: 1dfa bbbe e0ca 50be af98 95be 3cbb c3be
00000150: 47b9 d1be d401 debe 4fbe 28bf 119e 1abe
00000160: e0a4 d6be ef51 d1be 6131 f1be 97c0 0abf
00000170: 0e49 f0be 93c1 48be 52ac 03bf 6270 94be
00000180: a612 1abf ec99 11bf c572 f4be d580 02bf
00000190: 413a a8be dd3a d0be fb18 d9be 9fda bbbe
000001a0: 4033 12bf 0701 89be e4c0 6fbe 0cb2 a7be
000001b0: 1fda 6abe fa89 40bf 1b8a 26bf 7f96 22be
000001c0: 5ab4 74be a1f2 a5be 60fe 00bf d657 193d
000001d0: f537 47be 15b9 05bf a413 d9be f251 fabe
000001e0: 9076 f1be b7e0 debe c376 14bf eb78 2cbe
000001f0: 7e01 b2be 2bc0 9ebe 86b2 14bf 4f4b a9be
00000200: b7cd 813e d428 e03d 0648 cf3d 3e51 bdbe
00000210: efed 29be bc6e cf3d 1975 313e ded3 463e
00000220: d5f8 00bf ecc6 0ebf 7c68 993e b68c 2f3d
00000230: 12d4 603e ea37 75bf 45cc 023e 05aa 653d
00000240: 3945 0abe 2185 973d 778f 503e 339b 33bd
00000250: 77b6 003e b6ea 253d 30f2 4b3e f201 3cbe
00000260: ddca 523e 8448 2a3e 91d8 2abd 84e3 773d
00000270: c1dd 6abe 0c00 85be 902d 9dbd cccf 11bf
00000280: 5b04 d73d 8df3 fbbe 50c3 03bf c829 d73c
00000290: f1f0 56be 3784 61bf 171e 05bf b53e 4ebd
000002a0: 7071 fc3d 12ad 313e ec08 1c3e 4c52 14bf
000002b0: 64ce 1bbf aae3 6e3e be9f 35bf cd8c 8a3d
000002c0: 8c14 2e3e 84d9 01bf b156 ca3d 10a8 de3e
000002d0: 8925 fcbe 6895 3ebe 53cc 463d ad02 023e
000002e0: 181e 37bf be85 323e c0aa 593e 85dc e53c
000002f0: 1ab0 d7be 96dd 74be 0bcf bd3d de83 3bbe
00000300: 37b0 6dbe efd3 943d b589 84bc 0da7 193d
00000310: 26d7 34bf d81d 1c3e 6d35 d93c 944c 3d3e
00000320: a405 f5be 4e20 0e3d 3a57 aabe 7a06 193e
00000330: 8ebe c2bd 72fd ba3d 90e8 0b3e f014 b33e
00000340: 75df 383e 932d 38bf 8192 c23d f2ea e0be
00000350: f52a e4be d829 a6be 2f21 9f3d 0394 dc3d
00000360: daef 13bf 128e 8c3c c6ae d93d 52d1 ebbe
00000370: 44ce a13d ba6d 3cbe 0454 e3bd 7d8f 583e
00000380: b666 263d a32f f5bd e33a 5b3e f30f db3d
00000390: 3ce5 bcbe 5adc 5b3d 079d f73d 1740 433d
000003a0: b269 993d 171d f5be fe4e 23bf 7af8 2e3e
000003b0: 4831 23be c9c5 4c3e 45b4 25bd 6f3d a13e
000003c0: 5ff1 573e bb89 be3d 006b 2ebe 8ea3 14bf
000003d0: 9053 a3be 2e2f 1bbf d903 6a3e 3f2d 36bf
000003e0: 3d30 533d cd76 85be d6d1 5ebc 2c99 4fbf
000003f0: 34c1 b73d 88a3 edbd 2c75 cf3d 8634 41bd

fc.3.bias f4 [27]
-0.87565666 0.2386327 0.23213817 -0.20480083 0.020640464 0.1578675 -0.070153266 0.117429174
0.1576225 0.0685242 -0.26709086 -0.10364018 -0.134716 -0.6065046 0.36616388 -0.035557166
-0.03185463 -0.065332666 -0.18009427 -0.17416139 0.082267985 0.19587447 0.00525661 -0.5756182
0.36176947 -0.23643194 -0.145417
00000000: 092b 60bf 215c 743e a1b5 6d3e 4fb7 51be
00000010: 3116 a93c 05a8 213e 84ac 8fbd b57e f03d
00000020: cb67 213e 6a56 8c3d 22c0 88be 4d41 d4bd
00000030: fef2 09be e343 1bbf d579 bb3e 64a4 11bd
00000040: 007a 02bd 22cd 85bd a26a 38be 5d57 32be
00000050: 1e7c a83d 5193 483e a43f ac3b b75b 13bf
00000060: d939 b93e 371b 72be 32e8 14be

exp_avg f4 [9, 1, 3, 3]
0.0 0.0 0.0 0.0 0.0 0.0 0.0 0.0
0.0 0.0 0.0 0.0 0.0 0.0 0.0 0.0
0.0 0.0 0.0 0.0 0.0 0.0 0.0 0.0
0.0 0.0 0.0 0.0 0.0 0.0 0.0 0.0
0.0 0.0 0.0 0.0 0.0 0.0 0.0 0.0
0.0 0.0 0.0 0.0 0.0 0.0 0.0 0.0
0.0 0.0 0.0 0.0 0.0 0.0 0.0 0.0
0.0 0.0 0.0 0.0 0.0 0.0 0.0 0.0
0.0 0.0 0.0 0.0 0.0 0.0 0.0 0.0
0.0 0.0 0.0 0.0 0.0 0.0 0.0 0.0
0.0
00000000: 0000 0000 0000 0000 0000 0000 0000 0000
00000010: 0000 0000 0000 0000 0000 0000 0000 0000
00000020: 0000 0000 0000 0000 0000 0000 0000 0000
00000030: 0000 0000 0000 0000 0000 0000 0000 0000
00000040: 0000 0000 0000 0000 0000 0000 0000 0000
00000050: 0000 0000 0000 0000 0000 0000 0000 0000
00000060: 0000 0000 0000 0000 0000 0000 0000 0000
00000070: 0000 0000 0000 0000 0000 0000 0000 0000
00000080: 0000 0000 0000 0000 0000 0000 0000 0000
00000090: 0000 0000 0000 0000 0000 0000 0000 0000
000000a0: 0000 0000 0000 0000 0000 0000 0000 0000
000000b0: 0000 0000 0000 0000 0000 0000 0000 0000
000000c0: 0000 0000 0000 0000 0000 0000 0000 0000
000000d0: 0000 0000 0000 0000 0000 0000 0000 0000
000000e0: 0000 0000 0000 0000 0000 0000 0000 0000
000000f0: 0000 0000 0000 0000 0000 0000 0000 0000
00000100: 0000 0000 0000 0000 0000 0000 0000 0000
00000110: 0000 0000 0000 0000 0000 0000 0000 0000
00000120: 0000 0000 0000 0000 0000 0000 0000 0000
00000130: 0000 0000 0000 0000 0000 0000 0000 0000
00000140: 0000 0000

exp_avg_sq f4 [9, 1, 3, 3]
0.0 0.0 0.0 0.0 0.0 0.0 0.0 0.0
0.0 0.0 0.0 0.0 0.0 0.0 0.0 0.0
0.0 0.0 0.0 0.0 0.0 0.0 0.0 0.0
0.0 0.0 0.0 0.0 0.0 0.0 0.0 0.0
0.0 0.0 0.0 0.0 0.0 0.0 0.0 0.0
0.0 0.0 0.0 0.0 0.0 0.0 0.0 0.0
0.0 0.0 0.0 0.0 0.0 0.0 0.0 0.0
0.0 0.0 0.0 0.0 0.0 0.0 0.0 0.0
0.0 0.0 0.0 0.0 0.0 0.0 0.0 0.0
0.0 0.0 0.0 0.0 0.0 0.0 0.0 0.0
0.0
00000000: 0000 0000 0000 0000 0000 0000 0000 0000
00000010: 0000 0000 0000 0000 0000 0000 0000 0000
00000020: 0000 0000 0000 0000 0000 0000 0000 0000
00000030: 0000 0000 0000 0000 0000 0000 0000 0000
00000040: 0000 0000 0000 0000 0000 0000 0000 0000
00000050: 0000 0000 0000 0000 0000 0000 0000 0000
00000060: 0000 0000 0000 0000 0000 0000 0000 0000
00000070: 0000 0000 0000 0000 0000 0000 0000 0000
00000080: 0000 0000 0000 0000 0000 0000 0000 0000
00000090: 0000 0000 0000 0000 0000 0000 0000 0000
000000a0: 0000 0000 0000 0000 0000 0000 0000 0000
000000b0: 0000 0000 0000 0000 0000 0000 0000 0000
000000c0: 0000 0000 0000 0000 0000 0000 0000 0000
000000d0: 0000 0000 0000 0000 0000 0000 0000 0000
000000e0: 0000 0000 0000 0000 0000 0000 0000 0000
000000f0: 0000 0000 0000 0000 0000 0000 0000 0000
00000100: 0000 0000 0000 0000 0000 0000 0000 0000
00000110: 0000 0000 0000 0000 0000 0000 0000 0000
00000120: 0000 0000 0000 0000 0000 0000 0000 0000
00000130: 0000 0000 0000 0000 0000 0000 0000 0000
00000140: 0000 0000

exp_avg f4 [9]
-0.0015853919 0.00027083664 0.0006386917 0.00058240985 0.00029034232 0.0028278246 0.0017354066 0.0027762458
-0.0027067715
00000000: edcc cfba 14ff 8d39 e06d 273a ddac 183a
00000010: 1639 9839 0653 393b 9576 e33a adf1 353b
00000020: 1764 31bb

exp_avg_sq f4 [9]
7.7468096e-05 8.5003005e-05 0.00010695038 0.0001632019 5.307552e-05 0.00010541333 8.5541695e-05 8.4819825e-05
7.6694465e-05
00000000: 5e76 a238 a443 b238 8c4a e038 2d21 2b39
00000010: 689d 5e38 5a11 dd38 d964 b338 4ce1 b138
00000020: 07d7 a038

exp_avg f4 [16, 9, 3, 3]
-0.005578122 -0.008089232 -0.0011556216 -0.0035856406 -0.008018863 -0.0003507286 -0.006511479 -0.007917815
-0.00486576 0.0010140504 -0.0013552973 -0.0025090452 0.002452624 0.0007416528 0.0033897636 0.0048060757
0.0044404934 0.0015978444 -0.0027662346 -0.0056046685 -0.0056685624 0.0004728296 0.00064179586 -0.0047214823
-0.0011495921 0.0009196534 -0.00026815434 0.0006637814 -0.0020641256 -0.002304179 0.0032569421 0.003735231
0.0030784376 0.0050928416 0.0045595467 0.0067798095 -0.0013015713 0.0013067719 0.0020764968 0.007892221
0.007520375 0.0025574542 0.0134261465 0.019602014 0.018390704 -0.002158139 -0.007442597 -0.0062414845
-0.0013136426 -0.0039521605 -0.007104923 -0.0051335627 -0.0048633246 -0.009175528 0.0009570388 -0.0017395939
-0.0036524783 0.0013258831 -0.0007370353 -0.0011611882 0.0011252224 -0.0005480465 -0.0014464919 0.0004995045
-0.0010209392 -0.0056292186 0.003555145 -0.0020460906 0.001290282 0.0030997517 0.0021058826 -0.00223157
-0.0016452427 -0.004174967 0.0023800968 0.0010801282 0.0016907626 0.000278674 0.0014968802 0.0041416236
0.0041909753 -0.0031391936 -0.0011531463 -0.0004791779 -0.00086834823 0.0011787324 0.0035796359 0.0013353155
0.002845184 0.0034572296 -0.0005541641 0.0036339702 0.0020089073 -0.0009808505 -0.0014169173 0.00039036683
-0.0034389147 -0.003979176 -0.0040815393 0.0013944347 0.0022345327 0.0048045046 0.0027346825 -0.0012454999
-9.079197e-05 0.0029916107 0.00035803832 0.00062212546 0.006581335 0.0055546374 0.0026684606 0.000115903655
-0.001352806 -0.0015426214 -0.0032154 -0.0022767955 -0.0012429357 0.005655381 0.013308899 0.013191249
-0.003343625 0.0042046034 0.0033266607 -0.0039398484 -0.0063669397 -0.008643438 0.0021773926 -0.0044847853
-0.00020610922 -0.0011090823 -0.0008836277 0.0019549213 0.0053511253 -0.0002783207 0.0014758538 -0.0009710523
0.0010485584 -0.0020534089 -0.0021660777 -0.0017214613 0.0003361917 -0.0012885295 7.49529e-05 -0.0007031027
-0.002791002 -0.0002516575 -0.0015702844 -0.006050535 -0.003793436 -0.002009898 -0.003885759 -0.0047793845
-0.0024187397 0.0009945311 0.003760215 0.0051539484 -0.0010066443 0.0021387024 0.0019584012 -0.0006746846
-0.002122152 -0.0013833919 0.00028651772 -0.001822323 0.0010648617 0.0001392513 5.991546e-05 -0.00014357056
-0.0014274624 -0.0018687339 -0.0027774896 0.000263507 0.00046585978 -0.000962639 -0.000454105 -0.0006246228
-0.00030586225 0.0025887813 0.0018486584 0.00088984385 0.000505121 0.0016289318 8.91347e-05 0.0009400729
0.00034809837 -0.0010745645 -0.0019791971 -0.0018407827 -0.00195951 0.00012984182 0.0012698587 -0.00021548496
-0.00025347192 -0.00068214856 -0.00035912264 0.001824957 0.00072002015 0.00015373105 -0.00050340744 0.0007781487
0.0031364125 0.00030891396 0.0018491431 -1.03112925e-05 0.0037157026 0.0030993533 0.004137518 0.0027521546
-0.00051308546 -0.00223802 -8.0411126e-05 -0.00035959203 -0.0004833128 -0.0018880849 -0.0016893918 -0.0025850022
1.7034208e-06 -0.0010277511 -0.00081332785 -0.0009222097 -0.0004924364 1.4130842e-05 0.00075228215 0.00053987105
-0.0001536271 0.0010548085 -0.0004041883 0.00038877857 -0.001702126 -0.0017195748 -0.0011370034 0.0021272642
0.0019636073 0.0009194748 9.526166e-05 0.0007056978 0.00076487166 0.0011095427 0.00042206005 -0.00032985178
0.00040129217 1.697728e-05 -4.604634e-05 0.0041424334 0.0013350022 0.0010217393 0.00091977953 0.00096347404
0.0015417471 0.0012536901 -0.0008636388 0.0018307313 -0.00018794619 0.0016644476 0.0030631772 -0.0023371656
00000000: aec8 b6bb b388 04bc 3a78 97ba 11fd 6abb
00000010: 8d61 03bc ffe1 b7b9 3f5e d5bb b9b9 01bc
00000020: f470 9fbb e3e9 843a 3ba4 b1ba cb6e 24bb
00000030: 34bc 203b 7a6b 423a cc26 5e3b 497c 9d3b
00000040: 8f81 913b c36e d13a b749 35bb 5ea7 b7bb
00000050: 59bf b9bb 1de6 f739 313e 283a aab6 9abb
00000060: e9ad 96ba e514 713a 1197 8cb9 9e01 2e3a
00000070: 4846 07bb b501 17bb 6c72 553b c7ca 743b
00000080: 9dbf 493b dae1 a63b 4068 953b 2a29 de3b
00000090: 7c99 aaba fd47 ab3a d615 083b 604e 013c
000000a0: 7a6d f63b f69a 273b 57f9 5b3c 6794 a03c
000000b0: 1aa8 963c 906f 0dbb 07e1 f3bb 5e85 ccbb
000000c0: 882e acba 2081 81bb 6ad0 e8bb 7237 a8bb
000000d0: 865c 9fbb f454 16bc c9e1 7a3a 1603 e4ba
000000e0: 6b5e 6fbb 41c9 ad3a 9a35 41ba 0333 98ba
000000f0: 337c 933a c7aa 0fba 3798 bdba 2ef1 023a
00000100: 09d1 85ba 4f75 b8bb 70fd 683b b417 06bb
00000110: ae1e a93a 3425 4b3b d902 0a3b 883f 12bb
00000120: 2fa5 d7ba 29ce 88bb 66fb 1b3b 1793 8d3a
00000130: 949c dd3a fe1a 9239 f732 c43a 75b6 873b
00000140: 7354 893b eeba 4dbb 2b25 97ba 2b3a fbb9
00000150: dda1 63ba b27f 9a3a 5398 6a3b c105 af3a
00000160: 4476 3a3b b092 623b 5345 11ba e727 6e3b
00000170: dfa7 033b e28f 80ba dbb7 b9ba 26aa cc39
00000180: 6a5f 61bb bf63 82bb 6fbe 85bb 77c5 b63a
00000190: 3d71 123b 1b6f 9d3b 5c38 333b 0b40 a3ba
000001a0: 9167 beb8 e60e 443b 17b7 bb39 2216 233a
000001b0: 3da8 d73b ad03 b63b 57e1 2e3b 4d11 f338
000001c0: a350 b1ba c931 caba 76b9 52bb 4a36 15bb
000001d0: 00ea a2ba c650 b93b 910d 5a3c 1c20 583c
000001e0: b820 5bbb c5c6 893b 1b04 5a3b d819 81bb
000001f0: c3a1 d0bb 359d 0dbc 96b2 0e3b 1bf5 92bb
00000200: 061f 58b9 a05e 91ba 40a3 67ba 231e 003b
00000210: 7e58 af3b 92eb 91b9 7071 c13a 378e 7eba
00000220: c86f 893a 7c92 06bb c1f4 0dbb a8a2 e1ba
00000230: e342 b039 e0e3 a8ba 0830 9d38 6c50 38ba
00000240: 3ee9 36bb e6f0 83b9 00d2 cdba 9143 c6bb
00000250: 4c9b 78bb 7eb8 03bb 38a8 7ebb 629c 9cbb
00000260: b883 1ebb ed5a 823a f06d 763b 74e2 a83b
00000270: 61f1 83ba 7929 0c3b 8558 003b 51dd 30ba
00000280: cd13 0bbb ee52 b5ba c237 9639 03db eeba
00000290: d492 8b3a fc03 1239 bc4d 7b38 6e8b 16b9
000002a0: b119 bbba 4ef0 f4ba 8b06 36bb 5027 8a39
000002b0: a43e f439 9c59 7cba f114 eeb9 babd 23ba
000002c0: 235c a0b9 8ba8 293b af4e f23a 6944 693a
000002d0: 196a 043a e281 d53a d4ed ba38 396f 763a
000002e0: f980 b639 67d8 8cba 6bb5 01bb 6b46 f1ba
000002f0: 1f6b 00bb 2626 0839 6371 a63a cef3 61b9
00000300: 6de4 84b9 37d2 32ba a048 bcb9 6533 ef3a
00000310: bcbf 3c3a dd32 2139 1af7 03ba adfc 4b3a
00000320: 458c 4d3b bbf5 a139 f25e f23a aafe 2cb7
00000330: 2583 733b 851e 4b3b 0494 873b 7e5d 343b
00000340: 9580 06ba bfab 12bb 65a2 a8b8 a087 bcb9
00000350: 2565 fdb9 9e79 f7ba 956e ddba 2469 29bb
00000360: 18a1 e435 9bb5 86ba 8235 55ba 72c0 71ba
00000370: d916 01ba 8113 6d37 cd34 453a 2286 0d3a
00000380: f616 21b9 8041 8a3a 3ce9 d3b9 fad4 cb39
00000390: df19 dfba 5b63 e1ba 8107 95ba 9269 0b3b
000003a0: ddaf 003b e908 713a 37c7 c738 94fe 383a
000003b0: ab81 483a 136e 913a f147 dd39 f5ef acb9
000003c0: 8664 d239 6e6a 8e37 e221 41b8 40bd 873b
000003d0: 3efb ae3a e2eb 853a 5c1d 713a a691 7c3a
000003e0: 7314 ca3a dc52 a43a d265 62ba 26f5 ef3a
000003f0: 6c13 45b9 9829 da3a 96bf 483b 222b 19bb

exp_avg_sq f4 [16, 9, 3, 3]
0.0004137459 0.00054012873 0.00032306582 0.00011505199 0.0004799983 0.00040179119 0.00021154042 0.00028124414
0.00042185266 0.0001234512 0.00015527071 0.00018658486 0.0001249086 0.00015132315 0.00022909995 9.5403506e-05
9.9887264e-05 0.00010631018 0.00014036917 0.00016481706 9.6308075e-05 9.681743e-05 0.00014807255 0.00016648886
0.00010671929 0.00020572002 0.00020465239 0.0002783759 0.00024337656 0.00014328011 0.00018215143 0.0002855742
0.00028627447 0.000117285286 0.00019322225 0.00024351245 0.0026312987 0.0016257906 0.0017365251 0.0019611542
0.0017351183 0.0017399256 0.0012720949 0.0019216684 0.0018468548 0.00038601982 0.0005975915 0.0003857335
0.00017367497 0.0003105237 0.00036154798 0.0001999593 0.0002591427 0.00035662076 7.659871e-05 0.000118523094
7.7185716e-05 3.163287e-05 7.036816e-05 8.2619925e-05 1.6169055e-05 2.6381662e-05 4.420158e-05 0.00027380796
0.00041259816 0.00041196958 0.000109136774 0.00023135226 0.00045142078 9.098294e-05 9.7783595e-05 0.00014852392
0.00026918072 0.00024705214 0.00027097212 0.00020761549 0.00018084678 0.00024156075 0.0001493881 0.00017380028
0.00023198419 0.00030688944 0.0003277271 0.0002890542 0.00027340476 0.00013949537 0.0002600773 0.00032061586
0.00014022237 0.00019593921 0.00015429081 0.000117825526 0.00018241479 0.0001223262 0.000103016086 8.724882e-05
0.00018272822 0.00023949255 0.00014551135 0.00013725461 0.00014612704 0.00020207555 0.00022181582 0.00016037513
0.00020391821 0.00016491182 6.762782e-05 7.7372046e-05 0.00015737883 0.0001422346 0.00011292453 0.000113530354
0.00014222792 0.00016032146 0.00019389189 0.00018091813 9.484109e-05 0.0013611943 0.0018341315 0.0015451184
0.0009841393 0.0010416936 0.0012932377 0.0016791093 0.0015915646 0.0010352035 0.00039944338 0.00047391004
0.00043048357 0.00046493142 0.00037842707 0.00022222067 0.00038168125 0.0001671168 0.00021628992 0.000111772744
0.00013998481 0.00012340615 0.00011830591 5.8158057e-05 3.9949788e-05 6.633518e-05 4.9465674e-05 3.6855632e-05
0.0004492943 0.00034922588 0.00060879666 0.00048540963 0.00034289586 0.00020373143 0.00031054838 0.0003226855
0.00020700076 0.00015017584 0.00021082717 0.00023570184 0.00018276773 0.00013636106 0.00017672416 0.00025891245
0.0002265621 9.289422e-05 0.00010958673 0.00014842406 0.00013056627 2.8691109e-05 1.7952902e-05 3.4488217e-05
4.652728e-05 3.579704e-05 6.841078e-05 3.506306e-05 2.094733e-05 2.6934484e-05 5.1157367e-05 6.881245e-05
2.7596227e-05 3.4975732e-05 3.0409477e-05 4.07023e-05 9.960934e-05 7.8815734e-05 6.629467e-05 3.053929e-05
1.1938047e-05 1.9258681e-05 3.1326923e-05 2.2406113e-05 2.6358897e-05 3.3091103e-05 3.929747e-05 5.8614303e-05
7.4412295e-05 6.162608e-05 3.9337054e-05 3.6674093e-05 1.6739441e-05 2.171725e-05 0.00026790076 0.0002503199
0.000554299 0.0012583358 0.00081033225 0.0005208481 0.00045960597 0.00027131956 0.00026804078 0.00022743565
0.00013240134 0.00013294524 7.736877e-05 1.8506626e-05 3.745591e-05 4.7966023e-05 3.5537607e-05 5.9873455e-05
4.2762833e-05 1.6845728e-05 1.3423095e-05 1.7325563e-05 1.44374335e-05 4.8784495e-06 6.260606e-06 9.366657e-06
1.13321785e-05 0.00019228437 0.00010167941 7.946869e-05 7.199515e-05 0.00012207955 4.8189857e-05 3.9344046e-05
4.2465952e-05 4.7143243e-05 7.525567e-05 6.2015104e-05 7.367388e-05 0.00014430027 8.077227e-05 4.8571696e-05
8.2333485e-05 2.953879e-05 2.465441e-05 0.0002766489 0.00021336183 0.00021846115 0.0003292285 5.3419873e-05
0.00011119759 0.00032098126 3.1783606e-05 5.2050935e-05 7.2590454e-05 0.00015776903 0.00020650208 9.075002e-05
00000000: 09ec d839 6d97 0d3a 2961 a939 1148 f138
00000010: 48a8 fb39 80a7 d239 f3d0 5d39 f373 9339
00000020: 1b2c dd39 ae72 0139 2ad0 2239 fea5 4339
00000030: e6f9 0239 80ac 1e39 8d3a 7039 5e13 c838
00000040: 917a d138 d8f2 de38 1030 1339 bed2 2c39
00000050: 01f9 c938 760a cb38 ec43 1b39 8393 2e39
00000060: 7cce df38 8cb6 5739 f597 5639 fbf2 9139
00000070: e632 7f39 763d 1639 e7ff 3e39 1fb9 9539
00000080: 1c17 9639 0ff7 f538 b49b 4a39 6057 7f39
00000090: de71 2c3b 7b18 d53a 1d9c e33a b586 003b
000000a0: e96c e33a 370e e43a 6cbc a63a 7ee0 fb3a
000000b0: 2a12 f23a b462 ca39 b0a7 1c3a 463c ca39
000000c0: 851c 3639 c9cd a239 268e bd39 2aac 5139
000000d0: 8bdd 8739 d4f8 ba39 9fa3 a038 9a8f f838
000000e0: c4de a138 89ad 0438 9e92 9338 3c44 ad38
000000f0: c8a2 8737 304e dd37 1665 3938 e28d 8f39
00000100: fd51 d839 9ffd d739 5ce0 e438 2697 7239
00000110: acac ec39 18ce be38 2b11 cd38 16bd 1b39
00000120: d320 8d39 c786 8139 4311 8e39 5cb3 5939
00000130: b0a1 3d39 784b 7d39 10a5 1c39 283e 3639
00000140: c840 7339 01e6 a039 c9d2 ab39 338c 9739
00000150: c457 8f39 8145 1239 fc5a 8839 5518 a839
00000160: a808 1339 0875 4d39 20c9 2139 1919 f738
00000170: 9946 3f39 b044 0039 570a d838 5bf9 b638
00000180: bc9a 3f39 4b20 7b39 6894 1839 01ec 0f39
00000190: ae39 1939 3ee4 5339 3b97 6839 5f2a 2839
000001a0: e1d2 5539 2eec 2c39 69d3 8d38 cd42 a238
000001b0: 0f06 2539 cf24 1539 e5d1 ec38 2517 ee38
000001c0: 0423 1539 f71b 2839 754f 4b39 d7b4 3d39
000001d0: 6ce5 c638 1a6a b23a 3e67 f03a 9285 ca3a
000001e0: 3cfe 803a 7089 883a db81 a93a 8f15 dc3a
000001f0: 0c9c d03a aaaf 873a 626c d139 2177 f839
00000200: 87b2 e139 0ac2 f339 9f67 c639 e803 6939
00000210: 641c c839 133c 2f39 e2cb 6239 8967 ea38
00000220: e3c8 1239 9666 0139 001b f838 bdee 7338
00000230: c28f 2738 6e1d 8b38 5d79 4f38 6f95 1a38
00000240: 438f eb39 4e18 b739 a797 1f3a 947e fe39
00000250: b4c6 b339 bda0 5539 19d1 a239 1d2e a939
00000260: 580e 5939 8578 1d39 7d11 5d39 bb26 7739
00000270: 57a5 3f39 25fc 0e39 084f 3939 a4be 8739
00000280: 4d91 6d39 34d0 c238 edd1 e538 48a2 1b39
00000290: 9ee8 0839 b0ad f037 9099 9637 71a7 1038
000002a0: 4926 4338 c724 1638 c277 8f38 ad10 1338
000002b0: 0cb8 af37 5df1 e137 ce91 5638 674f 9038
000002c0: 727e e737 e8b2 1238 db17 ff37 c3b7 2a38
000002d0: 5be5 d038 e049 a538 ae07 8b38 5017 0038
000002e0: 8549 4837 b48d a137 0765 0338 c3f4 bb37
000002f0: 4d1d dd37 4dcb 0a38 56d3 2438 a1d8 7538
00000300: cc0d 9c38 403d 8138 d7fd 2438 82d2 1938
00000310: ad6b 8c37 702d b637 0875 8c39 5e3d 8339
00000320: 604e 113a beee a43a 7a6c 543a 8689 083a
00000330: 45f7 f039 e53f 8e39 d387 8c39 cb7b 6e39
00000340: 37d5 0a39 3767 0b39 0b41 a238 ad3e 9b37
00000350: fa19 1d38 202f 4938 370e 1538 a220 7b38
00000360: 3e5c 3338 ed4f 8d37 c133 6137 5d56 9137
00000370: 4e38 7237 90b1 a336 3212 d236 7c25 1d37
00000380: 561f 3e37 f19f 4939 b83c d538 6ea8 a638
00000390: 1afc 9638 7b02 0039 771f 4a38 5905 2538
000003a0: 781d 3238 acbb 4538 95d2 9d38 1b0e 8238
000003b0: 5d81 9a38 4f4f 1739 4864 a938 76b9 4b38
000003c0: 74aa ac38 12ca f737 f1d0 ce37 300b 9139
000003d0: e1b9 5f39 b812 6539 4d9c ac39 270f 6038
000003e0: c032 e938 6049 a839 634f 0538 4451 5a38
000003f0: b43b 9838 cd6e 2539 7b88 5839 0c51 be38

exp_avg f4 [16]
-3.252015e-10 6.006789e-10 1.2049985e-10 3.350209e-10 1.2530436e-10 1.1028844e-10 -1.5769641e-10 -8.83693e-11
6.158277e-11 -3.107628e-10 -6.3265765e-10 -1.7610222e-10 1.6445628e-10 2.5167002e-10 2.676191e-10 -4.212041e-10
00000000: 0bc8 b2af 051d 2530 b17d 042f 002e b82f
00000010: 0bc6 092f df86 f22e 9863 2daf 7e53 c2ae
00000020: 046c 872e fad7 aaaf 53e7 2db0 5ea0 41af
00000030: 54d2 342f 685b 8a2f 0a20 932f 358f e7af

exp_avg_sq f4 [16]
3.6307732e-18 3.7028244e-18 1.2021222e-18 2.1989333e-18 2.4528174e-18 3.3887456e-18 2.0770675e-18 4.0193343e-18
3.550705e-18 2.8668688e-18 4.1681205e-18 3.2171215e-18 4.121671e-18 4.6717726e-18 2.595843e-18 3.4155532e-18
00000000: aff3 8522 309c 8822 e566 b121 ad40 2222
00000010: 69fc 3422 980b 7a22 b242 1922 8a49 9422
00000020: 76ff 8222 9f89 5322 c9c6 9922 b561 6d22
00000030: 1510 9822 a55b ac22 178a 3f22 fa05 7c22

exp_avg f4 [16]
0.02390935 0.0026992327 -0.011059441 0.019760428 -0.010521302 0.007740481 -0.022606213 0.026542883
-0.018070472 -0.012878281 -0.012604528 -0.029142829 0.023467606 -0.005222603 0.013945497 0.022363283
00000000: 8bdd c33c 9ce5 303b a832 35bc 9fe0 a13c
00000010: 8a61 2cbc dca3 fd3b aa30 b9bc 7670 d93c
00000020: 8708 94bc 6dff 52bc 3983 4ebc f1bc eebc
00000030: 233f c03c 5f22 abbb a77b 643c 3433 b73c

exp_avg_sq f4 [16]
0.010809032 0.01005921 0.008433349 0.00515347 0.0069886902 0.0039937776 0.009602662 0.010225562
0.013730557 0.015443064 0.015959062 0.012007314 0.0129372915 0.0086454805 0.011656611 0.0064245593
00000000: 5e18 313c 62cf 243c 082c 0a3c 71de a83b
00000010: 6201 e53b 3cde 823b 7c54 1d3c 1e89 273c
00000020: 21f6 603c e804 7d3c 94bc 823c 53ba 443c
00000030: eff6 533c c6a5 0d3c 5ffb 3e3c 1c85 d23b

exp_avg f4 [16]
0.005612627 0.005141665 -0.0034725233 0.009873894 -0.00520264 0.0053106323 -0.009752134 0.015441474
-0.0033471012 -0.005708835 -0.00895791 -0.016169345 0.011918206 8.181405e-05 0.0037304873 0.011606374
00000000: 21ea b73b 6a7b a83b 4693 63bb 1dc6 213c
00000010: e87a aabb d004 ae3b 6ac7 1fbc 3cfe 7c3c
00000020: 0a5b 5bbb 2e11 bbbb 33c4 12bc 9375 84bc
00000030: 9444 433c 9593 ab38 317b 743b a928 3e3c

exp_avg_sq f4 [16]
0.00294733 0.0025577897 0.002376496 0.0014436794 0.002211678 0.0012306154 0.0019720464 0.0029661395
0.0028036444 0.0030920936 0.0049051824 0.002260581 0.0030328168 0.0031000772 0.0023684283 0.0015463755
00000000: fe27 413b 97a0 273b fdbe 1b3b d839 bd3a
00000010: cdf1 103b 9a4c a13a 733d 013b 9063 423b
00000020: 59bd 373b b9a4 4a3b a7bb a03b 4126 143b
00000030: 39c2 463b aa2a 4b3b a237 1b3b c0af ca3a

exp_avg f4 [2, 16, 1, 1]
-3.0926054e-05 -4.169543e-05 -3.195672e-06 -5.7395915e-05 -2.4426154e-05 -0.0001259741 -7.1086906e-05 -3.3439883e-05
-8.698619e-05 -2.0494228e-05 -6.121914e-05 -4.331544e-05 -8.076438e-05 -0.0001813903 -5.9153874e-05 2.3274299e-05
0.0010197952 0.00030332705 0.00031604277 0.00046432595 0.0005210626 0.0006192673 0.00046940395 0.0009958281
0.00027778698 -4.057941e-05 0.00021195397 -6.0401242e-05 0.00056654104 0.0008207031 5.281404e-05 0.00053215615
00000000: 99b6 01b8 21e2 2eb8 3a75 56b6 65bc 70b8
00000010: c4e6 ccb7 ea17 04b9 7e14 95b8 cd41 0cb8
00000020: 5b6c b6b8 05eb abb7 c762 80b8 99ad 35b8
00000030: 0c60 a9b8 9733 3eb9 fd1b 78b8 2d3d c337
00000040: a6aa 853a de07 9f39 8bb2 a539 c670 f339
00000050: eb97 083a 5356 223a 551a f639 7286 823a
00000060: f0a3 9139 cf33 2ab8 f63f 5e39 5757 7db8
00000070: ed83 143a 7424 573a a584 5d38 6580 0b3a
