saved_models/emnist_cnn_ultra.pth (torch, 970622 bytes, 47 tensors)

conv1.weight f4 [9, 1, 5, 5]
0.9999996 0.9999996 -0.9999996 -0.9999996 0.9999996 0.9999996 -0.9999996 -0.9999996
-0.9999996 0.9999996 0.9999996 -0.9999996 -0.9999996 -0.9999996 0.9999996 -0.9999996
-0.9999996 -0.9999996 -0.9999996 0.9999996 -0.9999996 -0.9999996 0.9999996 0.9999996
0.9999996 -0.9999996 -0.9999996 0.9999996 -0.9999996 0.9999996 -0.9999996 -0.9999996
0.9999996 -0.9999996 0.9999996 -0.9999996 0.9999996 0.9999996 -0.9999996 -0.9999996
0.9999996 -0.9999996 -0.9999996 0.9999996 -0.9999996 -0.9999996 -0.9999996 -0.9999996
0.9999996 0.9999996 -0.9999996 -0.9999996 0.9999996 0.9999996 -0.9999996 -0.9999996
-0.9999996 0.9999996 0.9999996 0.9999996 -0.9999996 -0.9999996 -0.9999996 0.9999996
0.9999996 -0.9999996 -0.9999996 0.9999996 0.9999996 -0.9999996 0.9999996 -0.9999996
-0.9999996 0.9999996 0.9999996 0.9999996 0.9999996 -0.9999996 0.9999996 -0.9999996
0.9999996 0.9999996 0.9999996 0.9999996 -0.9999996 -0.9999996 0.9999996 -0.9999996
-0.9999996 -0.9999996 0.9999996 -0.9999996 -0.9999996 -0.9999996 0.9999996 -0.9999996
-0.9999996 -0.9999996 0.9999996 0.9999996 0.9999996 0.9999996 0.9999996 0.9999996
0.9999996 -0.9999996 0.9999996 0.9999996 0.9999996 0.9999996 -0.9999996 0.9999996
0.9999996 -0.9999996 0.9999996 -0.9999996 0.9999996 -0.9999996 -0.9999996 0.9999996
0.9999996 0.9999996 0.9999996 0.9999996 -0.9999996 -0.9999996 -0.9999996 0.9999996
-0.9999996 -0.9999996 -0.9999996 -0.9999996 -0.9999996 0.9999996 0.9999996 -0.9999996
-0.9999996 -0.9999996 0.9999996 -0.9999996 -0.9999996 0.9999996 -0.9999996 -0.9999996
0.9999996 -0.9999996 -0.9999996 -0.9999996 -0.9999996 -0.9999996 0.9999996 0.9999996
-0.9999996 -0.9999996 -0.9999996 0.9999996 -0.9999996 -0.9999996 -0.9999996 -0.9999996
0.9999996 0.9999996 0.9999996 0.9999996 -0.9999996 -0.9999996 0.9999996 0.9999996
-0.9999996 0.9999996 0.9999996 0.9999996 -0.9999996 -0.9999996 0.9999996 -0.9999996
-0.9999996 0.9999996 0.9999996 -0.9999996 0.9999996 0.9999996 -0.9999996 0.9999996
0.9999996 0.9999996 0.9999996 0.9999996 0.9999996 -0.9999996 0.9999996 0.9999996
-0.9999996 -0.9999996 -0.9999996 0.9999996 -0.9999996 -0.9999996 -0.9999996 -0.9999996
-0.9999996 -0.9999996 -0.9999996 -0.9999996 0.9999996 0.9999996 -0.9999996 0.9999996
-0.9999996 0.9999996 0.9999996 -0.9999996 0.9999996 -0.9999996 -0.9999996 0.9999996
-0.9999996 -0.9999996 0.9999996 0.9999996 -0.9999996 -0.9999996 0.9999996 -0.9999996
-0.9999996
00000000: f9ff 7f3f f9ff 7f3f f9ff 7fbf f9ff 7fbf
00000010: f9ff 7f3f f9ff 7f3f f9ff 7fbf f9ff 7fbf
00000020: f9ff 7fbf f9ff 7f3f f9ff 7f3f f9ff 7fbf
00000030: f9ff 7fbf f9ff 7fbf f9ff 7f3f f9ff 7fbf
00000040: f9ff 7fbf f9ff 7fbf f9ff 7fbf f9ff 7f3f
00000050: f9ff 7fbf f9ff 7fbf f9ff 7f3f f9ff 7f3f
00000060: f9ff 7f3f f9ff 7fbf f9ff 7fbf f9ff 7f3f
00000070: f9ff 7fbf f9ff 7f3f f9ff 7fbf f9ff 7fbf
00000080: f9ff 7f3f f9ff 7fbf f9ff 7f3f f9ff 7fbf
00000090: f9ff 7f3f f9ff 7f3f f9ff 7fbf f9ff 7fbf
000000a0: f9ff 7f3f f9ff 7fbf f9ff 7fbf f9ff 7f3f
000000b0: f9ff 7fbf f9ff 7fbf f9ff 7fbf f9ff 7fbf
000000c0: f9ff 7f3f f9ff 7f3f f9ff 7fbf f9ff 7fbf
000000d0: f9ff 7f3f f9ff 7f3f f9ff 7fbf f9ff 7fbf
000000e0: f9ff 7fbf f9ff 7f3f f9ff 7f3f f9ff 7f3f
000000f0: f9ff 7fbf f9ff 7fbf f9ff 7fbf f9ff 7f3f
00000100: f9ff 7f3f f9ff 7fbf f9ff 7fbf f9ff 7f3f
00000110: f9ff 7f3f f9ff 7fbf f9ff 7f3f f9ff 7fbf
00000120: f9ff 7fbf f9ff 7f3f f9ff 7f3f f9ff 7f3f
00000130: f9ff 7f3f f9ff 7fbf f9ff 7f3f f9ff 7fbf
00000140: f9ff 7f3f f9ff 7f3f f9ff 7f3f f9ff 7f3f
00000150: f9ff 7fbf f9ff 7fbf f9ff 7f3f f9ff 7fbf
00000160: f9ff 7fbf f9ff 7fbf f9ff 7f3f f9ff 7fbf
00000170: f9ff 7fbf f9ff 7fbf f9ff 7f3f f9ff 7fbf
00000180: f9ff 7fbf f9ff 7fbf f9ff 7f3f f9ff 7f3f
00000190: f9ff 7f3f f9ff 7f3f f9ff 7f3f f9ff 7f3f
000001a0: f9ff 7f3f f9ff 7fbf f9ff 7f3f f9ff 7f3f
000001b0: f9ff 7f3f f9ff 7f3f f9ff 7fbf f9ff 7f3f
000001c0: f9ff 7f3f f9ff 7fbf f9ff 7f3f f9ff 7fbf
000001d0: f9ff 7f3f f9ff 7fbf f9ff 7fbf f9ff 7f3f
000001e0: f9ff 7f3f f9ff 7f3f f9ff 7f3f f9ff 7f3f
000001f0: f9ff 7fbf f9ff 7fbf f9ff 7fbf f9ff 7f3f
00000200: f9ff 7fbf f9ff 7fbf f9ff 7fbf f9ff 7fbf
00000210: f9ff 7fbf f9ff 7f3f f9ff 7f3f f9ff 7fbf
00000220: f9ff 7fbf f9ff 7fbf f9ff 7f3f f9ff 7fbf
00000230: f9ff 7fbf f9ff 7f3f f9ff 7fbf f9ff 7fbf
00000240: f9ff 7f3f f9ff 7fbf f9ff 7fbf f9ff 7fbf
00000250: f9ff 7fbf f9ff 7fbf f9ff 7f3f f9ff 7f3f
00000260: f9ff 7fbf f9ff 7fbf f9ff 7fbf f9ff 7f3f
00000270: f9ff 7fbf f9ff 7fbf f9ff 7fbf f9ff 7fbf
00000280: f9ff 7f3f f9ff 7f3f f9ff 7f3f f9ff 7f3f
00000290: f9ff 7fbf f9ff 7fbf f9ff 7f3f f9ff 7f3f
000002a0: f9ff 7fbf f9ff 7f3f f9ff 7f3f f9ff 7f3f
000002b0: f9ff 7fbf f9ff 7fbf f9ff 7f3f f9ff 7fbf
000002c0: f9ff 7fbf f9ff 7f3f f9ff 7f3f f9ff 7fbf
000002d0: f9ff 7f3f f9ff 7f3f f9ff 7fbf f9ff 7f3f
000002e0: f9ff 7f3f f9ff 7f3f f9ff 7f3f f9ff 7f3f
000002f0: f9ff 7f3f f9ff 7fbf f9ff 7f3f f9ff 7f3f
00000300: f9ff 7fbf f9ff 7fbf f9ff 7fbf f9ff 7f3f
00000310: f9ff 7fbf f9ff 7fbf f9ff 7fbf f9ff 7fbf
00000320: f9ff 7fbf f9ff 7fbf f9ff 7fbf f9ff 7fbf
00000330: f9ff 7f3f f9ff 7f3f f9ff 7fbf f9ff 7f3f
00000340: f9ff 7fbf f9ff 7f3f f9ff 7f3f f9ff 7fbf
00000350: f9ff 7f3f f9ff 7fbf f9ff 7fbf f9ff 7f3f
00000360: f9ff 7fbf f9ff 7fbf f9ff 7f3f f9ff 7f3f
00000370: f9ff 7fbf f9ff 7fbf f9ff 7f3f f9ff 7fbf
00000380: f9ff 7fbf

conv1.bias f4 [9]
-0.15177 -0.62034315 -0.17994775 -0.64388496 -0.12650499 -0.4580168 -0.22435357 -0.24068837
-0.64446473
00000000: 9869 1bbe cfce 1ebf 3944 38be a5d5 24bf
00000010: 868a 01be 2e81 eabe f1bc 65be 0377 76be
00000020: a4fb 24bf

conv2.0.weight f4 [16, 9, 3, 3]
-0.05239606 -0.32444286 -0.11599225 -0.22380638 0.026397156 -0.089555636 -0.34877852 -0.3797696
-0.07566419 0.021329038 -0.23083848 -0.030873068 0.1130575 -0.15037549 -0.10849197 -0.054748278
-0.26756534 0.019584058 -0.121717714 -0.27012464 -0.5108746 0.011065187 -0.04659499 -0.321811
-0.32503492 -0.28010234 -0.4053096 -0.19243489 -0.2659056 -0.3700658 -0.0052468325 0.08289072
-0.27189422 -0.2559948 -0.35161573 0.106287524 -0.27557814 -0.16652603 -0.11149515 0.06261006
0.14299989 -0.055870052 -0.18318298 0.004430175 -0.18494609 0.096511215 -0.028038578 0.03101734
-0.026922537 0.02161329 -0.046227094 0.1976167 0.19064827 0.2388072 -0.42738974 -0.49706492
-0.66450965 -0.21573132 -0.118880786 -0.27087882 -0.1092948 -0.5844688 -0.6405539 -0.4154438
-0.06926017 -0.26459688 0.01889971 0.024345089 0.052486423 -0.21889965 -0.37156203 0.036246788
-0.0147285955 -0.16712981 -0.09025197 -0.16905046 -0.13454466 -0.15014999 -0.079341896 -0.160503
0.048807416 0.067229345 0.042448755 -0.2217068 -0.081528276 -0.045080665 -0.15873457 -0.07740833
-0.30972883 -0.19625136 0.26595998 -0.18405968 -0.0064111375 0.13822809 0.15144818 0.15750247
0.2062767 -0.0814235 -0.1255641 0.43831074 -0.20832054 0.07300329 0.60228217 0.030656647
-0.0029736196 0.022956468 0.434649 0.13063471 -0.037167873 0.025616588 -0.06957788 0.015607797
0.055061415 -0.25239182 -0.17093278 0.061495285 0.20231232 0.06722225 -0.062239986 -0.116957344
0.06163544 -0.071805544 -0.053560548 0.03962071 0.0983619 0.2937909 -0.02447414 0.0003112333
-0.010998597 0.28590876 0.22384492 -0.025104837 0.3914415 0.5799985 0.16047733 -0.2514471
0.29839268 -0.10086122 -0.015643489 0.2082093 0.17322837 -0.2608322 -0.4358989 -0.114300236
0.10988527 -0.06616536 -0.16459043 0.22046131 0.02791217 -0.39982235 0.27591056 0.2503399
-0.15006891 -0.28464514 -0.11943762 -0.05583554 0.20363064 0.04951708 -0.17054532 0.37380475
-0.005997444 -0.036965113 0.19448882 -0.21849614 -0.059479825 0.14794262 0.29586688 0.062234405
-0.15256834 0.3341587 -0.03394142 0.21322781 0.34209082 -0.056512777 -0.0502376 0.35994154
-0.07843575 0.4419982 0.16819985 0.071370974 0.12330775 -0.2055923 0.30118123 -0.0046096095
-0.17120703 0.42086995 0.21020237 -0.00026266943 0.16276485 0.020519666 -0.14376584 -0.32545078
-0.08550089 -0.20501958 -0.34632167 0.21328177 -0.48204845 -0.08218189 -0.05269082 0.661028
-0.040064506 0.35500413 0.034503613 -0.056645375 0.1322498 -0.31346184 -0.09568069 -0.26818854
-0.00023082782 -0.3648729 -0.16369978 -0.116161145 -0.18230979 -0.008477804 0.10129681 0.038546447
-0.04264699 0.0074991714 -0.07053556 -0.008817106 0.13852596 0.060934238 0.07108569 0.46898314
-0.0021161563 0.08827349 0.16265088 -0.22000153 0.01573952 0.26116738 -0.049045578 0.20822743
0.0651766 0.20825209 0.12905163 0.039668556 0.21158063 0.09396892 0.06522252 0.24315338
0.18864821 0.026059562 0.11346542 0.08168495 0.7791773 0.012493906 0.2993762 0.2878303
0.1312173 0.1943505 -0.02609956 -0.09388795 -0.036444053 0.25745174 0.4247733 -0.09591541
00000000: 409d 56bd 601d a6be 588d edbd 802d 65be
00000010: d93e d83c f268 b7bd 1993 b2be 2971 c2be
00000020: d4f5 9abd 3cba ae3c ec60 6cbe 84e9 fcbc
00000030: b18a e73d 08fc 19be 0a31 debd bb3f 60bd
00000040: 53fe 88be bf6e a03c 2347 f9bd c74d 8abe
00000050: aec8 02bf c24a 353c 63da 3ebd 69c4 a4be
00000060: fa6a a6be 9369 8fbe bd84 cfbe a70d 45be
00000070: c724 88be 4479 bdbe 9fed abbb 9cc2 a93d
00000080: b835 8bbe c011 83be fa06 b4be 46ad d93d
00000090: 9418 8dbe cd85 2abe 9257 e4bd b439 803d
000000a0: 906e 123e ffd7 64bd 5294 3bbe 002b 913b
000000b0: 8262 3dbe aca7 c53d 29b1 e5bc 1418 fe3c
000000c0: a78c dcbc 5b0e b13c 9f58 3dbd 085c 4a3e
000000d0: 4d39 433e e089 743e d4d2 dabe 4b7f febe
000000e0: 4e1d 2abf ace8 5cbe c577 f3bd a1b0 8abe
000000f0: f4d5 dfbd bf9f 15bf 57fb 23bf 0db5 d4be
00000100: 47d8 8dbd 3e79 87be 91d3 9a3c 5a6f c73c
00000110: 01fc 563d 3b27 60be 613d bebe 8377 143d
00000120: 3550 71bc 1424 2bbe 06d6 b8bd 901b 2dbe
00000130: 13c6 09be ebc0 19be 017e a2bd e65a 24be
00000140: 49ea 473d 8aaf 893d bfde 2d3d 1b07 63be
00000150: 4cf8 a6bd 81a6 38bd 518b 22be 4288 9ebd
00000160: c794 9ebe 1ef6 48be e82b 883e 247a 3cbe
00000170: 8514 d2bb aa8b 0d3e 3b15 1b3e 5448 213e
00000180: 333a 533e 5dc1 a6bd e093 00be 446a e03e
00000190: fb51 55be c082 953d 2a2f 1a3f a623 fb3c
000001a0: 0fe1 42bb 340f bc3c 508a de3e 1bc5 053e
000001b0: 573d 18bd e1d9 d13c d97e 8ebd d8b7 7f3c
000001c0: 1488 613d 8039 81be 0109 2fbe 7be2 7b3d
000001d0: f62a 4f3e d2ab 893d 5bef 7ebd 5587 efbd
000001e0: 7175 7c3d c90e 93bd 4e62 5bbd 5349 223d
000001f0: f771 c93d c36b 963e fe7d c8bc 072d a339
00000200: 7633 34bc a262 923e 9a37 653e a9a8 cdbc
00000210: 056b c83e c87a 143f 2b54 243e adbd 80be
00000220: edc6 983e 5490 cebd c626 80bc d234 553e
00000230: c762 313e cc8b 85be 242e dfbe 3e16 eabd
00000240: 870b e13d b481 87bd 658a 28be 9cc0 613e
00000250: 10a8 e43c 84b5 ccbe 2644 8d3e 8d2c 803e
00000260: aaab 19be 02bd 91be b69b f4bd cfb3 64bd
00000270: 8d84 503e 6cd2 4a3d 6fa3 2ebe 5663 bf3e
00000280: 3586 c4bb bb68 17bd 1428 473e 74bd 5fbe
00000290: 1ea1 73bd 457e 173e dd7b 973e 81e9 7e3d
000002a0: e03a 1cbe d916 ab3e 2906 0bbd 6458 5a3e
000002b0: 8726 af3e f179 67bd f1c5 4dbd 424a b83e
000002c0: eca2 a0bd 974d e23e 953c 2c3e f22a 923d
000002d0: c688 fc3d ca86 52be 6d34 9a3e 350c 97bb
000002e0: e550 2fbe 447c d73e 4a3f 573e e5b6 89b9
000002f0: d4ab 263e dc18 a83c 5a37 13be 7ca1 a6be
00000300: 171b afbd a7f0 51be 1351 b1be 8966 5a3e
00000310: 0ecf f6be fb4e a8bd 54d2 57bd 2239 293f
00000320: ae1a 24bd 1ac3 b53e a953 0d3d fb04 68bd
00000330: 7e6c 073e 127e a0be 3df4 c3bd 0250 89be
00000340: 5f0a 72b9 9fd0 babe eaa0 27be e5e5 edbd
00000350: 6baf 3abe 7de6 0abc b474 cf3d e1e2 1d3d
00000360: 9cae 2ebd 9cbb f53b f374 90bd 9f75 10bc
00000370: c0d9 0d3e 2e96 793d 6095 913d 8f1e f03e
00000380: 36af 0abb bbc8 b43d f48d 263e 1548 61be
00000390: 2af0 803c bbb7 853e 04e4 48bd 9239 553e
000003a0: 4f7b 853d 0940 553e 1c26 043e 7f7b 223d
000003b0: 98a8 583e c772 c03d 6293 853d 33fd 783e
000003c0: ff2c 413e dd7a d53c 8f60 e83d 704a a73d
000003d0: 2a78 473f 3db3 4c3c d647 993e 7e5e 933e
000003e0: d45d 063e d103 473e bfce d5bc 5348 c0bd
000003f0: 5c46 15bd b7d0 833e e37b d93e 4c6f c4bd

conv2.0.bias f4 [16]
-0.00081969984 0.03729888 -0.048893165 -0.11906814 0.02066271 0.015440904 -0.0051885108 -0.12848637
-0.027435822 0.030743837 0.006763145 0.1201886 -0.0778064 0.12403652 -0.057406396 -0.05276998
00000000: 20e1 56ba b6c6 183d 3344 48bd ffd9 f3bd
00000010: d844 a93c d8fb 7c3c 6204 aabb ee91 03be
00000020: 17c1 e0bc 80da fb3c 5f9d dd3b 7125 f63d
00000030: f658 9fbd dc06 fe3d f822 6bbd 5625 58bd

conv2.1.weight f4 [16]
1.0578303 0.9717317 0.8384464 0.881823 0.89673686 0.9663754 0.96127397 1.0866525
1.0007128 0.92744976 1.0227154 0.8526446 1.1201338 1.1075348 1.0622891 0.80820966
00000000: fc66 873f 69c3 783f 6ca4 563f 27bf 613f
00000010: 8c90 653f 6164 773f 0d16 763f 6e17 8b3f
00000020: 5b17 803f 596d 6d3f 57e8 823f eb46 5a3f
00000030: 8b60 8f3f b3c3 8d3f 17f9 873f d4e6 4e3f

conv2.1.bias f4 [16]
-0.14218034 -0.17415766 -0.28514478 -0.32086024 -0.4194625 -0.24541219 -0.4981728 -0.09559742
-0.6630461 0.16483459 -0.47269505 -0.3243268 -0.27701628 -0.36689636 -0.24079084 -0.29299542
00000000: b997 11be 6356 32be 7ffe 91be cb47 a4be
00000010: cac3 d6be 554d 7bbe 8110 ffbe 95c8 c3bd
00000020: 64bd 29bf 66ca 283e 1605 f2be 2a0e a6be
00000030: 14d5 8dbe d7d9 bbbe e091 76be 7f03 96be

conv2.1.running_mean f4 [16]
-10.717887 11.428318 -0.13891867 5.3718767 -0.84865963 -1.7658749 1.360086 3.9252121
-1.0720958 4.817355 -3.2075381 -9.28523 12.126075 12.229466 -2.5583372 5.1663313
00000000: 777c 2bc1 64da 3641 b240 0ebe 6ae6 ab40
00000010: c241 59bf 3008 e2bf 4c17 ae3f ad36 7b40
00000020: 6f3a 89bf c627 9a40 4e48 4dc0 4d90 14c1
00000030: 6704 4241 e5ab 4341 ccbb 23c0 9652 a540

conv2.1.running_var f4 [16]
107.451035 100.63269 49.340923 138.7358 50.956223 127.72796 87.81762 125.797966
63.542454 71.05851 33.05088 71.17166 71.229004 190.92131 36.87339 44.298534
00000000: eee6 d642 f043 c942 1b5d 4542 5dbc 0a43
00000010: 2cd3 4b42 b774 ff42 9fa2 af42 8f98 fb42
00000020: 792b 7e42 f51d 8e42 1a34 0442 e457 8e42
00000030: 4075 8e42 dbeb 3e43 5a7e 1342 b331 3142

attention.channel_att.1.weight f4 [2, 16, 1, 1]
-0.511459 -0.5973275 -1.4933714 -1.0893282 -0.3359689 -0.57119346 -0.9787173 -0.8513955
-1.2955984 -1.0730016 -1.270418 -0.4585193 -0.5433404 -1.1739984 -0.7526669 -1.040577
0.3807193 1.0718548 0.14146788 0.013160996 -0.58986586 0.19794215 -0.045869645 0.74302554
0.030426545 0.6973704 0.24561803 0.17790592 0.14883584 -0.30625552 0.62357724 0.122372545
00000000: faee 02bf 74ea 18bf cb26 bfbf 1b6f 8bbf
00000010: 1e04 acbe bc39 12bf 388d 7abf 0ef5 59bf
00000020: 2bd6 a5bf 1e58 89bf 0f9d a2bf 0bc3 eabe
00000030: 5b18 0bbf 9445 96bf c7ae 40bf a131 85bf
00000040: a4ed c23e 8a32 893f f5dc 103e 38a1 573c
00000050: 7301 17bf 59b1 4a3e cfe1 3bbd ec36 3e3f
00000060: 1741 f93c de86 323f 4b83 7b3e f82c 363e
00000070: 6c68 183e 86cd 9cbe c2a2 1f3f 759e fa3d

attention.channel_att.1.bias f4 [2]
-1.1541915 0.5346446
00000000: 8cbc 93bf 78de 083f

attention.channel_att.3.weight f4 [16, 2, 1, 1]
0.44408134 -0.91878945 0.21766078 -0.58441967 -0.6938384 -0.16950361 0.09518296 0.28001097
0.56311023 0.17820942 -0.02865074 -0.30785954 -0.5472969 0.040315516 -0.13368592 -0.171705
0.11893365 -0.18837622 -0.40581813 -1.2810911 0.132659 -0.6014436 -0.4222462 -0.14710543
0.09227915 -0.7271992 -0.61580515 0.044771116 0.58062166 -1.3289253 -0.21348229 -0.7195203
00000000: a15e e33e c935 6bbf 78e2 5e3e 879c 15bf
00000010: 659f 31bf 5b92 2dbe 49ef c23d 995d 8f3e
00000020: fe27 103f 887c 363e f5b4 eabc c49f 9dbe
00000030: a61b 0cbf e221 253d f6e4 08be 6fd3 2fbe
00000040: 7c93 f33d b2e5 40be 65c7 cfbe cbfa a3bf
00000050: c3d7 073e 35f8 19bf a730 d8be cea2 16be
00000060: dafc bc3d ba29 3abf 68a5 1dbf eb61 373d
00000070: 9fa3 143f 391a aabf 1a9b 5abe 7b32 38bf

attention.channel_att.3.bias f4 [16]
0.49897027 -0.041138925 -0.0035446226 0.12789321 -0.2305625 0.19927073 -0.5684399 -0.010145826
-0.040527057 -0.23678273 -0.621649 -0.5953436 -0.29584926 -0.16701746 -0.27221256 0.31610736
00000000: 0879 ff3e 4a81 28bd e64c 68bb 70f6 023e
00000010: 9318 6cbe a00d 4c3e 4785 11bf ae3a 26bc
00000020: b3ff 25bd 2c77 72be 6424 1fbf 7068 18bf
00000030: 8e79 97be a006 2bbe 725f 8bbe d3d8 a13e

attention.spatial_att.0.weight f4 [1, 2, 7, 7]
-0.01854601 0.073197335 0.15792045 0.2740485 0.32180464 0.45204034 0.31542835 0.45569924
-0.0051625166 0.029830314 0.050309464 0.09376636 -0.014710082 0.3168956 0.36638406 0.17098287
-0.30543783 -0.25858504 0.055016942 -0.09390216 0.002536217 0.15990272 -0.21957086 -0.2613245
0.20978443 -0.33771715 -0.12062741 -0.025289485 -0.0020056085 -0.20573398 0.03717082 -0.06455259
-0.012374316 -0.050927803 0.20938455 0.25393453 0.08601061 0.028870162 0.08354599 0.19911176
0.15320896 0.21166822 0.36441952 0.28770727 0.16967815 0.20955484 0.13351594 -0.07306821
0.16316558 -0.21949749 -0.35462114 -0.42920426 0.10662632 -0.00028835825 0.6898918 0.7145436
0.34852478 -0.29065052 0.050370038 0.21599372 0.009139908 -0.30161518 0.043383416 0.75865465
-0.04627458 0.019875625 0.1397355 -0.28285065 -0.18173647 0.11348708 0.3360056 -0.107020214
0.082368925 0.32742062 -0.05601683 -0.010961581 0.07651658 0.0014394406 -0.4299998 0.5651307
0.8107877 0.57350785 0.0339892 0.21105447 -0.2500537 -0.25521436 0.13796489 0.77452224
0.8766825 0.31402585 0.36142793 0.25470316 0.108180135 -0.2624528 0.13807645 0.482673
0.14094196 -0.12690437
00000000: cded 97bc 7ce8 953d e6b5 213e 1650 8c3e
00000010: 94c3 a43e d571 e73e d37f a13e 6951 e93e
00000020: 542a a9bb b45e f43c 4c11 4e3d 9408 c03d
00000030: 8e02 71bc 2440 a23e b196 bb3e 2216 2f3e
00000040: 5962 9cbe 4265 84be 7259 613d c74f c0bd
00000050: a936 263b 8abd 233e 2fd7 60be 53cc 85be
00000060: bbd1 563e 43e9 acbe 810b f7bd e52b cfbc
00000070: 8770 03bb eeab 52be 6e40 183d 2634 84bd
00000080: a5bd 4abc ac99 50bd e768 563e b503 823e
00000090: 5526 b03d 1e81 ec3c 291a ab3d f4e3 4b3e
000000a0: cfe2 1c3e 8ebf 583e 3295 ba3e 5e4e 933e
000000b0: 1cc0 2d3e 8b95 563e 67b8 083e c9a4 95bd
000000c0: e114 273e f3c3 60be e790 b5be a9c0 dbbe
000000d0: e65e da3d ca2e 97b9 c09c 303f 54ec 363f
000000e0: d771 b23e 25d0 94be d050 4e3d 752d 5d3e
000000f0: 8dbf 153c 4e6d 9abe cfb2 313d 3137 423f
00000100: 6a8a 3dbd 35d2 a23c d316 0f3e cdd1 90be
00000110: 2019 3abe ea6b e83d ed08 ac3e 6a2d dbbd
00000120: 0ab1 a83d ada3 a73e e771 65bd 3498 33bc
00000130: bab4 9c3d 9dab bc3a ef28 dcbe 68ac 103f
00000140: c88f 4f3f 69d1 123f 4238 0b3d aa1e 583e
00000150: 0a07 80be 75ab 82be ab46 0d3e 1747 463f
00000160: 446e 603f ffc7 a03e 150d b93e 7468 823e
00000170: 8c8d dd3d 3760 86be ea63 0d3e ea20 f73e
00000180: 1753 103e 38f3 01be

fc.0.weight f4 [128, 576]
0.06041273 0.0706535 -0.075499564 -0.10172324 -0.0133264 0.12702724 -0.18168305 -0.1400023
0.13881679 0.0006769682 -0.17392379 0.10384169 -0.11520023 -0.006515207 0.21407048 0.19331801
-0.37829494 0.3706408 -0.19761933 -0.10708851 0.09105202 0.097888574 0.06833725 0.3095654
-0.37596574 -0.2590927 0.046122145 0.12509581 0.3067767 0.07075881 -0.34042656 -0.1276824
0.035922542 0.120049715 0.12087601 0.09888211 0.067713745 -0.24394932 0.041351322 0.06640211
0.3002824 0.43421733 0.23021848 0.30893967 0.32403475 0.69407266 0.464804 0.19583333
0.08661875 0.045107495 -0.0063091894 0.14644429 0.35208073 0.2681607 -0.023380635 -0.047961887
-0.2897346 -0.06838966 -0.4511131 -0.16441943 -0.072691664 -0.04005755 -0.1286951 -0.064442314
-0.5456844 -0.51269263 0.12328321 -0.06750532 0.16074832 0.14813721 -0.1658737 -0.301527
-0.0029712862 -0.06715836 -0.34025213 -0.10058109 0.20444898 -0.27200124 0.14073221 0.043427132
0.008390712 0.010399439 0.039359648 0.26173133 -0.13149695 -0.030661376 0.21711522 -0.11180873
-0.25838172 0.1810252 -0.13522144 0.005203142 0.20176306 -0.40325254 -0.35638872 -0.10544068
0.032574676 -0.10302581 -0.2985773 -0.5504943 -0.50668865 -0.039319083 -0.022270806 0.16008522
-0.19262625 -0.72621053 0.024883144 -0.4454005 0.16922046 0.2464078 0.29335994 -0.3201117
-0.3557799 -0.28641367 -0.14995986 0.058635145 -0.050590865 -0.34398663 -0.26386726 -0.10562053
-0.045163594 -0.15759932 -0.09387373 0.082345836 0.24185637 -0.03286082 0.10831031 -0.030993083
-0.25547555 -0.023350077 0.15950824 0.120322905 0.25038746 0.11929451 -0.009564169 -0.0810946
-0.009363567 0.093898684 0.12211446 0.17646773 -0.051971268 -0.19365612 -0.24885368 0.11671641
-0.09874232 -0.34485853 -0.080892965 -0.19110282 -0.19260693 -0.47790965 -0.050531566 -0.073051326
-0.1731803 -0.14107007 -0.027406272 -0.08645241 0.22507438 0.23009457 -0.2426101 -0.33500716
-0.014290125 -0.21055512 -0.024490027 0.15930532 -0.04751534 0.07018746 0.059674717 0.123262666
0.14249223 -0.14687765 -0.23907846 0.08498031 0.19523716 0.41338167 0.21282071 -0.03404101
0.038780194 -0.015345318 0.017340032 0.34875724 0.016735423 0.07707272 0.2328659 -0.15853533
-0.09236713 -0.1764529 0.15994844 0.04127525 0.09081821 0.16306998 0.24218957 -0.016692847
0.2584298 0.20538105 0.21349269 -0.25335953 -0.21120603 0.011605633 -0.11512615 0.16985376
-0.14263014 -0.19174877 0.28211883 0.1446098 -0.22230801 -0.15691599 -0.27077723 0.14648221
0.2605009 0.08784983 -0.09409184 0.18569659 -0.062114865 0.060267348 -0.12782794 -0.018280974
0.5087003 0.00653922 0.056707885 0.13790315 0.13347223 -0.07310511 -0.19781749 -0.16248439
-0.13091044 0.0075300364 -0.03572357 -0.24240775 0.078494854 0.082912706 -0.19322218 -0.45491078
-0.28133646 -0.26846892 0.10755892 0.062843904 -0.23197716 -0.051930234 -0.3036713 -0.11273609
0.20682658 -0.13037546 -0.03468823 0.08746068 -0.06286247 -0.05118533 0.14071245 -0.11020357
-0.23426051 -0.023289729 -0.16966133 0.087369025 0.19676688 0.03584762 0.022710355 -0.009689257
00000000: 5773 773d c8b2 903d 849f 9abd 4654 d0bd
00000010: f956 5abc 6e13 023e 1f0b 3abe c35c 0fbe
00000020: fd25 0e3e 9176 313a 1419 32be f4aa d43d
00000030: 19ee ebbd 847d d5bb 4b35 5b3e 28f5 453e
00000040: e0af c1be a2c4 bd3e b95c 4abe 3951 dbbd
00000050: 7b79 ba3d ce79 c83d 66f4 8b3d 5b7f 9e3e
00000060: 957e c0be cca7 84be 93ea 3c3d 1e19 003e
00000070: d611 9d3e ffe9 903d 644c aebe 2dbf 02be
00000080: 8423 133d a0dc f53d d78d f73d b482 ca3d
00000090: 81ad 8a3d dacd 79be 0160 293d d4fd 873d
000000a0: 9dbe 993e bc51 de3e 65be 6b3e 572d 9e3e
000000b0: e2e7 a53e bfae 313f cafa ed3e 8888 483e
000000c0: 2c65 b13d a3c2 383d 51bd cebb 7ef5 153e
000000d0: ed43 b43e 5c4c 893e bf88 bfbc af73 44bd
000000e0: 1858 94be e10f 8cbd 4cf8 e6be 915d 28be
000000f0: 5edf 94bd 6313 24bd a6c8 03be 55fa 83bd
00000100: f9b1 0bbf d33f 03bf e87b fc3d 3b40 8abd
00000110: 359b 243e 48b1 173e ccda 29be bf61 9abe
00000120: e9b9 42bb 528a 89bd 8735 aebe 75fd cdbd
00000130: 135b 513e bf43 8bbe 1b1c 103e a6e0 313d
00000140: 3279 093c 6962 2a3c 9537 213d a601 863e
00000150: 23a7 06be 912d fbbc 7453 5e3e fafb e4bd
00000160: 9c4a 84be ac5e 393e 7d77 0abe 1e7f aa3b
00000170: fa9a 4e3e 1e77 cebe 9578 b6be 49f1 d7bd
00000180: 066d 053d 32ff d2bd 20df 98be 32ed 0cbf
00000190: 59b6 01bf 0c0d 21bd 4471 b6bc 61ed 233e
000001a0: d13f 45be efe8 39bf bcd7 cb3c 890b e4be
000001b0: 2148 2d3e 5452 7c3e 4633 963e aee5 a3be
000001c0: c828 b6be d0a4 92be 148f 19be 682b 703d
000001d0: 5e38 4fbd 041f b0be 9c19 87be 944f d8bd
000001e0: 76fd 38bd b761 21be df40 c0bd efa4 a83d
000001f0: 32a9 773e 1199 06bd ccd1 dd3d 35e5 fdbc
00000200: b1cd 82be a948 bfbc 2156 233e db6b f63d
00000210: c932 803e ae50 f43d 08b3 1cbc ed14 a6bd
00000220: a669 19bc f44d c03d 2517 fa3d f5b3 343e
00000230: d3df 54bd ca4d 46be 80d3 7ebe 0309 ef3d
00000240: 6a39 cabd 4c91 b0be 36ab a5bd 75b0 43be
00000250: c03a 45be 93b0 f4be 30fa 4ebd ef9b 95bd
00000260: 2d56 31be ac74 10be 1e83 e0bc f60d b1bd
00000270: e679 663e e99d 6b3e c86e 78be 0f86 abbe
00000280: 2121 6abc c39b 57be 4f9f c8bc ef20 233e
00000290: 729f 42bd 71be 8f3d 7a6d 743d 2371 fc3d
000002a0: 7ce9 113e 1867 16be fcd0 74be 280a ae3d
000002b0: 40ec 473e c3a6 d33e aced 593e 966e 0bbd
000002c0: fbd7 1e3d ee6a 7bbc af0c 8e3c 4f90 b23e
000002d0: ba18 893c 4dd8 9d3d 6674 6e3e 1657 22be
000002e0: fa2a bdbd 12b0 34be 86c9 233e 3d10 293d
000002f0: e6fe b93d d1fb 263e 8b00 783e 70bf 88bc
00000300: e950 843e 694f 523e d49d 5a3e 57b8 81be
00000310: 6546 58be 8e25 3e3c 42c7 ebbd 25ee 2d3e
00000320: a30d 12be ca59 44be e171 903e 9714 143e
00000330: b6a4 63be 96ae 20be 50a3 8abe 6fff 153e
00000340: 6060 853e 9dea b33d 39b3 c0bd 3f27 3e3e
00000350: 286c 7ebd e5da 763d 54e5 02be fbc1 95bc
00000360: 2f3a 023f f446 d63b 8746 683d 7c36 0d3e
00000370: f2ac 083e 22b8 95bd ab90 4abe 4f62 26be
00000380: 630d 06be 86be f63b e152 12bd bd39 78be
00000390: e9c1 a03d 23ce a93d 09dc 45be 11ea e8be
000003a0: 550b 90be c274 89be da47 dc3d 4eb4 803d
000003b0: 6c8b 6dbe ccb4 54bd ce7a 9bbe 2ee2 e6bd
000003c0: 59ca 533e 2581 05be 3f15 0ebd 961e b33d
000003d0: 0abe 80bd b5a7 51bd ed16 103e 69b2 e1bd
000003e0: fde1 6fbe 1aca bebc b3bb 2dbe 88ee b23d
000003f0: 427d 493e f4d4 123d 110b ba3c b0bf 1ebc

fc.0.bias f4 [128]
0.040231757 0.0044730944 -0.052876163 0.13301632 -0.01922371 0.12858555 0.1432213 -0.081826314
0.030744381 0.055118598 -0.09910432 0.046138577 0.036201935 -0.01373269 -0.0036153223 0.085840955
-0.0033744099 0.2111086 0.084654555 0.012925199 0.07486699 -0.103496075 0.04512372 0.009703582
-0.04772715 0.12775953 -0.019180752 -0.07539238 0.078036286 -0.026850011 0.0807705 0.04738375
-0.021949247 0.054656733 -0.014487859 -0.15860282 0.13809316 0.01933256 -0.09092507 0.09546414
0.027745547 0.11316452 0.0443618 -0.07688921 0.0049686176 0.2243431 0.065825954 0.11056946
0.21630315 -0.0743396 0.050103586 0.16081056 0.01535098 -0.029694624 -0.01366764 0.12800346
-0.11862212 0.03523758 -0.080290996 0.043633837 -0.038878396 -0.017853439 -0.01550538 -0.016877633
-0.02784967 0.024892677 -0.009632 0.08287279 0.1299268 0.061964672 -0.00932306 0.11690649
0.07911403 0.13227499 0.06822007 -0.014635533 0.028790303 0.06547372 -0.027278874 0.1610296
0.029897114 -0.010754801 -0.030669857 -0.036955886 -0.015514206 -0.01900326 0.099246874 0.04251224
0.08236048 -0.052818995 -0.023267081 0.016138034 0.028499864 -0.02801282 0.061890844 0.028453236
-0.06903935 0.092287324 0.09761625 0.0020215749 0.022534717 0.029253492 -0.031650897 0.0047619278
0.0506983 -0.03035946 0.012493579 0.013350101 0.1404979 0.061361045 0.0051880865 0.107356
0.029738918 0.09998022 -0.12984565 -0.032024868 0.026880823 0.11967138 -0.094567016 0.09913852
-0.070661105 -0.00090815284 -0.0011473135 0.13887218 0.0025721584 0.11966238 0.12683502 -0.014095538
00000000: 0eca 243d 0993 923b ad94 58bd 6e35 083e
00000010: 0b7b 9dbc eeab 033e 9ba8 123e 8e94 a7bd
00000020: a4db fb3c 0ac4 613d 35f7 cabd cefb 3c3d
00000030: 7b48 143d 14ff 60bc 0bef 6cbb 62cd af3d
00000040: 3425 5dbb da2c 583e 5e5f ad3d 37c4 533c
00000050: dd53 993d c0f5 d3bd a6d3 383d c6fb 1e3c
00000060: 8b7d 43bd 65d3 023e f420 9dbc 5267 9abd
00000070: 7dd1 9f3d 8ef4 dbbc 016b a53d 7715 423d
00000080: e8ce b3bc bddf 5f3d 7c5e 6dbc c768 22be
00000090: 4b68 0d3e 515f 9e3c ec36 babd b482 c33d
000000a0: a14a e33c cdc2 e73d b8b4 353d 1778 9dbd
000000b0: c9cf a23b 33ba 653e c2cf 863d 3e72 e23d
000000c0: 937e 5d3e 5c3f 98bd 6b39 4d3d 86ab 243e
000000d0: ad82 7b3c 2442 f3bc 3dee 5fbc 5713 033e
000000e0: 27f0 f2bd 4855 103d 9b6f a4bd 65b9 323d
000000f0: f43e 1fbd 6041 92bc 470a 7ebc f642 8abc
00000100: fe24 e4bc baeb cb3c 89cf 1dbc 36b9 a93d
00000110: 880b 053e abce 7d3d bfbf 18bc ab6c ef3d
00000120: 8906 a23d 1873 073e f7b6 8b3d e0c9 6fbc
00000130: a4d9 eb3c 1617 863d f277 dfbc f2e4 243e
00000140: cbea f43c e834 30bc 5a3f fbbc 0e5f 17bd
00000150: 4c2f 7ebc baac 9bbc f241 cb3d 5121 2e3d
00000160: 9dac a83d bb58 58bd 9b9a bebc e933 843c
00000170: 8c78 e93c 247b e5bc 4181 7d3d c316 e93c
00000180: 8164 8dbd 2301 bd3d 07eb c73d 667c 043b
00000190: ba9a b83c 05a5 ef3c 5fa4 01bd f209 9c3b
000001a0: 05a9 4f3d 67b4 f8bc deb1 4c3c 62ba 5a3c
000001b0: aede 0f3e b855 7b3d d300 aa3b 76dd db3d
000001c0: 089f f33c 6ec2 cc3d 42f6 04be 822c 03bd
000001d0: 2c35 dc3c 4516 f53d 5aac c1bd 2309 cb3d
000001e0: c5b6 90bd 1b11 6eba 7461 96ba 8234 0e3e
000001f0: a891 283b 8d11 f53d 0ae1 013e f9f0 66bc

fc.3.weight f4 [27, 128]
-0.23089163 -0.4250058 -0.17680661 -0.6804164 -0.4024466 -0.3791529 -0.48919865 -0.3754225
-0.15589358 -0.15448472 -0.37942013 -0.22046816 -0.485178 -0.30676273 -0.47385842 -0.21190034
-0.71493834 -0.5096197 -0.64798474 -0.4658561 -0.38657993 -0.22279379 -0.5868294 -0.123657085
-0.5143634 -0.5996625 -0.68677664 -0.61810803 -0.46173435 -0.33218226 -0.40385523 -0.4918273
-0.5959253 -0.6608804 -0.299065 -0.51857775 -0.29589644 -0.5396293 -0.26146403 -0.42090583
-0.57512623 -0.54176575 -0.50723404 -0.2980566 -0.515795 -0.47625843 -0.23693539 -0.21806678
-0.5546239 -0.3880991 -0.37253276 -0.63887167 0.0012653425 -0.41768688 -0.3229359 -0.5365922
-0.39344764 -0.31854066 -0.1702524 -0.19208695 -0.37118956 -0.7332719 -0.6423676 -0.06938765
-0.15846117 -0.3415882 -0.66040987 -0.48154718 -0.5804107 -0.4098472 -0.4243847 -0.6946844
-0.50370175 -0.15202963 -0.42894432 -0.41765606 -0.443464 -0.47051868 -0.5701394 -0.47444615
-0.3994408 -0.38213715 -0.35642147 -0.24765536 -0.43229863 -0.028888924 -0.71157163 -0.32627875
-0.31381753 -0.545201 -0.32865667 -0.5978921 -0.4472218 -0.14859457 -0.5724255 -0.2576742
-0.5629148 -0.2923936 -0.6753942 -0.46102288 -0.5717311 -0.20850399 -0.30038214 -0.4474981
-0.4752052 -0.16980065 -0.38594806 -0.23793033 -0.5598553 -0.3187059 -0.3036983 -0.44262356
-0.3116939 -0.22010638 -0.1629641 -0.3326816 -0.28890353 -0.4402563 -0.17269455 -0.3046273
-0.35120803 -0.59119433 -0.43959984 -0.37478724 -0.37665042 -0.49220502 -0.36548984 -0.57717514
-0.031608697 -0.08410313 -0.22072689 -0.40781763 -0.03966841 0.14231947 -0.36163208 0.17669328
0.04097808 0.11744727 0.16424379 -0.4231125 -0.17803396 0.16685195 -0.050341953 -0.38308945
0.025685769 0.2054203 0.17380823 -0.26822063 0.12371625 -0.14974888 -0.8985008 0.124495074
0.11978522 -0.3865211 0.14615123 0.03004868 0.20475784 -0.30289823 0.118046746 0.11120019
-0.2548335 -0.11793934 -0.54312354 -0.016413946 -0.3596262 -0.20006831 -0.09948529 0.24094667
0.08402287 0.19586007 -0.3828542 0.13620292 0.2969226 0.1441909 -0.3991506 -0.5633717
0.011878213 -0.021831464 -0.776611 0.1846086 0.15281567 -0.32218754 -0.41694024 0.06542594
0.17815001 -0.012501981 -0.4647617 -1.062127 0.0936906 -0.7575393 -0.17749111 0.0112108085
-0.70269287 0.11375527 -0.20413397 -0.5471308 0.17468835 0.1538736 0.14588405 -0.040617842
0.1504069 -0.67315906 0.104616 0.10131304 -0.35729343 0.10711664 0.073522516 -0.8487235
-0.4599383 0.0576339 0.13769889 -0.33567032 0.057709035 -0.40387124 0.17677514 -0.011974695
0.129384 -0.31407952 0.073444515 -0.09072675 -0.14068496 0.06500423 -0.55770576 0.3426365
-0.343481 0.27426982 -0.041286025 -0.45799083 -0.17469259 0.28484303 -0.22884436 0.15172154
-0.9788834 0.27862284 0.12739463 0.12640543 0.14762951 0.20939426 -0.4749268 -1.0045338
0.18566956 0.16175394 -0.08937101 0.14311945 0.050176557 -0.5336879 -0.31087518 0.06482951
-0.27169392 -0.024569208 -0.3848217 -0.4550763 0.11804852 -0.21026112 0.06384609 -0.8088622
00000000: db6e 6cbe 5c9a d9be cb0c 35be c52f 2ebf
00000010: 7b0d cebe 5420 c2be 3f78 fabe 6137 c0be
00000020: 91a2 1fbe 3e31 1ebe 5b43 c2be 68c2 61be
00000030: 4069 f8be 0110 9dbe 929d f2be 67fc 58be
00000040: 3306 37bf 7076 02bf 54e2 25bf b184 eebe
00000050: ceed c5be 0e24 64be 743a 16bf ed3f fdbd
00000060: 52ad 03bf 7b83 19bf 98d0 2fbf 543c 1ebf
00000070: 7268 ecbe cb13 aabe 1dc6 cebe cad0 fbbe
00000080: 8f8e 18bf 752f 29bf 0c1f 99be 83c1 04bf
00000090: bd7f 97be 2525 0abf 9dde 85be f880 d7be
000000a0: 793b 13bf 29b1 0abf 17da 01bf e09a 98be
000000b0: 240b 04bf 25d8 f3be 319f 72be e64c 5fbe
000000c0: d5fb 0dbf edb4 c6be 9dbc bebe 188d 23bf
000000d0: d9d9 a53a 0edb d5be db57 a5be 1b5e 09bf
000000e0: f871 c9be c317 a3be a556 2ebe 71b2 44be
000000f0: 8f0c bebe b5b7 3bbf 3472 24bf 1d1b 8ebd
00000100: a543 22be a6e4 aebe 9f10 29bf 5a8d f6be
00000110: cc95 14bf 7ed7 d1be f448 d9be d6d6 31bf
00000120: 99f2 00bf a8ad 1bbe 979e dbbe 04d7 d5be
00000130: b70d e3be d3e7 f0be a8f4 11bf 9bea f2be
00000140: 8183 ccbe 7ba7 c3be e07c b6be 5e99 7dbe
00000150: 3f56 ddbe 77a8 ecbc 8f29 36bf 020e a7be
00000160: b1ac a0be 4b92 0bbf b045 a8be 750f 19bf
00000170: 41fa e4be 2d29 18be 7a8a 12bf dfed 83be
00000180: 2f1b 10bf 9db4 95be a2e6 2cbf 310b ecbe
00000190: f85c 12bf 1282 55be b0cb 99be 791e e5be
000001a0: 194e f3be 39e0 2dbe fc9a c5be 02a4 73be
000001b0: ad52 0fbf 6b2d a3be 587e 9bbe 8e9f e2be
000001c0: 5896 9fbe 9163 61be 10e0 26be 3e55 aabe
000001d0: 2aeb 93be 4669 e1be d7d6 30be 1cf8 9bbe
000001e0: 8ad1 b3be 8358 17bf 3b13 e1be 1de4 bfbe
000001f0: 53d8 c0be 4c02 fcbe 7c21 bbbe c0c1 13bf
00000200: 1f78 01bd 433e acbd 3b06 62be 79cd d0be
00000210: 587b 22bd 32bc 113e d727 b9be 15ef 343e
00000220: a2d8 273d 3288 f03d 862f 283e 34a2 d8be
00000230: 894e 36be 3ddb 2a3e 5d33 4ebd 4d24 c4be
00000240: f66a d23c b359 523e c9fa 313e 3754 89be
00000250: f25e fd3d c557 19be 2604 66bf 46f7 fe3d
00000260: f451 f53d 18e6 c5be aba8 153e a628 f63c
00000270: 0aac 513e 7a15 9bbe 7ec2 f13d edbc e33d
00000280: 8979 82be 2e8a f1bd 250a 0bbf 8a76 86bc
00000290: ed20 b8be b5de 4cbe f2be cbbd b9ba 763e
000002a0: 2f14 ac3d 8b8f 483e 7705 c4be c778 0b3e
000002b0: 3d06 983e c7a6 133e 785d ccbe 2139 10bf
000002c0: d69c 423c e6d7 b2bc facf 46bf 090a 3d3e
000002d0: b67b 1c3e c4f5 a4be 3179 d5be 09fe 853d
000002e0: f56c 363e 1cd5 4cbc 3ff5 edbe c7f3 87bf
000002f0: dbe0 bf3d 18ee 41bf 3bc0 35be 8aad 373c
00000300: aee3 33bf 86f8 e83d 7f08 51be c410 0cbf
00000310: 81e1 323e 0a91 1d3e a162 153e e55e 26bd
00000320: 4404 1a3e 2754 2cbf ea40 d63d 367d cf3d
00000330: 2aef b6be f85f db3d f992 963d f145 59bf
00000340: 087d ebbe 8611 6c3d f000 0d3e fbdc abbe
00000350: 4f60 6c3d 36c8 cebe 8b04 353e 8331 44bc
00000360: 3d7d 043e 08cf a0be 146a 963d f2ce b9bd
00000370: b80f 10be f020 853d cec5 0ebf 0d6e af3e
00000380: bedc afbe 186d 8c3e 891b 29bd c67d eabe
00000390: 9de2 32be f2d6 913e 2d56 6abe e45c 1b3e
000003a0: 1a98 7abf a7a7 8e3e bd73 023e 6d70 013e
000003b0: 312c 173e 736b 563e 9b29 f3be 9094 80bf
000003c0: 2920 3e3e d3a2 253e 2608 b7bd e88d 123e
000003d0: ef85 4d3d c59f 08bf 082b 9fbe 56c5 843d
000003e0: 771b 8bbe 5d45 c9bc 5a07 c5be c3ff e8be
000003f0: 6cc3 f13d b14e 57be bdc1 823d 9811 4fbf

fc.3.bias f4 [27]
-0.5787576 0.30367115 0.33871388 0.04670818 0.055902317 0.017394556 -0.055446427 -0.0075203087
0.26532432 0.223379 -0.31550145 -0.2275732 -0.010248219 -0.6335093 0.068070576 0.22689943
-0.109627046 -0.012623064 -0.21297131 -0.1582961 0.07311053 0.1963854 -0.19403104 -0.48480177
0.4297118 -0.18011126 -0.16296916
00000000: 7529 14bf c97a 9b3e e86b ad3e 1451 3f3d
00000010: d4f9 643d 077f 8e3c cb1b 63bd ec6c f6bb
00000020: 97d8 873e 77bd 643e 6889 a1be f308 69be
00000030: 25e8 27bc aa2d 22bf 9668 8b3d 5358 683e
00000040: 2584 e0bd f8d0 4ebc 2715 5abe 5f18 22be
00000050: f9ba 953d 4119 493e 13b0 46be f037 f8be
00000060: 2f03 dc3e 166f 38be 63e1 26be

exp_avg f4 [9, 1, 5, 5]
0.0 0.0 0.0 0.0 0.0 0.0 0.0 0.0
0.0 0.0 0.0 0.0 0.0 0.0 0.0 0.0
0.0 0.0 0.0 0.0 0.0 0.0 0.0 0.0
0.0 0.0 0.0 0.0 0.0 0.0 0.0 0.0
0.0 0.0 0.0 0.0 0.0 0.0 0.0 0.0
0.0 0.0 0.0 0.0 0.0 0.0 0.0 0.0
0.0 0.0 0.0 0.0 0.0 0.0 0.0 0.0
0.0 0.0 0.0 0.0 0.0 0.0 0.0 0.0
0.0 0.0 0.0 0.0 0.0 0.0 0.0 0.0
0.0 0.0 0.0 0.0 0.0 0.0 0.0 0.0
0.0 0.0 0.0 0.0 0.0 0.0 0.0 0.0
0.0 0.0 0.0 0.0 0.0 0.0 0.0 0.0
0.0 0.0 0.0 0.0 0.0 0.0 0.0 0.0
0.0 0.0 0.0 0.0 0.0 0.0 0.0 0.0
0.0 0.0 0.0 0.0 0.0 0.0 0.0 0.0
0.0 0.0 0.0 0.0 0.0 0.0 0.0 0.0
0.0 0.0 0.0 0.0 0.0 0.0 0.0 0.0
0.0 0.0 0.0 0.0 0.0 0.0 0.0 0.0
0.0 0.0 0.0 0.0 0.0 0.0 0.0 0.0
0.0 0.0 0.0 0.0 0.0 0.0 0.0 0.0
0.0 0.0 0.0 0.0 0.0 0.0 0.0 0.0
0.0 0.0 0.0 0.0 0.0 0.0 0.0 0.0
0.0 0.0 0.0 0.0 0.0 0.0 0.0 0.0
0.0 0.0 0.0 0.0 0.0 0.0 0.0 0.0
0.0 0.0 0.0 0.0 0.0 0.0 0.0 0.0
0.0 0.0 0.0 0.0 0.0 0.0 0.0 0.0
0.0 0.0 0.0 0.0 0.0 0.0 0.0 0.0
0.0 0.0 0.0 0.0 0.0 0.0 0.0 0.0
0.0
00000000: 0000 0000 0000 0000 0000 0000 0000 0000
00000010: 0000 0000 0000 0000 0000 0000 0000 0000
00000020: 0000 0000 0000 0000 0000 0000 0000 0000
00000030: 0000 0000 0000 0000 0000 0000 0000 0000
00000040: 0000 0000 0000 0000 0000 0000 0000 0000
00000050: 0000 0000 0000 0000 0000 0000 0000 0000
00000060: 0000 0000 0000 0000 0000 0000 0000 0000
00000070: 0000 0000 0000 0000 0000 0000 0000 0000
00000080: 0000 0000 0000 0000 0000 0000 0000 0000
00000090: 0000 0000 0000 0000 0000 0000 0000 0000
000000a0: 0000 0000 0000 0000 0000 0000 0000 0000
000000b0: 0000 0000 0000 0000 0000 0000 0000 0000
000000c0: 0000 0000 0000 0000 0000 0000 0000 0000
000000d0: 0000 0000 0000 0000 0000 0000 0000 0000
000000e0: 0000 0000 0000 0000 0000 0000 0000 0000
000000f0: 0000 0000 0000 0000 0000 0000 0000 0000
00000100: 0000 0000 0000 0000 0000 0000 0000 0000
00000110: 0000 0000 0000 0000 0000 0000 0000 0000
00000120: 0000 0000 0000 0000 0000 0000 0000 0000
00000130: 0000 0000 0000 0000 0000 0000 0000 0000
00000140: 0000 0000 0000 0000 0000 0000 0000 0000
00000150: 0000 0000 0000 0000 0000 0000 0000 0000
00000160: 0000 0000 0000 0000 0000 0000 0000 0000
00000170: 0000 0000 0000 0000 0000 0000 0000 0000
00000180: 0000 0000 0000 0000 0000 0000 0000 0000
00000190: 0000 0000 0000 0000 0000 0000 0000 0000
000001a0: 0000 0000 0000 0000 0000 0000 0000 0000
000001b0: 0000 0000 0000 0000 0000 0000 0000 0000
000001c0: 0000 0000 0000 0000 0000 0000 0000 0000
000001d0: 0000 0000 0000 0000 0000 0000 0000 0000
000001e0: 0000 0000 0000 0000 0000 0000 0000 0000
000001f0: 0000 0000 0000 0000 0000 0000 0000 0000
00000200: 0000 0000 0000 0000 0000 0000 0000 0000
00000210: 0000 0000 0000 0000 0000 0000 0000 0000
00000220: 0000 0000 0000 0000 0000 0000 0000 0000
00000230: 0000 0000 0000 0000 0000 0000 0000 0000
00000240: 0000 0000 0000 0000 0000 0000 0000 0000
00000250: 0000 0000 0000 0000 0000 0000 0000 0000
00000260: 0000 0000 0000 0000 0000 0000 0000 0000
00000270: 0000 0000 0000 0000 0000 0000 0000 0000
00000280: 0000 0000 0000 0000 0000 0000 0000 0000
00000290: 0000 0000 0000 0000 0000 0000 0000 0000
000002a0: 0000 0000 0000 0000 0000 0000 0000 0000
000002b0: 0000 0000 0000 0000 0000 0000 0000 0000
000002c0: 0000 0000 0000 0000 0000 0000 0000 0000
000002d0: 0000 0000 0000 0000 0000 0000 0000 0000
000002e0: 0000 0000 0000 0000 0000 0000 0000 0000
000002f0: 0000 0000 0000 0000 0000 0000 0000 0000
00000300: 0000 0000 0000 0000 0000 0000 0000 0000
00000310: 0000 0000 0000 0000 0000 0000 0000 0000
00000320: 0000 0000 0000 0000 0000 0000 0000 0000
00000330: 0000 0000 0000 0000 0000 0000 0000 0000
00000340: 0000 0000 0000 0000 0000 0000 0000 0000
00000350: 0000 0000 0000 0000 0000 0000 0000 0000
00000360: 0000 0000 0000 0000 0000 0000 0000 0000
00000370: 0000 0000 0000 0000 0000 0000 0000 0000
00000380: 0000 0000

exp_avg_sq f4 [9, 1, 5, 5]
0.0 0.0 0.0 0.0 0.0 0.0 0.0 0.0
0.0 0.0 0.0 0.0 0.0 0.0 0.0 0.0
0.0 0.0 0.0 0.0 0.0 0.0 0.0 0.0
0.0 0.0 0.0 0.0 0.0 0.0 0.0 0.0
0.0 0.0 0.0 0.0 0.0 0.0 0.0 0.0
0.0 0.0 0.0 0.0 0.0 0.0 0.0 0.0
0.0 0.0 0.0 0.0 0.0 0.0 0.0 0.0
0.0 0.0 0.0 0.0 0.0 0.0 0.0 0.0
0.0 0.0 0.0 0.0 0.0 0.0 0.0 0.0
0.0 0.0 0.0 0.0 0.0 0.0 0.0 0.0
0.0 0.0 0.0 0.0 0.0 0.0 0.0 0.0
0.0 0.0 0.0 0.0 0.0 0.0 0.0 0.0
0.0 0.0 0.0 0.0 0.0 0.0 0.0 0.0
0.0 0.0 0.0 0.0 0.0 0.0 0.0 0.0
0.0 0.0 0.0 0.0 0.0 0.0 0.0 0.0
0.0 0.0 0.0 0.0 0.0 0.0 0.0 0.0
0.0 0.0 0.0 0.0 0.0 0.0 0.0 0.0
0.0 0.0 0.0 0.0 0.0 0.0 0.0 0.0
0.0 0.0 0.0 0.0 0.0 0.0 0.0 0.0
0.0 0.0 0.0 0.0 0.0 0.0 0.0 0.0
0.0 0.0 0.0 0.0 0.0 0.0 0.0 0.0
0.0 0.0 0.0 0.0 0.0 0.0 0.0 0.0
0.0 0.0 0.0 0.0 0.0 0.0 0.0 0.0
0.0 0.0 0.0 0.0 0.0 0.0 0.0 0.0
0.0 0.0 0.0 0.0 0.0 0.0 0.0 0.0
0.0 0.0 0.0 0.0 0.0 0.0 0.0 0.0
0.0 0.0 0.0 0.0 0.0 0.0 0.0 0.0
0.0 0.0 0.0 0.0 0.0 0.0 0.0 0.0
0.0
00000000: 0000 0000 0000 0000 0000 0000 0000 0000
00000010: 0000 0000 0000 0000 0000 0000 0000 0000
00000020: 0000 0000 0000 0000 0000 0000 0000 0000
00000030: 0000 0000 0000 0000 0000 0000 0000 0000
00000040: 0000 0000 0000 0000 0000 0000 0000 0000
00000050: 0000 0000 0000 0000 0000 0000 0000 0000
00000060: 0000 0000 0000 0000 0000 0000 0000 0000
00000070: 0000 0000 0000 0000 0000 0000 0000 0000
00000080: 0000 0000 0000 0000 0000 0000 0000 0000
00000090: 0000 0000 0000 0000 0000 0000 0000 0000
000000a0: 0000 0000 0000 0000 0000 0000 0000 0000
000000b0: 0000 0000 0000 0000 0000 0000 0000 0000
000000c0: 0000 0000 0000 0000 0000 0000 0000 0000
000000d0: 0000 0000 0000 0000 0000 0000 0000 0000
000000e0: 0000 0000 0000 0000 0000 0000 0000 0000
000000f0: 0000 0000 0000 0000 0000 0000 0000 0000
00000100: 0000 0000 0000 0000 0000 0000 0000 0000
00000110: 0000 0000 0000 0000 0000 0000 0000 0000
00000120: 0000 0000 0000 0000 0000 0000 0000 0000
00000130: 0000 0000 0000 0000 0000 0000 0000 0000
00000140: 0000 0000 0000 0000 0000 0000 0000 0000
00000150: 0000 0000 0000 0000 0000 0000 0000 0000
00000160: 0000 0000 0000 0000 0000 0000 0000 0000
00000170: 0000 0000 0000 0000 0000 0000 0000 0000
00000180: 0000 0000 0000 0000 0000 0000 0000 0000
00000190: 0000 0000 0000 0000 0000 0000 0000 0000
000001a0: 0000 0000 0000 0000 0000 0000 0000 0000
000001b0: 0000 0000 0000 0000 0000 0000 0000 0000
000001c0: 0000 0000 0000 0000 0000 0000 0000 0000
000001d0: 0000 0000 0000 0000 0000 0000 0000 0000
000001e0: 0000 0000 0000 0000 0000 0000 0000 0000
000001f0: 0000 0000 0000 0000 0000 0000 0000 0000
00000200: 0000 0000 0000 0000 0000 0000 0000 0000
00000210: 0000 0000 0000 0000 0000 0000 0000 0000
00000220: 0000 0000 0000 0000 0000 0000 0000 0000
00000230: 0000 0000 0000 0000 0000 0000 0000 0000
00000240: 0000 0000 0000 0000 0000 0000 0000 0000
00000250: 0000 0000 0000 0000 0000 0000 0000 0000
00000260: 0000 0000 0000 0000 0000 0000 0000 0000
00000270: 0000 0000 0000 0000 0000 0000 0000 0000
00000280: 0000 0000 0000 0000 0000 0000 0000 0000
00000290: 0000 0000 0000 0000 0000 0000 0000 0000
000002a0: 0000 0000 0000 0000 0000 0000 0000 0000
000002b0: 0000 0000 0000 0000 0000 0000 0000 0000
000002c0: 0000 0000 0000 0000 0000 0000 0000 0000
000002d0: 0000 0000 0000 0000 0000 0000 0000 0000
000002e0: 0000 0000 0000 0000 0000 0000 0000 0000
000002f0: 0000 0000 0000 0000 0000 0000 0000 0000
00000300: 0000 0000 0000 0000 0000 0000 0000 0000
00000310: 0000 0000 0000 0000 0000 0000 0000 0000
00000320: 0000 0000 0000 0000 0000 0000 0000 0000
00000330: 0000 0000 0000 0000 0000 0000 0000 0000
00000340: 0000 0000 0000 0000 0000 0000 0000 0000
00000350: 0000 0000 0000 0000 0000 0000 0000 0000
00000360: 0000 0000 0000 0000 0000 0000 0000 0000
00000370: 0000 0000 0000 0000 0000 0000 0000 0000
00000380: 0000 0000

exp_avg f4 [9]
-7.229495e-05 -0.00018704713 -0.0002424827 -0.0011826959 -0.00028867036 -0.00043880552 -0.00019159261 0.00020177517
2.7430855e-05
00000000: 0e9d 97b8 1522 44b9 f442 7eb9 b004 9bba
00000010: ae58 97b9 7b0f e6b9 40e6 48b9 9c93 5339
00000020: 501b e637

exp_avg_sq f4 [9]
1.4159915e-05 3.0896135e-06 2.2690047e-05 1.3264307e-05 9.355538e-06 1.1520709e-05 2.2573324e-05 7.4473483e-06
5.1681923e-06
00000000: 5f90 6d37 2857 4f36 8156 be37 c489 5e37
00000010: bbf5 1c37 1249 4137 d85b bd37 3ce4 f936
00000020: 6f6a ad36

exp_avg f4 [16, 9, 3, 3]
0.0016294204 0.00049941574 0.00061110716 0.0010631804 0.0010147345 0.00042672618 0.0035800042 0.0033412029
0.00082556263 0.0012570336 0.0011656522 0.0012146661 0.0009078088 0.00017790898 0.00018044177 0.0026452101
0.0023925076 0.0012720627 0.00026390082 0.00028874894 -0.0012824099 -0.0006120961 -0.00033454792 -5.286338e-07
0.0006575077 0.0014167866 0.0011462512 0.000869867 0.0009822694 0.0016385812 0.0020747127 0.0011904833
0.00021014485 0.002711252 0.0022194237 0.00016660173 -0.002934062 -0.0025393867 -0.0059284014 -0.0025310812
-0.0013886866 -0.0025131784 -0.0059236404 -0.0038804447 -0.002667265 0.0034137939 0.0029228886 0.0041531622
0.0017722208 0.00015471988 0.0010526779 0.008617939 0.0050635966 0.0023377512 0.0012973121 5.460369e-05
0.0012657162 0.00058110233 0.00017529806 0.00051790423 -0.0024997501 -0.0021125013 -0.0014021195 0.0016335801
0.0005806975 -0.0010269479 0.0010595656 -0.00044249656 -0.0014418709 -0.00070351904 -0.0025280523 -0.0024646027
0.0019385939 0.0013333553 0.0012734279 0.00095791544 0.0002207209 5.8190213e-05 0.0027728854 0.0014943163
0.0006355992 0.00013081558 0.0011704722 0.0003434076 0.002159813 -0.001475846 -0.0012388736 0.0011282745
-0.0028554131 -0.0012374377 -0.00052683573 -0.0013484106 0.00031948244 -0.00054545776 -0.0012423107 -0.00041607273
-0.0010227523 -0.0020233314 -0.0023967691 5.7487385e-05 -0.0018956678 5.1230316e-05 0.00075717637 -5.6543675e-05
0.00010496653 0.002608078 -0.0005768706 -0.0022961763 0.00064376206 0.0011062768 -0.0008344193 0.00020436253
-0.0013310728 -3.3350658e-05 -0.0012137742 0.00033026526 -0.00031755166 0.0013107117 0.0021436263 -0.0007001249
0.0003640155 0.002497778 0.001149309 0.0020524652 0.0035105015 -0.0003599619 -0.001065882 -0.0025480303
5.9770835e-05 -0.0011285397 -0.0038874382 -0.0018645562 -0.0010548254 -0.0032779535 -0.0014049157 -0.001717679
0.0012282346 8.6239284e-05 -0.0006100638 0.0020455788 -0.0013410317 -0.001934084 0.0011374603 0.0011086967
-0.00014263723 0.00029430477 -0.0015459803 -0.0022672615 -0.00080974516 -0.001104374 -4.9913046e-06 0.00240744
0.0011863279 -0.00095960096 -0.0016336073 -0.0010879298 -0.0022923013 -0.0019989987 -0.0020863828 -0.0005722546
-0.0021300898 -0.0027177965 0.0026562042 0.0045998557 0.00048828236 0.007921243 0.0007083266 -0.0008957582
0.0032115811 -0.0016378812 -0.00211355 0.0015043152 0.0023650602 -0.0009850409 0.005122589 0.0027786542
-0.00085468974 0.0066253273 0.0023932932 -0.0017018329 -0.0002509452 0.001555612 0.006818494 0.003564354
0.0054141274 0.0060258703 0.0067761363 0.005959025 0.0034027866 0.0030882505 -9.750564e-05 -0.0029064568
0.0017793175 -0.004119841 -0.0035750729 -0.002291916 -0.003909495 -0.002345927 -0.0060809324 -0.002560932
-0.0034000166 -0.0062439535 0.000883147 0.0046872282 -0.008019035 0.003880779 0.00934679 0.0045559593
0.003764334 0.00046927773 0.009188223 0.0031586413 -0.0043829414 0.011408616 -0.0024162477 -0.0059843073
-0.0008865908 -0.0010158409 0.0033975816 -0.0018382642 -0.002506261 -5.383251e-05 -0.0044485684 -0.004947813
-0.0017021779 -0.0032326237 -0.009009423 -0.0064689955 -0.0107732825 -0.008630766 -0.0013679194 -0.00695262
-0.004356636 0.0030169655 0.0014270839 0.00036154562 -0.001131986 0.0046869274 0.0006032912 0.00041399262
0.005784381 -0.00016305696 -0.0012069758 0.00057161355 0.0014837513 0.0011825578 -0.0016241699 -0.0011968934
-0.00096984266 -0.0028652165 0.0033101672 -0.0010489722 0.00014772285 0.0004936457 0.0011951176 -0.00165006
00000000: 4792 d53a 39eb 023a b532 203a 6a5a 8b3a
00000010: d700 853a 38ba df39 819e 6a3b 15f8 5a3b
00000020: 926a 583a 0cc3 a43a ccc8 983a 6e35 9f3a
00000030: 04fa 6d3a 148d 3a39 f834 3d39 435b 2d3b
00000040: 9ecb 1c3b 57bb a63a 2b5c 8a39 3a63 9739
00000050: 8916 a8ba 1375 20ba 4366 afb9 70e7 0db5
00000060: 985c 2c3a 78b3 b93a cf3d 963a c907 643a
00000070: 7ebf 803a a9c5 d63a e7f7 073b fe09 9c3a
00000080: 545a 5c39 43af 313b c073 113b d0b1 2e39
00000090: 6449 40bb d76b 26bb 0943 c2bb 7fe0 25bb
000000a0: 9704 b6ba 23b4 24bb 191b c2bb 0f4f 7ebb
000000b0: 48cd 2ebb f5b9 5f3b ef8d 3f3b 4017 883b
000000c0: dd49 e83a 4d3c 2239 02fa 893a 4232 0d3c
000000d0: 87ec a53b f534 193b 920a aa3a 4406 6538
000000e0: 63e6 a53a 1e55 183a 37d0 3739 f7c3 073a
000000f0: d9d2 23bb e471 0abb 53c7 b7ba da1d d63a
00000100: f339 183a a79a 86ba 1fe1 8a3a e2fe e7b9
00000110: 29fd bcba 5d6c 38ba aead 25bb 2c85 21bb
00000120: 6b18 fe3a fbc3 ae3a 26e9 a63a 9e1c 7b3a
00000130: 5171 6739 4411 7438 4cb9 353b efdc c33a
00000140: 579e 263a 8a2b 0939 886a 993a 630b b439
00000150: a68b 0d3b 2d71 c1ba b361 a2ba 9ce2 933a
00000160: e221 3bbb 8531 a2ba 591b 0aba 27bd b0ba
00000170: 3580 a739 0dfd 0eba 08d5 a2ba 5624 dab9
00000180: df0d 86ba de99 04bb 1d13 1dbb 9c1e 7138
00000190: 0e78 f8ba 22e0 5638 3f7d 463a 4f29 6db8
000001a0: 7a21 dc38 4aec 2a3b 2139 17ba 727b 16bb
000001b0: 24c2 283a 7d00 913a eebc 5aba 264a 5639
000001c0: 6477 aeba ffe1 0bb8 8117 9fba 7427 ad39
000001d0: 107d a6b9 30cc ab3a 157c 0c3b 9688 37ba
000001e0: 55d9 be39 c3b1 233b 69a4 963a a782 063b
000001f0: 7110 663b 45b9 bcb9 11b5 8bba dbfc 26bb
00000200: 72b2 7a38 82eb 93ba 64c4 7ebb 2064 f4ba
00000210: 1142 8aba efd2 56bb 2625 b8ba be23 e1ba
00000220: b7fc a03a 5ddb b438 b0ec 1fba 1e0f 063b
00000230: 8fc5 afba 1781 fdba d616 953a b051 913a
00000240: e490 15b9 eb4c 9a39 7ea2 caba 5696 14bb
00000250: 1445 54ba a4c0 90ba fb7a a7b6 24c6 1d3b
00000260: 8f7e 9b3a bb8d 7bba c41e d6ba de98 8eba
00000270: 6f3a 16bb a201 03bb b2bb 08bb 5b03 16ba
00000280: fa98 0bbb 0f1d 32bb b613 2e3b 63ba 963b
00000290: 1300 003a 1ac8 013c feae 393a 51d1 6aba
000002a0: 6479 523b 2cae d6ba 7c83 0abb 712c c53a
000002b0: 20ff 1a3b 7d1c 81ba 64db a73b 151a 363b
000002c0: 420d 60ba 4619 d93b ccd8 1c3b 0910 dfba
000002d0: 4b91 83b9 ade5 cb3a ac6d df3b f097 693b
000002e0: fe68 b13b aa74 c53b 5a0a de3b ed43 c33b
000002f0: 4901 5f3b 3f64 4a3b f17b ccb8 417a 3ebb
00000300: fd37 e93a bbff 86bb c54b 6abb f833 16bb
00000310: 391b 80bb 20be 19bb 8f42 c7bb 4fd5 27bb
00000320: d0d2 5ebb 149a ccbb fe82 673a 5297 993b
00000330: 4562 03bc ab54 7e3b 4723 193c 284a 953b
00000340: 0bb3 763b 6409 f639 338a 163c 3501 4f3b
00000350: c79e 8fbb 34eb 3a3c e959 1ebb 0218 c4bb
00000360: 1a6a 68ba f725 85ba f6a9 5e3b e9f1 f0ba
00000370: 1540 24bb 38ca 61b8 4cc5 91bb 4421 a2bb
00000380: 9d1b dfba 6dda 53bb 429c 13bc def9 d3bb
00000390: 6c82 30bc 0e68 0dbc c24b b3ba ced2 e3bb
000003a0: 1dc2 8ebb 48b8 453b fd0c bb3a d58d bd39
000003b0: 265f 94ba cc94 993b 3026 1e3a 260d d939
000003c0: e88a bd3b 45fa 2ab9 6333 9eba 56d8 153a
000003d0: 6f7a c23a 0e00 9b3a 19e2 d4ba 14e1 9cba
000003e0: 0a3d 7eba 5bc6 3bbb 64ef 583b ab7d 89ba
000003f0: 0de6 1a39 0168 013a 7ea5 9c3a d346 d8ba
