saved_models/emnist_cnn_alpha.pth (torch, 89022 bytes, 15 tensors)

conv1.weight f4 [1, 1, 3, 3]
0.0 0.0 0.0 1.0 0.0 1.0 0.0 1.0
1.0
00000000: 0000 0000 0000 0000 0000 0000 0000 803f
00000010: 0000 0000 0000 803f 0000 0000 0000 803f
00000020: 0000 803f

conv2.weight f4 [8, 1, 3, 3]
0.017242227 -0.34785166 0.23470019 0.34151876 -0.57596546 0.17202264 0.32217503 -0.2977398
-0.0044702874 0.18604954 -0.18105872 0.44869655 0.025561038 -0.19913374 0.2026857 -0.4584955
0.18801486 0.3613219 0.036708236 -0.46386552 0.16511995 -0.09817589 0.58278984 0.029597597
0.06917953 -0.19768298 -0.30204967 -0.060847033 -0.7017158 0.15424062 -0.20048077 0.18594593
0.1036046 0.35518953 0.1618363 0.18124975 0.0383642 -0.3224901 -0.28344706 0.118140735
0.48577383 -0.110261105 -0.20739767 0.016582081 0.052547146 -0.11470599 0.3112716 -0.21158652
-0.37573585 0.50050634 -0.28098622 -0.005509189 0.16393748 -0.13786389 -0.46761528 -0.07985927
0.12840022 -0.5152844 0.37907028 0.034737337 -0.5325528 0.1877071 -0.040525224 -0.24241099
0.42157474 0.027915819 -0.4017629 -0.3465659 0.34470224 0.22052443 -0.33657393 -0.119751275
00000000: 923f 8d3c 9d19 b2be 3f55 703e 8cdb ae3e
00000010: 7972 13bf b426 303e 20f4 a43e 5a71 98be
00000020: 7d7b 92bb c583 3e3e 7567 39be 8ebb e53e
00000030: 6265 d13c b7e9 4bbe d78c 4f3e ecbf eabe
00000040: f886 403e 2fff b83e 605b 163d c87f edbe
00000050: 3415 293e 7110 c9bd b731 153f a976 f23c
00000060: ffad 8d3d 686d 4abe 41a6 9abe bd3a 79bd
00000070: a6a3 33bf 41f1 1d3e d54a 4dbe 9c68 3e3e
00000080: a62e d43d 67db b53e 6ab8 253e 8999 393e
00000090: c823 1d3d 6c1d a5be f91f 91be c5f3 f13d
000000a0: 59b7 f83e 93d0 e1bd 0e60 54be 25d7 873c
000000b0: ad3b 573d f9ea eabd fe5e 9f3e 23aa 58be
000000c0: 7360 c0be 2f21 003f 6ddd 8fbe 6d86 b4bb
000000d0: 3adf 273e 312c 0dbe 456b efbe 428d a3bd
000000e0: 597b 033e aee9 03bf 8015 c23e bd48 0e3d
000000f0: 6155 08bf 4a36 403e c7fd 25bd 963a 78be
00000100: a5d8 d73e b7af e43c deb3 cdbe 1671 b1be
00000110: d07c b03e 28d1 613e 6b53 acbe 2840 f5bd

conv2.bias f4 [8]
0.058044728 0.13414025 0.22480486 0.20123667 0.27046457 0.004801116 -0.23743676 -0.44147506
00000000: 4fc0 6d3d 105c 093e 3f33 663e fc10 4e3e
00000010: 557a 8a3e ae52 9d3b 9f22 73be 0509 e2be

bn2.weight f4 [8]
1.4801328 1.0772071 1.4064298 1.4479117 1.4918561 1.2948947 1.6088086 1.8477352
00000000: fe74 bd3f ece1 893f e405 b43f 2c55 b93f
00000010: 24f5 be3f 1cbf a53f 71ed cd3f 9682 ec3f

bn2.bias f4 [8]
-0.35912883 -0.12696879 -0.42604682 -0.7607908 -0.64665717 -0.47378394 0.059000786 -0.8191591
00000000: bcdf b7be 1b04 02be cf22 dabe 30c3 42bf
00000010: 538b 25bf cf93 f2be cfaa 713d 69b4 51bf

bn2.running_mean f4 [8]
-0.006341159 0.36562636 0.15759844 0.27170196 0.18892078 -0.05209057 -0.60053116 -0.61846405
00000000: 7fc9 cfbb 6133 bb3e 7c61 213e 851c 8b3e
00000010: 7374 413e ec5c 55bd 69bc 19bf a953 1ebf

bn2.running_var f4 [8]
0.07424985 0.17113982 0.04635291 0.22526003 0.05857481 0.036586143 0.3178918 0.12930396
00000000: 4e10 983d 473f 2f3e 8ddc 3d3d 91aa 663e
00000010: 24ec 6f3d 5adb 153d b7c2 a23e 4268 043e

se.1.weight f4 [4, 8, 1, 1]
-0.09265943 -0.0835166 0.19784826 -0.14360867 0.08252641 -0.29199854 -0.026868578 0.11776422
1.4131105 0.9158747 0.7979165 -0.09415649 0.15947261 1.0267088 1.0869163 0.4799963
-0.33965975 0.050495937 -0.36275885 0.16229635 -0.388442 -0.4824028 -0.4689134 -0.051477812
-0.2316467 0.085883886 -0.07699868 -0.3015685 -0.26619905 0.2133402 -0.27374786 0.35058597
00000000: 3ac4 bdbd c00a abbd bc98 4a3e 270e 13be
00000010: 9b03 a93d d580 95be 7e1b dcbc 5e2e f13d
00000020: cee0 b43f c476 6a3f 4144 4c3f 1ed5 c0bd
00000030: ca4c 233e 326b 833f 1320 8b3f 13c2 f53e
00000040: e2e7 adbe d4d4 4e3d 87bb b9be 0431 263e
00000050: dfe1 c6be 80fd f6be 6b15 f0be 66da 52bd
00000060: cb34 6dbe e4e3 af3d 7cb1 9dbd 3067 9abe
00000070: 3e4b 88be da75 5a3e ae28 8cbe 0180 b33e

se.1.bias f4 [4]
-0.25450945 1.0811707 0.05801693 -0.19168521
00000000: 104f 82be cd63 8a3f 29a3 6d3d 2149 44be

se.3.weight f4 [8, 4, 1, 1]
-0.20710789 1.1584551 -0.23121108 0.41609752 0.112991214 0.8550655 -0.07398041 -0.43642604
-0.20623796 0.71321243 -0.118725464 -0.48798788 0.06289787 0.54142016 0.14692692 -0.3987642
0.17649567 0.80756867 0.06526821 0.34037447 -0.42968547 0.9445309 0.15834181 0.49688137
0.062159866 0.23519199 0.4204969 -0.37748522 0.08782458 0.9632987 -0.120016195 -0.31023753
00000000: 1714 54be 4248 943f 99c2 6cbe bc0a d53e
00000010: f067 e73d 93e5 5a3f 0b83 97bd 3c73 dfbe
00000020: 0b30 53be 1795 363f 5626 f3bd 8cd9 f9be
00000030: 99d0 803d 839a 0a3f 0374 163e d22a ccbe
00000040: 48bb 343e d2bc 4e3f 57ab 853d 9045 ae3e
00000050: bcff dbbe c7cc 713f 5b24 223e 3c67 fe3e
00000060: 589b 7e3d 2bd6 703e 5f4b d73e be45 c1be
00000070: 60dd b33d be9a 763f 0dcb f5bd 74d7 9ebe

se.3.bias f4 [8]
0.45460892 0.8513843 0.2854615 0.102993 0.016382152 0.99940234 0.49542612 0.8895671
00000000: 80c2 e83e 52f4 593f 0228 923e feed d23d
00000010: dd33 863c d5d8 7f3f 7ea8 fd3e abba 633f

fc.0.weight f4 [64, 288]
-0.29714945 0.2289959 -0.13701941 0.29791626 0.3078519 -0.071780115 0.060169376 0.06524688
0.10329839 0.25606555 0.09443822 -0.21780607 -0.09369044 -0.08138046 0.20423609 -0.16765758
-0.23094082 -0.13094702 0.20161448 -0.2831939 -0.4428888 -0.2309812 -0.16608268 0.091393955
-0.30820265 -0.08245951 -0.122708604 0.108236335 0.34029022 0.033345822 0.111073405 0.21977524
0.006394963 0.23476462 0.039962016 0.0165724 0.19391191 -0.1531926 0.18897988 0.12328466
0.5691384 -0.11001422 0.18911307 0.26188266 0.07456066 0.10802761 -0.26277053 -0.20684968
0.16082565 0.041210964 -0.014152171 -0.34188783 -0.21415833 0.36065918 -0.023069229 0.20450477
0.11264939 -0.1465591 0.25747678 0.28376958 0.05395087 0.112343825 -0.19723478 0.018909331
0.06775812 -0.28162506 -0.100332536 -0.0665476 -0.051450502 -0.03457821 -0.10523373 0.084479995
-0.32518065 0.08998778 0.22509381 -0.6620542 -0.14401563 0.27652755 -0.08724544 -0.022823872
-0.112460576 -0.19999115 0.2254691 0.061502922 0.03297667 -0.038670525 -0.3750002 0.24446198
0.20180123 -0.06957076 -0.02191196 0.17655441 0.058038823 0.082968354 0.12095927 -0.03595525
-0.024951441 0.25176778 -0.1475312 -0.021399584 0.11910027 -0.039422072 -0.052429877 -0.058521446
-0.2425827 -0.19026265 -0.21887453 -0.044217832 -0.26182464 -0.12974313 -0.23836122 -0.2449681
-0.057189897 -0.03695373 -0.17528756 0.022388328 -0.00829719 0.06525744 0.20176393 0.04291331
0.0121661415 0.028565332 -0.032290623 0.36070973 0.3130615 0.22943403 -0.16536756 -0.22059247
0.2511771 0.29380023 -0.1785291 0.13119243 -0.71894354 0.0697235 0.41366306 0.124287255
0.1322381 0.43787327 -0.58159685 -0.9831291 -0.84003747 -0.050050035 0.05813168 -0.36534262
-0.07747054 0.0996253 -0.07422737 -0.123221815 -0.31663 -0.53431433 -0.023259815 0.08231485
0.1499198 0.004018068 -0.40921435 -0.29154313 -0.2846802 0.23248829 0.15669698 -0.27987468
-0.4669096 -0.068958275 -0.03857434 -0.08575387 -0.39534009 -0.35943344 -0.38188753 0.114349976
-0.1428268 -0.44016552 -0.8596154 -0.0782343 -0.063227326 0.22184 -0.63444585 -0.97898656
-0.2291712 -0.18972935 0.01724981 0.5091212 0.20389418 0.045332424 0.06155854 0.27860242
0.11791845 0.2837098 0.18545024 0.17414811 0.024238171 0.053887103 0.050322436 0.07975979
0.09755714 0.094781734 -0.09764435 -0.077543855 -0.12572578 0.0016922504 -0.014621116 -0.15877366
-0.016891414 -0.2013289 0.10377708 0.16880873 -0.10416546 0.014834728 0.119526684 0.20112132
0.31609386 0.14616229 0.06943081 0.33312565 0.1270858 0.116011806 -0.0046899254 -0.12437268
-0.0452909 0.11492138 0.099472694 -0.06082834 0.05632696 0.04789401 0.019697592 0.066033386
-0.06168898 0.07086943 -0.050229535 -0.014754492 0.032266997 0.079317085 -0.3312931 -0.21934925
0.053816993 -0.2468565 -0.05145811 -0.13803062 -0.2742938 0.15244973 0.09565124 0.25729874
-0.1354928 0.12303803 0.5984712 0.41181916 0.37260887 0.2201107 -0.040053096 0.20286639
0.19780934 0.20438682 0.30087793 0.19529977 0.24292204 0.015591357 -0.11809936 -0.60233
00000000: f923 98be e77d 6a3e d14e 0cbe 7b88 983e
00000010: c49e 9d3e 7401 93bd 2a74 763d 28a0 853d
00000020: 1b8e d33d 061b 833e d368 c13d 8e08 5fbe
00000030: c6e0 bfbd ccaa a6bd 4423 513e 6eae 2bbe
00000040: c07b 6cbe fa16 06be 0774 4e3e cafe 90be
00000050: 52c2 e2be 5686 6cbe 9411 2abe c12c bb3d
00000060: bdcc 9dbe 88e0 a8bd a64e fbbd 03ab dd3d
00000070: 853a ae3e a195 083d 747a e33d c30c 613e
00000080: d68c d13b 2366 703e 36af 233d d8c2 873c
00000090: d890 463e 85de 1cbe f183 413e ab7c fc3d
000000a0: 0eb3 113f 234f e1bd dba6 413e 7c15 863e
000000b0: 42b3 983d 943d dd3d dc89 86be 67d0 53be
000000c0: 7baf 243e d4cc 283d 82de 67bc ec0b afbe
000000d0: 524c 5bbe 52a8 b83e aefb bcbc b369 513e
000000e0: b9b4 e63d 9713 16be ffd3 833e 3f4a 913e
000000f0: 96fb 5c3d 8514 e63d eaf7 49be bee7 9a3c
00000100: c5c4 8a3d 2931 90be 257b cdbd 1c4a 88bd
00000110: c3bd 52bd e2a1 0dbd c884 d7bd d903 ad3d
00000120: 147e a6be 834b b83d fe7e 663e 627c 29bf
00000130: d578 13be 0595 8d3e bdad b2bd 21f9 babc
00000140: bb51 e6bd 7bca 4cbe 5fe1 663e 7dea 7b3d
00000150: 8b12 073d fc64 1ebd 0700 c0be 3e54 7a3e
00000160: fba4 4e3e 1d7b 8ebd b680 b3bc aeca 343e
00000170: 1eba 6d3d 50eb a93d 7eb9 f73d d045 13bd
00000180: f766 ccbc b5e7 803e 6b12 17be 2e4e afbc
00000190: d8ea f33d 0a79 21bd b6c0 56bd 2fb4 6fbd
000001a0: 9967 78be 36d4 42be a520 60be c21d 35bd
000001b0: e10d 86be 62db 04be f714 74be ebd8 7abe
000001c0: f43f 6abd cb5c 17bd 957e 33be ba67 b73c
000001d0: f0f0 07bc b1a5 853d 349b 4e3e dec5 2f3d
000001e0: 7f54 473c d801 ea3c 2c43 04bd f2ae b83e
000001f0: 9949 a03e c1f0 6a3e 1d56 29be fee2 61be
00000200: 499a 803e fc6c 963e 55d0 36be 4f57 063e
00000210: af0c 38bf 32cb 8e3d a5cb d33e 518a fe3d
00000220: 6d69 073e ed30 e03e 88e3 14bf 59ae 7bbf
00000230: b20c 57bf 4401 4dbd 7c1b 6e3d 300e bbbe
00000240: e0a8 9ebd 5908 cc3d 8504 98bd b85b fcbd
00000250: 541d a2be d3c8 08bf 5e8b bebc b094 a83d
00000260: 9384 193e ffa9 833b 8b84 d1be 2445 95be
00000270: 9ac1 91be 6911 6e3e 2c75 203e bc4b 8fbe
00000280: c60e efbe ff39 8dbd 2100 1ebd ba9f afbd
00000290: 046a cabe a907 b8be c386 c3be 5230 ea3d
000002a0: 3041 12be 605d e1be c10f 5cbf 4e39 a0bd
000002b0: 547d 81bd 062a 633e 0b6b 22bf dd9e 7abf
000002c0: dbab 6abe 6948 42be 794f 8d3c c455 023f
000002d0: a3c9 503e 7eae 393d cf24 7c3d faa4 8e3e
000002e0: 3a7f f13d 6942 913e abe6 3d3e e253 323e
000002f0: 218f c63c b9b8 5c3d e61e 4e3d 1a59 a33d
00000300: 0acc c73d ed1c c23d c3f9 c7bd 50cf 9ebd
00000310: 42be 00be 80ce dd3a 688d 6fbc 9095 22be
00000320: dd5f 8abc 2a29 4ebe 1489 d43d 32dc 2c3e
00000330: b354 d5bd 5c0d 733c 68ca f43d bff2 4d3e
00000340: 0ed7 a13e 91ab 153e be31 8e3d 728f aa3e
00000350: c822 023e 9997 ed3d f2ad 99bb 1bb7 febd
00000360: f382 39bd e75b eb3d 57b8 cb3d 2327 79bd
00000370: 19b7 663d 822c 443d d85c a13c 833c 873d
00000380: 95ad 7cbd fe23 913d 7cbd 4dbd d3bc 71bc
00000390: 662a 043d ff70 a23d 409f a9be 179d 60be
000003a0: 356f 5c3d f3c7 7cbe bdc5 52bd e657 0dbe
000003b0: 3d70 8cbe c81b 1c3e cce4 c33d a9bc 833e
000003c0: a0be 0abe 5dfb fb3d 6935 193f f6d9 d23e
000003d0: 97c6 be3e b364 613e b70e 24bd 35bc 4f3e
000003e0: 888e 4a3e c74a 513e ac0c 9a3e aafc 473e
000003f0: 8ec0 783e e472 7f3c 14de f1bd 4d32 1abf

fc.0.bias f4 [64]
-0.06417833 0.28757817 0.08693572 -0.04661674 -0.15666738 -0.056785833 -0.20664258 0.00904898
-0.12019545 0.10322673 -0.2383304 -0.038516413 0.21758813 -0.08550867 -0.07832626 -0.012787558
0.03399434 -0.060184915 -0.119649045 0.021856736 -0.08881255 -0.02847447 0.21105051 -0.084353425
-0.08092476 0.17474033 0.15566035 0.13439117 0.2291148 0.014600622 -0.0016555178 -0.08113829
-0.008018167 -0.17096144 -0.0711556 -0.0030883153 0.009774808 -0.11455539 -0.052783836 -0.074482135
-0.10657995 -0.04278326 -0.1781276 -0.08846905 0.1273765 -0.10637756 0.0019901202 -0.029048005
0.014809122 -0.06936941 0.0090766065 -0.01471892 -0.21150321 0.041181747 0.06622613 -0.047860492
-0.02808727 0.16211699 -0.20343223 -0.14242423 0.18393545 0.25886136 -0.13655731 0.094874114
00000000: ee6f 83bd 723d 933e 5b0b b23d 32f1 3ebd
00000010: 6a6d 20be 4398 68bd 1d9a 53be 2c42 143c
00000020: 0829 f6bd 8968 d33d e20c 74be 63c3 1dbd
00000030: 6ccf 5e3e 2b1f afbd 8569 a0bd e882 51bc
00000040: a63d 0b3d 7584 76bd 8f0a f5bd e60c b33c
00000050: 5be3 b5bd 4b43 e9bc a01d 583e 7dc1 acbd
00000060: e1bb a5bd 21ef 323e 6d65 1f3e d79d 093e
00000070: 129d 6a3e 7237 6f3c f6fd d8ba d52b a6bd
00000080: a15e 03bc 8410 2fbe 07ba 91bd 5565 4abb
00000090: 8426 203c 049c eabd dd33 58bd 178a 98bd
000000a0: 9746 dabd 803d 2fbd 1567 36be 432f b5bd
000000b0: fc6e 023e 7adc d9bd ad6c 023b 15f6 edbc
000000c0: f6a1 723c 8d11 8ebd 0cb6 143c a027 71bc
000000d0: 4c94 58be 31ae 283d 91a1 873d 5d09 44bd
000000e0: 4617 e6bc ff01 263e 8a50 50be a8d7 11be
000000f0: 9359 3c3e 7a89 843e aed5 0bbe 5c4d c23d

fc.3.weight f4 [27, 64]
-0.2991931 -0.4025225 -0.29406053 -0.08311352 -0.31897932 -0.32567728 -0.27304307 -0.49028945
0.05002852 -0.74211377 -0.46339223 -0.24583784 -0.43960816 -0.50402695 -0.13945818 0.055526316
-0.4227105 -0.47947794 -0.45553103 -0.4289126 -0.35906786 0.010164402 -0.71750766 -0.37436268
-0.013950604 -0.40574184 -0.26574135 -0.28705764 -0.4572387 0.018716717 -0.3165266 -0.5984133
-0.3267633 -0.09639634 -0.103794366 0.110854864 -0.2643567 -0.45622897 0.04853293 -0.074428506
-0.2673863 -0.008128116 -0.17211069 -0.5275994 -0.4223318 -0.5317143 0.06621477 -0.2641275
-0.06699747 -0.5993604 -0.28522038 0.06663704 -0.15171532 0.06879691 -0.2316609 -0.4320051
-0.46305376 -0.27278236 -0.31991702 -0.22501947 -0.41244212 -0.30647004 -0.23993382 -0.7516051
-0.21329495 -0.2696076 -0.1525051 -0.043677896 0.12224247 0.18297477 0.1156055 -0.012891755
0.023394754 0.08902909 0.18587853 0.11109885 -0.27345294 -0.051598664 -0.077654175 -0.067771435
0.01541287 -0.53628564 -0.10942455 0.110255614 0.15200818 0.05446329 0.22515585 0.14238662
0.091244824 0.2516411 0.13304219 0.17431869 -0.34841582 -0.045291986 -0.022525493 -0.18961786
-0.13368306 0.21510924 0.034638822 0.061655927 0.1714624 -0.22884765 -0.011471576 -0.110512525
0.035838652 -0.011749902 -0.21313322 0.060261 -0.07284757 -0.2689593 -0.14128011 0.25092506
0.045666642 -0.14949892 -0.14447622 0.06965725 -0.6434624 -0.10706509 0.0797754 0.14351346
0.09666417 0.15691608 -0.103071675 -0.36483017 -0.28230467 -1.0938756 -0.27142563 0.06243703
-0.07522975 -0.1340517 0.041474976 -0.054947063 -0.2193944 0.15908691 0.10699717 -0.21124667
-0.1358582 0.049688604 0.21363328 0.14816792 0.1055706 -0.33714586 0.03534306 -0.054234054
0.24544358 0.040655077 0.10069646 0.0136685595 -0.50125694 -0.009971517 -0.5634738 0.24239044
-0.009515988 -0.15742105 -0.5571789 -0.25316066 0.021784203 0.06409987 -0.7761448 -0.021257786
-0.06488669 -0.36672497 -0.074986696 -0.081586905 0.1312887 0.1883088 0.001768522 0.0325904
0.12860258 -0.0585741 -0.025818454 -0.5732809 -0.50143176 -0.0052166213 0.064327106 -0.14075676
0.053173102 -0.099285625 0.2892491 0.025505593 0.2579729 -0.007976755 0.11229502 0.12253549
-0.17889239 -0.31965268 0.2150219 0.18932128 0.08268423 -0.3498918 -0.32665837 -0.53325945
-0.41265228 0.21122035 0.16952266 -0.029854165 -0.039755885 0.06738164 -0.75526613 -0.38961568
-0.06320122 0.12625313 -0.6630914 0.1822769 0.05158827 0.10707359 0.07508211 0.094187476
-0.14470042 0.10542771 0.11348718 0.01866567 -0.43202552 -0.07925575 -0.5636857 -0.0789926
-0.12924476 0.3201037 0.1851036 0.15038879 -0.5870854 0.092164524 -0.18039507 0.26294628
0.0013542075 -0.27964753 0.10143969 0.064087585 -0.46284607 -0.21264534 0.0005821941 -0.122023076
0.11824413 -0.09131263 -0.48726332 -0.44580442 -0.08565555 -0.20456064 0.040509403 0.122065485
-0.11513759 -0.060730252 -0.21741004 -0.010768936 0.18783242 -0.06370541 0.059084397 0.15503149
0.085546136 0.25428033 -0.7930226 0.026944421 -0.17158927 -0.48944435 0.1988395 -0.05480548
00000000: d72f 99be 6e17 cebe 1a8f 96be 6c37 aabd
00000010: 4251 a3be 2cbf a6be 4dcc 8bbe 3807 fbbe
00000020: b5ea 4c3d 2bfb 3dbf bf41 edbe eabc 7bbe
00000030: 5214 e1be e907 01bf 20ce 0ebe 906f 633d
00000040: 836d d8be 227e f5be 5d3b e9be 6f9a dbbe
00000050: bed7 b7be 9888 263c 95ae 37bf 77ac bfbe
00000060: 1391 64bc 65bd cfbe 400f 88be 38f9 92be
00000070: 311b eabe cd53 993c c60f a2be 9d31 19bf
00000080: 854d a7be 726b c5bd 2492 d4bd e007 e33d
00000090: c359 87be d896 e9be 77ca 463d f96d 98bd
000000a0: dbe6 88be ca2b 05bc c93d 30be c110 07bf
000000b0: e03b d8be 6e1e 08bf 9c9b 873d b83b 87be
000000c0: f835 89bd af6f 19bf 6808 92be 0079 883d
000000d0: 435b 1bbe 65e5 8c3d 8438 6dbe c62f ddbe
000000e0: 6215 edbe 21aa 8bbe 2acc a3be 816b 66be
000000f0: 9d2b d3be a4e9 9cbe 36b1 75be 3169 40bf
00000100: fe69 5abe 020a 8abe 4c2a 1cbe 98e7 32bd
00000110: 435a fa3d bd5d 3b3e 94c2 ec3d f137 53bc
00000120: 5ba6 bf3c e254 b63d f156 3e3e cb87 e33d
00000130: 0602 8cbe 1f59 53bd 2709 9fbd c0cb 8abd
00000140: 4386 7c3c 044a 09bf fa19 e0bd b2cd e13d
00000150: 08a8 1b3e e614 5f3d 418f 663e cccd 113e
00000160: 91de ba3d 1ad7 803e 363c 083e 9980 323e
00000170: 8f63 b2be 1784 39bd 6287 b8bc 2f2b 42be
00000180: 36e4 08be 9945 5c3e 70e1 0d3d ed8a 7c3d
00000190: d793 2f3e 0a57 6abe 47f3 3bbc 6454 e2bd
000001a0: 8dcb 123d a982 40bc 983f 5abe 3dd4 763d
000001b0: 1b31 95bd 09b5 89be bcab 10be 4079 803e
000001c0: f20c 3b3d 3f16 19be 93f1 13be 76a8 8e3d
000001d0: f4b9 24bf f144 dbbd 4961 a33d 31f5 123e
000001e0: ddf7 c53d 9cae 203e 3e17 d3bd 05cb babe
000001f0: 3d8a 90be 1e04 8cbf 4df8 8abe f9bd 7f3d
00000200: 0e12 9abd d944 09be aae1 293d 2c10 61bd
00000210: eda8 60be aee7 223e 5521 db3d 0c51 58be
00000220: 691e 0bbe 4786 4b3d afc2 5a3e 55b9 173e
00000230: 6635 d83d 629e acbe e2c3 103d 8724 5ebd
00000240: 9055 7b3e f085 263d f239 ce3d 18f2 5f3c
00000250: 6052 00bf 935f 23bc d23f 10bf 3335 783e
00000260: f2e8 1bbc fc32 21be 47a3 0ebf 469e 81be
00000270: c974 b23c cb46 833d 6db1 46bf cf24 aebc
00000280: 50e3 84bd 60c3 bbbe a092 99bd 0917 a7bd
00000290: 8c70 063e 06d4 403e c0cd e73a 837d 053d
000002a0: 65b0 033e 65eb 6fbd 3981 d3bc 89c2 12bf
000002b0: d55d 00bf 31f0 aabb eebd 833d 8a22 10be
000002c0: 0acc 593d 4356 cbbd 7518 943e 1bf1 d03c
000002d0: 0615 843e efb0 02bc eefa e53d e3f3 fa3d
000002e0: 912f 37be 84a9 a3be b32e 5c3e 70dd 413e
000002f0: 5956 a93d 0525 b3be c43f a7be b183 08bf
00000300: 2947 d3be 264a 583e 5997 2d3e b990 f4bc
00000310: 11d7 22bd 63ff 893d 1f59 41bf b57b c7be
00000320: a46f 81bd 8048 013e 5cc0 29bf cca6 3a3e
00000330: 394e 533d 6649 db3d a6c4 993d 5de5 c03d
00000340: 592c 14be 7cea d73d f76b e83d bfe8 983c
00000350: 7332 ddbe d750 a2bd b54d 10bf dfc6 a1bd
00000360: bd58 04be a2e4 a33e cc8b 3d3e 85ff 193e
00000370: 3b4b 16bf c1c0 bc3d 7cb9 38be e5a0 863e
00000380: aa7f b13a f62d 8fbe 9dbf cf3d 5a40 833d
00000390: 29fa ecbe b3bf 59be 629e 183a 3ce7 f9bd
000003a0: fa29 f23d 1e02 bbbd 947a f9be 7a40 e4be
000003b0: 2d6c afbd 5878 51be 30ed 253d 78fd f93d
000003c0: 42cd ebbd 49c0 78bd bda0 5ebe 3170 30bc
000003d0: 2457 403e fb77 82bd 7b02 723d 93c0 1e3e
000003e0: d032 af3d 0831 823e 8703 4bbf 8cba dc3c
000003f0: 19b5 2fbe 7398 fabe 959c 4b3e b67b 60bd

fc.3.bias f4 [27]
-0.23842297 -0.074155726 0.21328169 0.050225955 -0.03885422 0.007503135 0.21453996 -0.28330234
-0.13158262 0.27287707 0.10393792 -0.23666462 0.031544518 0.0031539418 0.0815967 0.6198388
0.15193047 -0.08443788 -0.4549673 0.042957705 -0.33390233 0.14172335 0.20139958 -0.17177543
0.18188801 -0.50526416 0.25689408
00000000: 2725 74be f5de 97bd 8466 5a3e bbb9 4d3d
00000010: 9a25 1fbd dcdc f53b 5db0 5b3e 010d 91be
00000020: 98bd 06be 8bb6 8b3e 67dd d43d 3658 72be
00000030: d334 013d 5db2 4e3b 2c1c a73d c1ad 1e3f
00000040: a993 1b3e c4ed acbd 79f1 e8be 6bf4 2f3d
00000050: 3ff5 aabe ed1f 113e b13b 4e3e e6e5 2fbe
00000060: da40 3a3e fe58 01bf 9f87 833e
