saved_models/emnist_cnn_beta.pth (torch, 960597 bytes, 48 tensors)

conv1.weight f4 [1, 1, 5, 5]
0	0x00000000	0.0
1	0x3f800000	1.0
2	0x3f800000	1.0
3	0x00000000	0.0
4	0x00000000	0.0
5	0x3f800000	1.0
6	0x3f800000	1.0
7	0x3f800000	1.0
8	0x00000000	0.0
9	0x00000000	0.0
10	0x00000000	0.0
11	0x00000000	0.0
12	0x00000000	0.0
13	0x3f800000	1.0
14	0x00000000	0.0
15	0x00000000	0.0
16	0x00000000	0.0
17	0x00000000	0.0
18	0x00000000	0.0
19	0x00000000	0.0
20	0x3f800000	1.0
21	0x3f800000	1.0
22	0x00000000	0.0
23	0x3f800000	1.0
24	0x00000000	0.0

conv2.weight f4 [16, 1, 3, 3]
0	0xbef20038	-0.47265792
1	0x3e1d99e7	0.1539074
2	0x3d023b64	0.03179492
3	0xbf0acd33	-0.5421936
4	0x3eb90b00	0.36141205
5	0x3d0fee1b	0.035139184
6	0xbe82b6c7	-0.25530073
7	0x3ec30a74	0.38093913
8	0xbdb65420	-0.08902764
9	0x3dd05988	0.10173327
10	0x3e881115	0.26575533
11	0xbe5f318b	-0.21796243
12	0xbe597545	-0.21236141
13	0x3b8b6f6a	0.004255225
14	0x3e9217b1	0.285337
15	0x3d5cb712	0.053885527
16	0xbf01457f	-0.5049667
17	0x3ed2253d	0.41044036
18	0xbd3df121	-0.046372537
19	0x3d924cec	0.07143578
20	0x3e8fc986	0.28083438
21	0x3e142f8f	0.14471267
22	0xbe554d26	-0.20830211
23	0xbf06d54b	-0.5266921
24	0xbd79a7dc	-0.0609511
25	0x3d820935	0.06349412
26	0x3ea9005d	0.3300809
27	0xbea2fc5e	-0.31833166
28	0x3d4e1c11	0.050319735
29	0x3ea801be	0.3281383
30	0xbe199f97	-0.15002285
31	0xbf00a6d1	-0.5025454
32	0x3da8a8aa	0.08235295
33	0x3ef4a553	0.47782382
34	0xbe7a8864	-0.24466091
35	0xbe1ab32e	-0.15107414
36	0x3de94b92	0.11391367
37	0x3e64acd6	0.22331557
38	0xbe5212c2	-0.20514968
39	0x3e129ec8	0.14318383
40	0x3d32b1b5	0.043626506
41	0xbeff54f1	-0.49869493
42	0xbea2a09a	-0.31763154
43	0xbeb537df	-0.3539419
44	0x3f178adf	0.59196275
45	0xbea97999	-0.33100584
46	0xbe2c4540	-0.16823292
47	0x3ea50f48	0.3223822
48	0xbd9f5bd5	-0.077811874
49	0x3e7366c4	0.2376967
50	0x3ce0989e	0.027416524
51	0x3e88e72c	0.2673887
52	0x3e99e3cb	0.30056605
53	0xbef2f3ba	-0.47451574
54	0x3ea40118	0.32032084
55	0xbd8c45fc	-0.06849286
56	0xbee53862	-0.4476958
57	0x3c1d0390	0.009583369
58	0x3e764143	0.24048333
59	0xbeb8a3f2	-0.3606258
60	0x3d61c6ad	0.055121113
61	0x3e2ccb61	0.16874458
62	0xbe577628	-0.21041167
63	0x3e4f3279	0.20234098
64	0xbe6782a4	-0.22608429
65	0x3dc3dd5e	0.09563707
66	0xbe82002e	-0.25390762
67	0x3e7dbf9f	0.24780129
68	0xbe244e90	-0.16045594
69	0xbe8c1b7c	-0.2736472
70	0x3f02d3e5	0.51104575
71	0xbe83c085	-0.25732818
72	0xbeb627cd	-0.3557724
73	0xbd13f02a	-0.03611771
74	0x3e19801f	0.1499028
75	0x3e60dbf7	0.2195891
76	0x3ed807f6	0.42193574
77	0xbe9e4e11	-0.30918935
78	0x3dbd3dff	0.092403404
79	0xbee76d3a	-0.4520052
80	0x3da7e7a1	0.081984766
81	0x3e924f39	0.28576067
82	0x3dde8baa	0.108664826
83	0xbf041f6f	-0.51610464
84	0xbe9877f4	-0.29779017
85	0x3e903ee1	0.28172973
86	0x3ea0a06f	0.313724
87	0xbeaad39a	-0.33364564
88	0xbc4f80db	-0.012664999
89	0xbd9b1358	-0.07572049
90	0x3ec31aa6	0.3810627
91	0x3debc8ed	0.11512933
92	0xbf05282f	-0.5201444
93	0xbc860fb9	-0.016364919
94	0xbc83f004	-0.01610566
95	0xbd8497ae	-0.06474243
96	0xbe28aaaa	-0.16471353
97	0x3ed3009c	0.41211402
98	0x3e9d4726	0.30718344
99	0x3e155986	0.14584932
100	0xbeaede7d	-0.3415412
101	0x3e2bab75	0.16764624
102	0x3e9a0112	0.30078942
103	0xbeecf486	-0.46280307
104	0x3e372505	0.17885216
105	0x3ae205b5	0.0017244132
106	0xbe075980	-0.13217735
107	0x3e0231d7	0.12714325
108	0xbe3eb7a5	-0.18624742
109	0xbf0038f1	-0.50086886
110	0x3ea4284c	0.32061994
111	0x3ed7052d	0.41996136
112	0x3ea644a4	0.32474244
113	0x3eadb514	0.33927214
114	0xbe38e9f0	-0.1805799
115	0x3d97c7af	0.074111335
116	0xbc339db4	-0.010962892
117	0x3da36222	0.07977702
118	0xbf503569	-0.813315
119	0xbc516f44	-0.012782875
120	0xbca2b0a4	-0.01985962
121	0xbf27e930	-0.6559019
122	0xbe513fbb	-0.20434467
123	0x3dd91a58	0.10600728
124	0x3e08e6cb	0.1336929
125	0xbe76a5f1	-0.24086739
126	0x3e823037	0.2542741
127	0xbdf8ce82	-0.12148763
128	0x3e84ec2c	0.25961435
129	0x3e805da3	0.2507144
130	0xbd29eee8	-0.041487604
131	0x3eabc9b2	0.3355232
132	0xbe9d12c0	-0.30678368
133	0xbe9f8949	-0.31159428
134	0xbecdef4c	-0.40221632
135	0x3d468468	0.048466116
136	0xbedfb1f1	-0.43690446
137	0xbeac21fe	-0.33619684
138	0x3e975cef	0.2956309
139	0x3ecc2605	0.39872757
140	0x3da8f491	0.08249772
141	0xbea793dc	-0.32729995
142	0xbda10a96	-0.07863347
143	0x3e2ef556	0.17085776

conv2.bias f4 [16]
0	0x3e15c728	0.14626753
1	0xbe85c58a	-0.26127273
2	0x3e6e524b	0.2327358
3	0xbda80357	-0.08203762
4	0xbed9b9bd	-0.4252452
5	0xbf270ed4	-0.65257
6	0xbe3ea46d	-0.18617411
7	0x3ed7fb03	0.42183694
8	0x3e4e8af0	0.20170188
9	0x3f158fe0	0.5842266
10	0xbe9a5fde	-0.30151266
11	0x3c3ffd11	0.011718051
12	0xbeaca312	-0.33718163
13	0xbd5b7926	-0.053582333
14	0xbcdee10d	-0.027206922
15	0x3ef12e1b	0.47105488

bn2.weight f4 [16]
0	0x3fa0ef7b	1.2573084
1	0x3f44c7a2	0.76867115
2	0x3fa14fbe	1.260246
3	0x3fbb0576	1.4611042
4	0x3f935a66	1.1511962
5	0x3f8f08f4	1.1174607
6	0x3fa1d1f7	1.2642201
7	0x3f81f0c7	1.0151604
8	0x3f8fb488	1.1226969
9	0x3fc97c94	1.5741143
10	0x3f4f1c5d	0.80902654
11	0x3fcade9c	1.5849185
12	0x3f902ac9	1.1263057
13	0x3fc83e68	1.5644045
14	0x3f8b5c10	1.088747
15	0x3f6a2145	0.91457015

bn2.bias f4 [16]
0	0xbf034d39	-0.5128971
1	0xbedec274	-0.4350773
2	0xbed71a8c	-0.4201244
3	0xbf33c138	-0.70216703
4	0xbf64da81	-0.8939591
5	0xbf84ade6	-1.036557
6	0xbed5c0c0	-0.4174862
7	0xbedfd6fd	-0.4371871
8	0xbf1b3667	-0.60629886
9	0xbf385119	-0.71998745
10	0xbf1bcc47	-0.6085858
11	0xbf30b099	-0.69019467
12	0xbf9772b8	-1.1831884
13	0xbe8888bc	-0.2666682
14	0xbf24946d	-0.6428898
15	0xbede0e05	-0.4337007

bn2.running_mean f4 [16]
0	0x3e0cec33	0.13761978
1	0xbe83c058	-0.25732684
2	0x3e6f5b83	0.23374753
3	0xbdbb2ce5	-0.09139422
4	0xbedc9696	-0.43083638
5	0xbf262037	-0.64892906
6	0xbe458f24	-0.19292885
7	0x3ed68790	0.419003
8	0x3e4a23f1	0.19740273
9	0x3f145a3a	0.57950175
10	0xbe94f94c	-0.29096448
11	0x3c309192	0.010776894
12	0xbea5262d	-0.32255688
13	0xbdc17b1b	-0.09447309
14	0xbcfc6a70	-0.030812472
15	0x3eee0e7e	0.46495432

bn2.running_var f4 [16]
0	0x39c249e3	0.00037057613
1	0x38de517a	0.00010600961
2	0x37f89915	2.9635188e-05
3	0x396ef275	0.00022787771
4	0x3921fc96	0.00015448252
5	0x390f410b	0.00013661773
6	0x39c6d506	0.00037924218
7	0x3804daac	3.1674906e-05
8	0x3834780c	4.3027147e-05
9	0x38c2aa66	9.28238e-05
10	0x3985e491	0.00025538032
11	0x387f2b2c	6.0836945e-05
12	0x39b7a569	0.0003502772
13	0x3adc8ee5	0.0016827254
14	0x39a6af15	0.00031792434
15	0x38e2308b	0.000107855616

se.1.weight f4 [4, 16, 1, 1]
0	0xbfcf1f0a	-1.6181347
1	0x3bdee120	0.0068017393
2	0xbe949ff6	-0.2902829
3	0xbf7d03a4	-0.9883368
4	0xbd99e3e6	-0.07514171
5	0xbf458f6e	-0.7717198
6	0xbfb9108f	-1.4458178
7	0xbfb2d60b	-1.3971571
8	0xbed268c5	-0.41095558
9	0xbf8800d3	-1.0625252
10	0x3b266a67	0.002539301
11	0xbff31719	-1.8991424
12	0x3f0877aa	0.5330759
13	0xbfbaa248	-1.4580774
14	0xbf886b70	-1.0657787
15	0xbeeb4d2f	-0.45957324
16	0x3ebb1f6e	0.36547416
17	0xbeb29efd	-0.34886923
18	0x3f8045b6	1.0021274
19	0x3fba0f8c	1.4535995
20	0x3f842cd5	1.0326182
21	0xbf6df371	-0.9294959
22	0x3ed8ef18	0.42369914
23	0x3fa9f8a1	1.3279
24	0x3f2cd483	0.6751177
25	0x3ff27667	1.8942384
26	0xbf071204	-0.52761865
27	0x3da80f95	0.08206097
28	0xbf7afc7a	-0.980415
29	0x3f953d52	1.1659338
30	0x3f731958	0.94960546
31	0x3fb2f384	1.3980565
32	0xbfca75ef	-1.581724
33	0xbe24cf28	-0.16094649
34	0xbe1e8701	-0.15481187
35	0xbf85b741	-1.044655
36	0xbe8113fa	-0.25210553
37	0xbf833700	-1.025116
38	0xbfe22f74	-1.7670732
39	0xbf3b51f0	-0.731719
40	0xbda3edcc	-0.080043405
41	0xbf762edb	-0.96165246
42	0x3d8e5511	0.06949819
43	0xbfde2392	-1.7354605
44	0xbe4d67ce	-0.2005913
45	0xbfa96d3c	-1.3236461
46	0xbf6dd632	-0.9290496
47	0xbe94acc6	-0.29038066
48	0x3ee7ab0b	0.45247683
49	0x3fcedb71	1.6160718
50	0x3e4c2644	0.19936472
51	0x3f610afe	0.879074
52	0xbe4b07bd	-0.1982717
53	0x3e3269e5	0.17423208
54	0x3f85a53b	1.0441049
55	0xbf49bb1a	-0.7880112
56	0xbeda1e84	-0.42601407
57	0x3f88e608	1.06952
58	0x3fa7bd94	1.310473
59	0x3f44d834	0.768924
60	0x3f405b9e	0.75139797
61	0x3f49d941	0.7884713
62	0x3f814d5d	1.0101734
63	0x3f2d11cb	0.67605275

se.1.bias f4 [4]
0	0xbf933aa3	-1.150227
1	0x3f472905	0.77796966
2	0xbfa64eaa	-1.2992756
3	0x3f5cb6e1	0.8621655

se.3.weight f4 [16, 4, 1, 1]
0	0xbe8b4152	-0.27198273
1	0x3f4359ee	0.76309097
2	0xbec09a81	-0.37617877
3	0xbdcb1893	-0.099167965
4	0xbfb8af03	-1.4428409
5	0x3f86c549	1.0528957
6	0xbf97f411	-1.1871358
7	0x3f802f03	1.0014347
8	0xbe5a73f6	-0.21333298
9	0xbeb1622c	-0.34645212
10	0xbee64c8f	-0.44980285
11	0x3e808101	0.25098422
12	0x3d9445f2	0.072399035
13	0x3f24e752	0.64415467
14	0x3f1aa424	0.6040671
15	0x3f7a940f	0.9788217
16	0xbee7e287	-0.45290014
17	0x3e41584b	0.18881337
18	0xbe60dd08	-0.21959317
19	0x3f8c5a9a	1.0965149
20	0xbebc14fa	-0.36734754
21	0x3f709f25	0.93992835
22	0xbf0f284d	-0.5592087
23	0x3e3e28e4	0.18570286
24	0x3f13f8a2	0.5780126
25	0x3f12b60a	0.5730902
26	0x3efed78c	0.49773824
27	0xbea07074	-0.31335795
28	0xbf00af96	-0.5026792
29	0x3f66999f	0.9007816
30	0xbf4e0f05	-0.8049167
31	0x3f9cb886	1.2243812
32	0xbf34f7f4	-0.70690846
33	0xbe1d48bc	-0.15359777
34	0xbe9e9eee	-0.3098063
35	0x3f068411	0.5254527
36	0xbf1b3751	-0.6063128
37	0xbd1f426f	-0.038881715
38	0xbe892349	-0.26784733
39	0xbe99ddeb	-0.30052122
40	0xbfbefa0f	-1.4920062
41	0x3fb37865	1.4021116
42	0xbf8ffc3b	-1.124885
43	0x3fa1a359	1.2627975
44	0xbf9cb2ae	-1.2242029
45	0xbc756fd2	-0.014980273
46	0xbf927b23	-1.1443828
47	0x3db7a427	0.089668564
48	0xbf08c4d0	-0.5342531
49	0x3f8cb50a	1.0992749
50	0xbf3678c4	-0.71278024
51	0xbf1ccb33	-0.6124756
52	0x3b0711a1	0.0020609873
53	0x3eb05d12	0.34446007
54	0x3e48b15d	0.19598909
55	0x3ef54519	0.4790428
56	0x3e94c856	0.29059094
57	0x3f0ed8d9	0.55799633
58	0x3ea477b2	0.3212257
59	0x3e11ea75	0.14249595
60	0xbf60a31e	-0.877489
61	0x3fbae05f	1.4599723
62	0xbfd6c97b	-1.6780237
63	0x3f6e829c	0.93168044

se.3.bias f4 [16]
0	0x3e64c187	0.2233945
1	0x3f5c6f09	0.86106926
2	0xbe5b3285	-0.2140599
3	0xbe6c2775	-0.23061927
4	0x3f9940a7	1.1972855
5	0xbde7e17f	-0.11322307
6	0x3e46b8e7	0.19406472
7	0x3f747b7d	0.9550093
8	0xbdd41941	-0.10356379
9	0xbbc87ca9	-0.0061183763
10	0x3f9562c7	1.167077
11	0x3f33c5d4	0.70223737
12	0x3eef5440	0.46743965
13	0xbee22a73	-0.4417301
14	0xbe14da39	-0.1453637
15	0x3f82e598	1.0226316

spatial_att.0.weight f4 [16, 1, 3, 3]
0	0xbf3e739a	-0.74395144
1	0x3e9da158	0.30787158
2	0x3e4a48ad	0.19754286
3	0x3e6d3229	0.23163666
4	0xbc9e6534	-0.019335367
5	0x3ef955cd	0.48698273
6	0x3cdb8b9a	0.026799966
7	0x3e673d95	0.22582085
8	0x3f50a4e8	0.81501627
9	0x3f0e05bb	0.55477494
10	0xbe9edc2c	-0.31027353
11	0xbf39bcc0	-0.72553635
12	0x3f8983ea	1.0743382
13	0xbe9f4750	-0.31109095
14	0x3dd83cd5	0.10558478
15	0x3c9729ce	0.018452551
16	0x3de4ddb3	0.11175098
17	0x3df1d823	0.11808803
18	0xbf4dc16e	-0.80373275
19	0xbf020650	-0.5079088
20	0x3e25fb4e	0.16209146
21	0xbf2f738d	-0.6853569
22	0x3ee486e1	0.44634154
23	0x3f36db6d	0.7142857
24	0xbf12b4d9	-0.573072
25	0x3ec25a12	0.37959343
26	0x3f678bc6	0.9044765
27	0x3eeb724d	0.45985642
28	0xbe6e46b6	-0.23269162
29	0x3eaed21e	0.34144682
30	0xbe31ff3f	-0.17382525
31	0xbf38f687	-0.7225117
32	0x3e5e3f14	0.2170375
33	0x3ebe720e	0.37196392
34	0x3e4e5d0c	0.20152682
35	0x3f23c629	0.63974243
36	0xbf0effef	-0.55859274
37	0xbf8db93d	-1.1072155
38	0xbf46c162	-0.7763883
39	0xbe854554	-0.26029456
40	0xbf76060c	-0.96102977
41	0x3cae5e60	0.021285236
42	0xbedef697	-0.43547508
43	0x3e53554f	0.20638011
44	0x3eb54810	0.35406542
45	0x3f3037bd	0.6883505
46	0xbe83b32b	-0.25722632
47	0x3ea9771e	0.33098692
48	0xbf39f103	-0.7263338
49	0x3ea0e2fc	0.31423175
50	0x3efab6d1	0.48967603
51	0xbf3065f7	-0.68905586
52	0xbe58b687	-0.21163379
53	0x3f580aa9	0.84391266
54	0xbea08c5c	-0.31357086
55	0xbf00400c	-0.5009773
56	0x3ed8a7a4	0.423154
57	0xbd27f07c	-0.04100083
58	0xbe4895af	-0.1958835
59	0x3f0db2d4	0.55350995
60	0x3e72f4bb	0.2372617
61	0x3ebaf021	0.3651133
62	0x3f9efe93	1.242144
63	0x3e318376	0.17335305
64	0x3f207b2f	0.62687963
65	0xbe31c604	-0.17360693
66	0x3d42c3e7	0.04755011
67	0x3e967554	0.2938639
68	0xbf3143a8	-0.6924386
69	0x3eb3e99f	0.35139176
70	0xbebe2579	-0.37137964
71	0x3e27c5e7	0.16384088
72	0x3f3450be	0.704357
73	0xbe752796	-0.23940882
74	0xbfa4caaf	-1.2874354
75	0x3e484244	0.19556528
76	0x3eb0d355	0.34536234
77	0xbeb3f4f2	-0.35147816
78	0xbf8bfc4e	-1.0936372
79	0xbd9fd2ce	-0.0780388
80	0x3edd8e47	0.43272611
81	0xbf4fa946	-0.81117666
82	0x3e224082	0.1584492
83	0xbd3a15c0	-0.0454309
84	0xbf533b5b	-0.82512444
85	0xbf26a22f	-0.6509122
86	0x3f1668db	0.58753747
87	0x3dd52f54	0.10409418
88	0xbeebe361	-0.46071914
89	0xbf69bbf3	-0.9130241
90	0x3eb09d25	0.34494892
91	0x3ed269ef	0.41096446
92	0xbeaa4fbf	-0.33263966
93	0x3f4ceca0	0.8004856
94	0xbe827cd1	-0.25485852
95	0xbed32cea	-0.41245204
96	0x3f12429c	0.5713289
97	0xbf1294f4	-0.57258534
98	0xbf3ac2fc	-0.7295377
99	0xbe7eb16d	-0.2487237
100	0x3dbda088	0.092591345
101	0x3f3e562e	0.7435025
102	0xbe0abf80	-0.13549614
103	0xbdee560b	-0.11637505
104	0x3cc5f28f	0.024163513
105	0x3cb57794	0.022151746
106	0x3eccae98	0.39976954
107	0xbdf8a228	-0.12140304
108	0xbee21499	-0.4415634
109	0x3d8545b5	0.06507436
110	0x3c316f0d	0.010829699
111	0x3ec777fa	0.38958722
112	0x3f2948a4	0.66126466
113	0x3e2773a5	0.16352709
114	0xbebad906	-0.364937
115	0xbe53499f	-0.20633553
116	0xbf32a0e4	-0.6977675
117	0x3f388345	0.720753
118	0xbeafa87d	-0.34308234
119	0x3e43f77d	0.19137378
120	0xbec46ab5	-0.3836266
121	0xbf8b8c3f	-1.0902175
122	0xbf1ab517	-0.6043257
123	0x3e3e5e80	0.18590736
124	0xbe9e60cc	-0.30933225
125	0x3f09b57b	0.5379254
126	0x3f4675ad	0.7752331
127	0x3e5352d0	0.20637059
128	0x3ef5b5bc	0.47990215
129	0xbebd64c0	-0.3699093
130	0xbf0dfd68	-0.5546479
131	0xbea21568	-0.31656957
132	0xbe23c361	-0.159925
133	0xbf34d16b	-0.70632046
134	0xbe7329cf	-0.23746417
135	0x3facfc70	1.3514538
136	0x3f24a20d	0.6430977
137	0x3ecb01df	0.39649865
138	0xbeae6f7d	-0.34069434
139	0xbeb0615e	-0.34449285
140	0xbe938d45	-0.28818718
141	0xbf2a911c	-0.6662767
142	0xbe80a55b	-0.25126156
143	0x3e7834b8	0.2423886

spatial_att.0.bias f4 [16]
0	0xbd7f7947	-0.06237152
1	0x3e41fe1b	0.1894459
2	0x3eeda55e	0.46415228
3	0xbe1995f5	-0.1499861
4	0xbc7931ec	-0.015209656
5	0xbd20d191	-0.039262358
6	0x3eef117d	0.4669303
7	0x3d9708c2	0.07374717
8	0xbd966930	-0.07344282
9	0xbefb9902	-0.49140173
10	0xbeee399c	-0.46528327
11	0xbd1a61a6	-0.03769078
12	0x3eb432a7	0.35194895
13	0x3d10878f	0.03528553
14	0x3e02dfc5	0.12780674
15	0x3e4ba97c	0.19888872

spatial_att.1.weight f4 [1, 16, 1, 1]
0	0xbf1ce00d	-0.61279374
1	0x3f280245	0.65628463
2	0x3f1e8914	0.61927915
3	0x3f0145de	0.50497234
4	0x3f988244	1.1914754
5	0xbf882420	-1.0636024
6	0x3f1e881e	0.6192645
7	0x3eb5d85e	0.35516638
8	0xbf43d695	-0.764993
9	0xbf0eefec	-0.5583484
10	0xbf02d3f3	-0.5110466
11	0xbe464a46	-0.1936427
12	0x3f18bcf2	0.5966331
13	0x3faecb24	1.3655744
14	0xbf05345f	-0.52033037
15	0x3f291386	0.66045415

fc.0.weight f4 [128, 576]
0	0x3d5268a8	0.05136934
1	0xbc312fb7	-0.010814599
2	0xbdb7b635	-0.089703
3	0x3edf07b0	0.43560553
4	0x3ed12262	0.40846545
5	0xbe09862b	-0.13430087
6	0xbded22ea	-0.11578925
7	0x3c31807f	0.0108338585
8	0x3d2619a1	0.040551785
9	0x3e27d59f	0.16390084
10	0xbca65cc0	-0.020307899
11	0x3e20373f	0.15646075
12	0xbdc950e5	-0.098298825
13	0x3e626d2e	0.22111961
14	0x3e63f15d	0.22260042
15	0xbf25627a	-0.6460339
16	0xbef6185b	-0.48065457
17	0xbe595196	-0.21222529
18	0xbe5f9279	-0.21833219
19	0x3a3bf40d	0.000716985
20	0xbc01b803	-0.007917407
21	0xbe6b318e	-0.22968122
22	0xbe002931	-0.12515713
23	0xbefccec2	-0.49376494
24	0x3cd70348	0.026246682
25	0xbc9b50e5	-0.018959472
26	0xbe66063d	-0.22463317
27	0x3e0e9ef0	0.13927817
28	0x3e9abe5a	0.30223352
29	0x3e811d16	0.25217503
30	0x3e650955	0.22366841
31	0xbb880d86	-0.0041520027
32	0x3cf73611	0.030177148
33	0x3e551356	0.20808157
34	0x3dab6885	0.08369545
35	0x3ebd7c5e	0.37008947
36	0x3cd5a323	0.026078766
37	0xbe995c3f	-0.2995319
38	0xbe214e04	-0.15752417
39	0xbef8934a	-0.48549873
40	0xbe9648d6	-0.29352444
41	0xbe562acb	-0.20914762
42	0x3e0f8e64	0.14019161
43	0xbd9fcef9	-0.07803149
44	0xbe4a6d23	-0.19768195
45	0xbebe5e37	-0.37181255
46	0xbece48db	-0.4028996
47	0xbee157b0	-0.44012213
48	0xbd8adfe9	-0.06780989
49	0x3e1c4d5c	0.15263885
50	0x3e06a407	0.13148509
51	0xbdc304aa	-0.09522374
52	0x3de5b7c4	0.11216691
53	0xbeae5187	-0.34046575
54	0x3c086ef0	0.008327231
55	0x3cfe5ef8	0.031051144
56	0x3dafa0bf	0.08575582
57	0x3dd36131	0.10321272
58	0x3e9a6fe8	0.30163503
59	0xbe827692	-0.25481087
60	0x3c97fe7b	0.018553963
61	0xbe620a1a	-0.22074166
62	0x3d9d096f	0.07667815
63	0xbd1991f0	-0.037492692
64	0x3d56f10e	0.05247598
65	0xbe2260aa	-0.15857187
66	0xbd1b3d4f	-0.037900265
67	0xbe2903bc	-0.16505331
68	0xbd67f0b8	-0.05662605
69	0x3c8f0e7a	0.017462958
70	0xbdeab0ee	-0.11459528
71	0xbd18a5ee	-0.037267618
72	0xbe57511d	-0.21027036
73	0xbd94de6f	-0.07268988
74	0xbebac7ed	-0.36480656
75	0xbf82e312	-1.0225546
76	0xbc09979f	-0.008397966
77	0xbe0dadb0	-0.13835788
78	0xbea9815a	-0.331065
79	0xbe7c8458	-0.2465986
80	0xbe0e5821	-0.13900806
81	0x3e18d322	0.14924291
82	0xbe93fe9e	-0.28905195
83	0x3e8e3d73	0.27781257
84	0xbde62c3e	-0.11238907
85	0xbe62e16a	-0.22156301
86	0x3e35d981	0.17758752
87	0xbe12cbfe	-0.1433563
88	0x3ddd0ecd	0.10793839
89	0xbe4da8cc	-0.20083922
90	0x3e87ff41	0.2656193
91	0x3d4ac5d3	0.049505066
92	0x3dc0d6f8	0.09416002
93	0x3dec8bbd	0.115500905
94	0x3d9f1ae1	0.077687986
95	0xbed1799c	-0.40913093
96	0xbcb13b51	-0.02163473
97	0x3e2078da	0.15671101
98	0xbc4b761e	-0.012418298
99	0x3d2ba574	0.041905835
100	0xbed0943d	-0.40738097
101	0xbf3d8c83	-0.7404253
102	0xbdb6d4bf	-0.08927297
103	0xbe26f3f1	-0.16303994
104	0xbc11fcd2	-0.008910375
105	0xbdd22cc4	-0.102624446
106	0xbdefe9bd	-0.11714504
107	0xbe64cdbb	-0.22344105
108	0xbc9e60d7	-0.019333286
109	0x3d87dcd0	0.066339135
110	0x3e24225e	0.16028735
111	0x3db9d597	0.09073942
112	0xbc84f4a8	-0.016229942
113	0xbe3ef96a	-0.18649831
114	0xbcb9383a	-0.022609819
115	0x3e38a238	0.18030632
116	0x3d275fb2	0.040862747
117	0x3edc3d6c	0.4301561
118	0xbd51c42e	-0.051212482
119	0xbe6a3fcd	-0.228759
120	0x3d9fb0d0	0.07797396
121	0x3de2a98b	0.11067494
122	0x3ede2c19	0.4339302
123	0xbd1455f4	-0.036214784
124	0x3e9bd864	0.3043853
125	0x3ea63f1a	0.32470018
126	0x3e25f434	0.16206437
127	0x3e9b8590	0.30375338
128	0xbd165b7e	-0.036708347
129	0xbe33eadb	-0.17570059
130	0xbebf4ece	-0.3736481
131	0x3e1b1564	0.15144879
132	0xbe879a37	-0.26484844
133	0xbea5c0b2	-0.32373577
134	0xbeed40ee	-0.463386
135	0xbd0f6b50	-0.03501445
136	0x3d9d75e1	0.07688499
137	0xbd6b4782	-0.057441242
138	0x39f586a6	0.00046830362
139	0xbdb40dbd	-0.08791683
140	0xbe95a3ae	-0.2922644
141	0x3e2a46f8	0.16628635
142	0xbd0f2145	-0.034943838
143	0x3d543fc0	0.05181861
144	0x3e327bbc	0.17430013
145	0x3ba104cd	0.0049139024
146	0x3e07d4c1	0.13264753
147	0x3c3ba6f4	0.011453379
148	0x3eb265dc	0.34843338
149	0xbec13cb4	-0.37741625
150	0xbe16bbdb	-0.14720099
151	0xbe811865	-0.25213924
152	0x3eac9cb4	0.33713305
153	0xbdf3fc69	-0.11913378
154	0x3e4d5d89	0.20055212
155	0xbd3b2ee3	-0.04569901
156	0xbd97138e	-0.07376777
157	0xbe7f9a2b	-0.24961154
158	0x3ea829c6	0.3284437
159	0x3cd06e7a	0.025443304
160	0xbc4403e7	-0.011963821
161	0x3e8e113f	0.27747533
162	0xbc18b7f3	-0.009321201
163	0xbca0a812	-0.019611392
164	0x3e7f8bb9	0.24955644
165	0x3e810d96	0.25205678
166	0xbbec57b5	-0.007212604
167	0x3e285409	0.16438307
168	0xbe243b08	-0.16038144
169	0x3dcbc08f	0.09948837
170	0x3c2ce05f	0.010551541
171	0x3eb82976	0.35969132
172	0xbe902ed4	-0.28160727
173	0xbd41871b	-0.047247987
174	0xbe768909	-0.24075712
175	0x3e62051a	0.22072259
176	0x3d7cfadf	0.061762687
177	0xbddd829d	-0.10815928
178	0xbe2402cb	-0.1601669
179	0x3d84ef34	0.06490937
180	0x3c32efcb	0.010921429
181	0xbd91cc27	-0.07119017
182	0x3d5f7fdf	0.054565307
183	0xbe5e6238	-0.21717155
184	0x3cae357d	0.02126574
185	0xbdfc3698	-0.123151004
186	0xbae2fa89	-0.0017317097
187	0xbc371afb	-0.011175866
188	0x3cf6d35c	0.03013008
189	0x3d90ec25	0.07076291
190	0x3d6ff9a0	0.05858767
191	0x3e0ff58b	0.14058511
192	0xbeaf9395	-0.34292284
193	0xbe42a2f9	-0.19007482
194	0x3da1e523	0.079050325
195	0xbe249528	-0.16072524
196	0xbc137af3	-0.009001481
197	0x3e347353	0.17622118
198	0xbec62781	-0.38702014
199	0xbc03678a	-0.008020291
200	0xbdb32f7a	-0.0874929
201	0xbcdfb42b	-0.02730759
202	0x3e1a70ae	0.15082046
203	0x3e5283a0	0.20558023
204	0xbea3094b	-0.31843027
205	0xbe10c77a	-0.14138594
206	0x3e306d99	0.17229308
207	0x3e8e6d22	0.27817637
208	0x3d2d6a1e	0.04233753
209	0x3dd67e80	0.10473347
210	0xbe89cea7	-0.26915476
211	0x3c3d4898	0.011552952
212	0x3c3e7c64	0.011626337
213	0x3e2143c2	0.15748504
214	0x3e59bcca	0.21263424
215	0x3e5194b7	0.20466886
216	0xbd9a0692	-0.075207844
217	0x3d9b4f7f	0.07583522
218	0x3d93c943	0.07216122
219	0x3da1ff27	0.079099946
220	0xbcb476f0	-0.02202937
221	0x3ca6f909	0.020382421
222	0x3edce79b	0.4314545
223	0x3db577c1	0.08860732
224	0x3df6d7dc	0.12052891
225	0xbd950f26	-0.0727828
226	0xbe869f48	-0.26293397
227	0xbcaeec3c	-0.02135288
228	0x3e399e7a	0.1812686
229	0x3e95699a	0.2918213
230	0x3c656a6a	0.014002422
231	0xbe31ac8a	-0.17350975
232	0xbdfbab83	-0.12288573
233	0x3d7347d9	0.05939469
234	0xbd9df7f5	-0.0771331
235	0xbdfc1ec0	-0.123105526
236	0xbeaeac30	-0.34115744
237	0xbe7d75cb	-0.24751966
238	0x3e8907ff	0.26763913
239	0x3e205ffb	0.15661614
240	0xbde653a1	-0.1124642
241	0xbd1e73d7	-0.038684692
242	0xbe24e232	-0.16101912
243	0x3e20e7d2	0.15713432
244	0x3eae22d9	0.34010962
245	0x391c30a0	0.00014895434
246	0xbdf2bf2a	-0.11852868
247	0x3cd7f565	0.02636213
248	0x3ed5bf5c	0.41747558
249	0xbe0035d9	-0.12520541
250	0xbcf970d7	-0.030449314
251	0x3b0bda0b	0.002133968
252	0xbe218bfc	-0.15776056
253	0xbcad3cfa	-0.02114724
254	0x3dbdcf9a	0.092681125
255	0xbdd43c99	-0.103631206

fc.0.bias f4 [128]
0	0x3c3e3e88	0.011611588
1	0x3db851d7	0.08999985
2	0x3cfe49a8	0.031040981
3	0xbcde5409	-0.02713968
4	0x3e1eef8a	0.15521064
5	0xbbd6b5b3	-0.006552422
6	0x3c760321	0.015015394
7	0x3cc69b3f	0.024243949
8	0x3d909492	0.070595875
9	0x3c8d1cb3	0.017225599
10	0xbcc56bd6	-0.024099272
11	0xbbae20ab	-0.005313953
12	0xbb4d657e	-0.0031341012
13	0xbb86683f	-0.0041017826
14	0xbe0bf5c9	-0.13667978
15	0x3d057f2a	0.032591976
16	0xbd5df233	-0.054186057
17	0xbce50bf3	-0.0279598
18	0xbc1ecaf2	-0.009691941
19	0xbcf15386	-0.029458772
20	0xbd5c56fa	-0.053793885
21	0xbd4244b7	-0.047428813
22	0x3c15b790	0.009138003
23	0xbdc95427	-0.09830504
24	0x3b787ab1	0.0037914927
25	0x3e16de37	0.14733206
26	0xbd802954	-0.06257883
27	0xbcc08422	-0.023500506
28	0x3cb5ff66	0.02221651
29	0x3cdd658e	0.027025964
30	0xbd97b84d	-0.074081995
31	0xbd2170b8	-0.039414138
32	0x3ba57ce2	0.0050502876
33	0xbe08fa9b	-0.13376848
34	0x3cf9ba4c	0.030484341
35	0x3d7b1dfc	0.061307892
36	0xbc31e1f1	-0.010857091
37	0xbd1e3dfa	-0.038633324
38	0xbd4f59d2	-0.05062277
39	0xbdc3f914	-0.09568992
40	0xbd4d7b83	-0.050166618
41	0x3dd88dd5	0.10573927
42	0xbdcd5878	-0.1002664
43	0xbdff7d0e	-0.12475024
44	0x3c817dba	0.015807021
45	0x3defe19d	0.11712954
46	0xbe029143	-0.12750725
47	0xbc929830	-0.017894834
48	0x3c19bdbe	0.009383617
49	0xbdd7c502	-0.10535623
50	0x3caa8720	0.020816386
51	0x3cb85834	0.022502996
52	0xbd4b7ec8	-0.049681455
53	0xbd9afd96	-0.07567899
54	0xbd6a95ad	-0.05727165
55	0xbd2e8a72	-0.0426125
56	0x3d77eca7	0.060528424
57	0xbdac50f7	-0.0841388
58	0xbc0d06ae	-0.00860755
59	0x3cd2af8f	0.025718478
60	0xbda5b181	-0.08090497
61	0x3d62eb9d	0.05540048
62	0xbd8248dd	-0.06361554
63	0x3cd2711d	0.025688702
64	0xbcec7f2c	-0.028869234
65	0xbc9ddab3	-0.019269323
66	0xbddad069	-0.10684282
67	0x3d7457d1	0.05965406
68	0xbdb5912f	-0.08865582
69	0xbd464768	-0.048407942
70	0x3de5c5be	0.11219357
71	0x3d62565d	0.055258144
72	0x3cde2753	0.02711836
73	0x3dba81a8	0.09106761
74	0xbcca7dd4	-0.024718203
75	0xbcce8e94	-0.02521447
76	0xbdf08407	-0.11743932
77	0xb8c821b2	-9.5430194e-05
78	0xbd8dcde9	-0.0692404
79	0xbdadc5e8	-0.08485013
80	0x3d587ffd	0.052856434
81	0x3cce5378	0.025186285
82	0xbdc2f00c	-0.095184416
83	0xbe035fc5	-0.12829502
84	0xbe1e1f2e	-0.15441582
85	0xbd91c144	-0.071169406
86	0xbe04075b	-0.12893431
87	0xbcdbff34	-0.026855089
88	0x3d6f0ed9	0.05836377
89	0xbd282e66	-0.041059874
90	0x3b6a24eb	0.0035727571
91	0x3d611f57	0.05496153
92	0xbcd6a25d	-0.026200468
93	0x3d8ecc8a	0.069726065
94	0xbdcfb1e9	-0.101413555
95	0x3c76530d	0.015034449
96	0xbd93e2c3	-0.07220986
97	0xbcb4dce1	-0.02207798
98	0x3a61dfd3	0.0008616421
99	0x3c9af268	0.018914416
100	0x3cfa4706	0.030551445
101	0xbd21f7e1	-0.039543036
102	0xbd53144f	-0.05153304
103	0xbdea8107	-0.11450391
104	0x3c6eb08c	0.014568459
105	0x3cec2b09	0.028829115
106	0xbd446a94	-0.047953203
107	0x3dc0ab6e	0.094076976
108	0xbcce388a	-0.025173444
109	0xbb8d155f	-0.004305526
110	0xbdf06402	-0.11737825
111	0xbdf17f72	-0.117918864
112	0xbd94e013	-0.07269301
113	0x3d926d55	0.0714976
114	0xbc92246d	-0.017839635
115	0xbd409285	-0.047014732
116	0xbd7aaf2d	-0.061202217
117	0x3d1f592d	0.038903404
118	0xbd86f4af	-0.065896384
119	0x3d3269ea	0.04355804
120	0xbda2670b	-0.0792981
121	0xbcea6e0e	-0.028616931
122	0xbb9f0654	-0.0048530493
123	0x3d6ae867	0.057350542
124	0xbd9d3357	-0.07675808
125	0xbded9232	-0.1160015
126	0xbd3c7bd4	-0.04601653
127	0xbd80a254	-0.06280962

fc.3.weight f4 [27, 128]
0	0xbf30ba90	-0.6903467
1	0xbf4de723	-0.8043081
2	0xbf292694	-0.6607449
3	0xbf34691d	-0.7047289
4	0xbf1682e6	-0.58793485
5	0xbe8b6b62	-0.27230364
6	0xbec8d09d	-0.3922166
7	0xbf09a15d	-0.53761846
8	0xbed75e8b	-0.42064318
9	0xbefbc36b	-0.4917253
10	0xbe84c451	-0.25931028
11	0xbf419343	-0.7561533
12	0xbf071adf	-0.5277538
13	0xbed51ef0	-0.41625166
14	0xbea98416	-0.33108586
15	0xbecdae05	-0.4017183
16	0xbe4d2ef7	-0.20037447
17	0xbf1a0e0c	-0.60177684
18	0xbec7e2b6	-0.39040154
19	0xbf352d94	-0.7077267
20	0x3d39be43	0.045347463
21	0xbe50c2f3	-0.20386867
22	0xbf32a736	-0.69786394
23	0xbef73fb8	-0.482908
24	0xbf08471b	-0.532335
25	0xbeca3e07	-0.39500448
26	0xbf1b4ba3	-0.6066229
27	0xbecc8d77	-0.3995168
28	0xbdea3526	-0.114359185
29	0xbe8a985a	-0.2706936
30	0xbec4de7f	-0.38451
31	0xbea38c59	-0.31943014
32	0xbee989af	-0.45612857
33	0xbe555530	-0.20833278
34	0xbe820b1c	-0.253991
35	0xbebd9a8e	-0.37031978
36	0xbf0c1ce0	-0.5473156
37	0xbf000159	-0.50002056
38	0xbf0f7151	-0.5603228
39	0xbd7c2826	-0.061561726
40	0xbee3c01e	-0.4448251
41	0xbebc5785	-0.36785522
42	0xbf14b92d	-0.58095056
43	0xbe4fb3b0	-0.20283389
44	0xbefd9ba1	-0.49532798
45	0xbeae5d52	-0.34055573
46	0xbe9860d1	-0.29761365
47	0xbf41441e	-0.75494564
48	0xbf09e61c	-0.53866744
49	0xbe18b219	-0.14911689
50	0xbece3550	-0.4027505
51	0xbf1c93bf	-0.6116294
52	0xbe8a4410	-0.27005053
53	0xbddf540c	-0.109047025
54	0xbed4df4e	-0.41576618
55	0xbecc5ef5	-0.39916196
56	0xbe98146a	-0.29703075
57	0xbf3116f0	-0.69175625
58	0xbee3424b	-0.44386515
59	0xbf09868a	-0.53720915
60	0xbe314a04	-0.17313391
61	0xbf4e1875	-0.8050607
62	0xbed648ab	-0.41852316
63	0xbe9846d1	-0.2974153
64	0xbf392d5a	-0.72334826
65	0xbec961bd	-0.3933238
66	0xbf1b6f85	-0.6071704
67	0xbf1ab35e	-0.6042994
68	0xbdfd6711	-0.12373174
69	0xbed9fcfd	-0.42575827
70	0xbf1dc687	-0.61631054
71	0xbf193138	-0.59840727
72	0xbe9abf73	-0.3022419
73	0xbedf8b6b	-0.43661055
74	0xbf2043bf	-0.6260337
75	0xbf37e677	-0.71836036
76	0xbe8c0456	-0.27347058
77	0xbf38d357	-0.7219748
78	0xbed52d74	-0.4163624
79	0xbf0d8dab	-0.55294293
80	0xbea8841c	-0.3291329
81	0xbf15d0db	-0.58521813
82	0xbede2978	-0.43391013
83	0xbeb9a2d8	-0.36257052
84	0xbeb9016c	-0.36133897
85	0xbf115d8a	-0.56783354
86	0xbe328db4	-0.17436868
87	0xbd07ddc7	-0.033170488
88	0xbedd6eee	-0.43248695
89	0x3d9fd713	0.07804694
90	0xbe98ca1a	-0.2984169
91	0xbf177b93	-0.59172934
92	0xbece2374	-0.40261424
93	0xbf05c7bf	-0.52257913
94	0xbdfb5131	-0.122713454
95	0xbeb69c25	-0.35666004
96	0xbef312a1	-0.4747515
97	0xbea35a05	-0.31904617
98	0xbede8b11	-0.43465474
99	0xbe9c7510	-0.30558062
100	0xbedb4c52	-0.42831665
101	0xbe88a3a6	-0.26687354
102	0xbf3ac085	-0.7295001
103	0xbed7024f	-0.4199395
104	0xbe7dc999	-0.24783935
105	0xbeaaf8dd	-0.33392993
106	0xbe856f1f	-0.2606134
107	0xbf017e70	-0.50583553
108	0xbeb43dd2	-0.35203415
109	0xbf2e5cd0	-0.6811037
110	0xbecaae27	-0.39585993
111	0x3cfd40d8	0.030914709
112	0xbe243987	-0.1603757
113	0xbeb579db	-0.3544453
114	0xbf1c2cf8	-0.61006117
115	0xbec58b43	-0.3858281
116	0xbede0344	-0.43361866
117	0xbef89c8f	-0.48556945
118	0xbf4437a8	-0.76647425
119	0xbe54ad5d	-0.20769258
120	0xbf0ef8c3	-0.5584833
121	0xbede6f80	-0.43444443
122	0xbee238ea	-0.44184047
123	0xbede1052	-0.43371826
124	0xbeab6d46	-0.33481807
125	0xbf0f44a4	-0.5596411
126	0xbea88933	-0.32917175
127	0xbe9a25ee	-0.30107063
128	0xbf54a07d	-0.83057386
129	0xbea052b7	-0.31313106
130	0x3cca5434	0.024698354
131	0xbd0aa4ae	-0.033848457
132	0x3dec9626	0.11552076
133	0xbf6f68bb	-0.9351918
134	0xbe4fe837	-0.20303427
135	0xbe59be44	-0.21263987
136	0xbf7fa8e3	-0.99867076
137	0x3dfe1cb3	0.12407818
138	0x3e6230e7	0.22088967
139	0xbef94915	-0.4868857
140	0x3e8aee96	0.27135152
141	0x3d2513f5	0.040302236
142	0xbc6f588f	-0.014608516
143	0x3e2d17f7	0.16903673
144	0xbec7442b	-0.38919196
145	0x3d6a0425	0.05713286
146	0x3d821396	0.06351392
147	0x3e078a0c	0.13236254
148	0x3e3e750f	0.18599342
149	0x3e2a88c7	0.16653739
150	0xbf048a10	-0.51773167
151	0x3e2e2cbd	0.17009254
152	0x3d11ccd9	0.03559575
153	0xbeece22e	-0.4626631
154	0xbea2f1a6	-0.31824988
155	0x3e39a638	0.18129814
156	0xbc3d82ae	-0.011566801
157	0x3dd20cfa	0.10256381
158	0xbd277cb5	-0.040890414
159	0x3e5ea39c	0.217421
160	0xbeb38507	-0.3506243
161	0xbe4375a2	-0.19087842
162	0xbe8b7faa	-0.27245837
163	0x3d84ee02	0.06490709
164	0x3d84ebb8	0.06490272
165	0x3e15bc72	0.14622667
166	0xbad40220	-0.001617495
167	0xbd99fdf8	-0.07519144
168	0x3e3ec22a	0.18628755
169	0xbf8a070c	-1.07834
170	0xbea8b676	-0.32951707
171	0x3ba257ce	0.004954315
172	0xbeb721ff	-0.35768124
173	0xbeb6b9d8	-0.35688663
174	0x3e69ca4e	0.2283108
175	0x3e65ab71	0.22428681
176	0x3df646d8	0.12025231
177	0xbf102a2c	-0.5631435
178	0xbee1544e	-0.44009632
179	0xbf34542d	-0.7044094
180	0xbf4756dd	-0.7786692
181	0xbece4368	-0.40285802
182	0x3dcec8a2	0.100968614
183	0x3e5578c4	0.2084685
184	0xbf36fb10	-0.7147684
185	0x3e128a6d	0.14310618
186	0x3e3d796f	0.18503354
187	0x3c0f4085	0.00874341
188	0x3e761234	0.24030381
189	0x3e77794f	0.2416737
190	0x3e84f316	0.2596671
191	0x3dc09093	0.09402575
192	0x3e05f36e	0.13081142
193	0xbdcd6f32	-0.100309744
194	0xbeb96eff	-0.36217496
195	0xbde61bcf	-0.11235773
196	0xbe80dfd1	-0.25170758
197	0xbf5c1436	-0.8596834
198	0x3d66839f	0.056277867
199	0x3ab404e9	0.0013734373
200	0xbe82e7a7	-0.25567362
201	0x3d91d7c6	0.07121234
202	0x3e0162d4	0.12635356
203	0x3e139a53	0.14414339
204	0x3e760de7	0.24028741
205	0x3dcf2f0d	0.10116396
206	0xbebb4057	-0.36572525
207	0x3ed77af5	0.42085996
208	0x3d54451c	0.05182372
209	0xbed8916d	-0.4229845
210	0xbe35a664	-0.17739254
211	0x3e141386	0.14460573
212	0xbdc65a52	-0.09685196
213	0xbf55f682	-0.83579266
214	0x3c81c865	0.015842626
215	0xbe81392e	-0.25238937
216	0x3e0911f4	0.13385755
217	0x3e5a8a50	0.21341825
218	0x3d57a534	0.052647784
219	0x3e747c0f	0.2387545
220	0x3d89715a	0.06711073
221	0xbf54e9ca	-0.83169234
222	0xbf52a6e1	-0.82285887
223	0xbe806ef1	-0.25084642
224	0x3e02c732	0.127713
225	0xbf176e17	-0.5915236
226	0xbd97aa98	-0.07405585
227	0xbf2259e0	-0.6341839
228	0x3db16102	0.08661081
229	0x3e92ef57	0.28698227
230	0x3cb5a289	0.02217223
231	0x3d825cfb	0.06365391
232	0x3e25bdef	0.16185735
233	0xbf64411d	-0.89161855
234	0x3ca9fea7	0.02075131
235	0x3e264e69	0.16240849
236	0x3d92cea1	0.071683176
237	0x3ec7d09e	0.3902635
238	0xbe9ec4d5	-0.31009546
239	0x3e26a875	0.16275199
240	0xbe99f97a	-0.30073148
241	0x3e3e41be	0.18579766
242	0x3e2b4850	0.16726804
243	0xbefea789	-0.49737194
244	0x3e03c35d	0.12867494
245	0xbeebf252	-0.46083313
246	0xbccef797	-0.025264544
247	0xbd6490b6	-0.05580207
248	0xbf1be5cf	-0.60897535
249	0x3df38f95	0.118926205
250	0x3d867e24	0.06567028
251	0xbeece617	-0.46269295
252	0xbe071949	-0.1319324
253	0x3e7f277c	0.24917406
254	0xbf1e4cec	-0.61836123
255	0x3d581f85	0.052764434

fc.3.bias f4 [27]
0	0xbf50929a	-0.81473696
1	0x3e9d3262	0.30702502
2	0x3e8f1fce	0.27953953
3	0xbbc79592	-0.006090828
4	0xbdae506d	-0.08511434
5	0xbe38410e	-0.17993566
6	0x3ce22081	0.02760339
7	0x3d90f73b	0.070784055
8	0x3e9e0245	0.30861107
9	0x3d683391	0.056689803
10	0x3c16bc54	0.009200174
11	0x3d09d965	0.03365459
12	0xbd5f1b08	-0.05446914
13	0xbe987849	-0.2977927
14	0x3b51b882	0.0032000844
15	0xbcf375f0	-0.029719323
16	0xbe319c78	-0.17344844
17	0xbd82e9e3	-0.063922666
18	0xbf1510d1	-0.58228785
19	0xbef6d60f	-0.4821019
20	0xbd76204c	-0.060089394
21	0x3dcb06e3	0.09913423
22	0xbe3dd5e1	-0.1853862
23	0xbe34fe97	-0.17675243
24	0x3e421354	0.18952686
25	0x3e138738	0.1440705
26	0x3d166eaa	0.03672663

exp_avg f4 [16, 1, 3, 3]
0	0x3c043c69	0.0080710435
1	0x3c5bfed0	0.013427451
2	0x3c8e2c2f	0.017355053
3	0x3b633571	0.0034669305
4	0x3c086a5a	0.008326137
5	0x3c3c418d	0.011490238
6	0xbb1ce577	-0.0023940483
7	0xb7ecf354	-2.82467e-05
8	0x3c1f12a9	0.009709039
9	0x3caf8026	0.02142341
10	0x3ca56a00	0.020192146
11	0x3c267ad9	0.010161125
12	0x3c165aad	0.009176892
13	0x3bb9be8b	0.0056684664
14	0xbad71214	-0.0016408586
15	0x3b0bb272	0.0021316078
16	0xbbfdbd37	-0.0077435034
17	0xbc8d1f14	-0.017226733
18	0x3d994c7e	0.07485293
19	0x3d07cb54	0.033152893
20	0xbbbb1647	-0.005709443
21	0x3d758d14	0.059948996
22	0x3c8f3a77	0.017483933
23	0xbc4c96b0	-0.012487099
24	0x3d29f2b0	0.04149121
25	0xbb7469c3	-0.0037294484
26	0xbc971d5f	-0.018446622
27	0x3a9ad05a	0.0011811361
28	0xb996053a	-0.00028614124
29	0x3b94096a	0.004517724
30	0xbb29861a	-0.0025867284
31	0xbb3b493c	-0.0028577587
32	0x3bb56f97	0.005536984
33	0xbb9626ca	-0.0045822607
34	0xb7c453ad	-2.3403985e-05
35	0x3c28cb0a	0.010302315
36	0xbce2e6ff	-0.027698038
37	0xbcf0d3b7	-0.029397829
38	0xbc827446	-0.015924584
39	0xbd0d42c6	-0.03448751
40	0xbce84f67	-0.028358174
41	0xbbbcc7e6	-0.0057611344
42	0xbc3c1da0	-0.0114816725
43	0xbb827a3d	-0.003981857
44	0x3bc1b77a	0.0059117647
45	0xbca34af9	-0.01993321
46	0xbb930f53	-0.004487911
47	0x3c899344	0.016793855
48	0xbc757cd0	-0.014983371
49	0x3a4e2244	0.00078633823
50	0x3ca424f5	0.020037154
51	0xbc429259	-0.011875712
52	0x3b45a6d5	0.0030159254
53	0x3ce3bd54	0.02780024
54	0xbc9557aa	-0.018230278
55	0xbc79b3c1	-0.015240611
56	0xbc3881ab	-0.011261384
57	0xbcf212da	-0.029550005
58	0xbcb8be7a	-0.022551764
59	0xbc88c8c0	-0.016697288
60	0xbce45dc9	-0.027876751
61	0xbccc0c72	-0.024908278
62	0xbcaf8ac8	-0.02142848
63	0x3d49e81b	0.04929362
64	0x3cc47715	0.023982564
65	0x3cb77fe4	0.02239985
66	0x3c5af9aa	0.013365189
67	0x3c0a509c	0.00844207
68	0xbbc90f75	-0.006135876
69	0xbb55178f	-0.0032515263
70	0xbce1e7d3	-0.027576363
71	0xbd3e6800	-0.0464859
72	0x3b9fad42	0.004872949
73	0x3b6c11e6	0.003602141
74	0xbc04a5c1	-0.008096159
75	0x3bad7e17	0.005294572
76	0xbb13ef9a	-0.0022573234
77	0xbbf08a22	-0.0073406855
78	0x3caafdcf	0.020872978
79	0x3bc0beb0	0.0058821067
80	0x3b6feb97	0.0036608928
81	0x3ca7131a	0.02039485
82	0x3c2bc392	0.010483639
83	0xbc5e0bbd	-0.013552603
84	0x3c930056	0.017944496
85	0x3b837ccb	0.004012679
86	0xbc7f9407	-0.015599257
87	0x3c856a05	0.016285906
88	0x3ac6a706	0.0015155978
89	0xbc91bc44	-0.017789967
90	0x3b93f801	0.0045156484
91	0x3c1890b3	0.009311843
92	0x3bedeb48	0.0072607137
93	0x3b279f1e	0.002557702
94	0x3bd8c5ed	0.0066153915
95	0x3b11f850	0.002227325
96	0x3ba0380b	0.0048894933
97	0x3bc318a7	0.0059538665
98	0xbb37d02e	-0.0028047669
99	0x3dc07e7b	0.09399124
100	0x3d5781f0	0.052614152
101	0x3c4253c8	0.011860795
102	0x3d9eba7f	0.07750415
103	0x3d15d2b6	0.036577903
104	0xbbe72eaa	-0.0070551233
105	0x3c82e1a4	0.015976734
106	0xba44363e	-0.00074848894
107	0xbc997763	-0.018733686
108	0x3a0f5c13	0.0005468737
109	0xba787bd7	-0.0009478903
110	0x3ab3c713	0.0013715945
111	0x3b191358	0.0023357477
112	0xb8bcc215	-9.000689e-05
113	0xbb70b167	-0.0036726834
114	0xbb27d3ad	-0.0025608346
115	0xbbf0fb63	-0.0073541864
116	0xbc54ecf4	-0.012995947
117	0xbbf7015c	-0.007538004
118	0xbae64d6c	-0.0017570681
119	0x3b4f5f2a	0.0031642416
120	0xbb7762e6	-0.0037748157
121	0x3a062be9	0.00051182375
122	0x3adeabff	0.0016988515
123	0x395120b9	0.00019943983
124	0x3b4e5a35	0.0031486873
125	0x3b3fea1d	0.002928383
126	0x3c38ac75	0.011271586
127	0x3c1d798b	0.009611498
128	0x3bc9271e	0.0061386963
129	0x3bdbf258	0.0067122392
130	0x3c3b7f08	0.011443861
131	0x3c246867	0.010034657
132	0x3c090113	0.0083620725
133	0x3bfb228d	0.007664031
134	0x3c06597e	0.008200048
135	0x3ca6b00b	0.020347616
136	0x3b224f79	0.0024766608
137	0xbc98a173	-0.018631672
138	0x3c83e07a	0.01609825
139	0xbbef6ff8	-0.007307049
140	0xbcf9116d	-0.030403817
141	0x3c1743d4	0.00923248
142	0xbc306eed	-0.010768634
143	0xbcce8599	-0.025210189

exp_avg_sq f4 [16, 1, 3, 3]
0	0x3b4b06ff	0.0030979512
1	0x3bd6426c	0.00653868
2	0x3bd1050c	0.0063787755
3	0x3b649716	0.0034880093
4	0x3be8b460	0.0071015805
5	0x3bca9343	0.0061821057
6	0x3ba325e8	0.004978884
7	0x3bf00dab	0.007325848
8	0x3bc045fb	0.0058677173
9	0x3c0217d0	0.007940248
10	0x3bd2f1a9	0.0064374995
11	0x3b835a3a	0.0040085586
12	0x3bce3e81	0.006294072
13	0x3baf2196	0.00534458
14	0x3b4bb6f5	0.0031084393
15	0x3ba2f582	0.0049731145
16	0x3ba0b30a	0.0049041556
17	0x3b9bded2	0.004756787
18	0x3d138592	0.036016054
19	0x3d0f59f8	0.03499791
20	0x3ce7b6f1	0.028285475
21	0x3d2075ff	0.03917503
22	0x3d00b134	0.031418994
23	0x3cb16cee	0.021658387
24	0x3d0007bc	0.031257376
25	0x3d030621	0.031988267
26	0x3cf13246	0.029442918
27	0x3b5ca358	0.0033666696
28	0x3bbd929d	0.0057853
29	0x3c0e6ab2	0.00869243
30	0x3b5d19fe	0.0033737416
31	0x3b399b7e	0.002832144
32	0x3ba6888f	0.005082197
33	0x3bc3b5bc	0.005972592
34	0x3b2c5d3f	0.0026300696
35	0x3b47e34e	0.0030500474
36	0x3c595753	0.013265449
37	0x3c469ee0	0.01212284
38	0x3bf192c8	0.007372234
39	0x3c394c80	0.011309743
40	0x3c0fbb83	0.008772734
41	0x3bbe9692	0.005816289
42	0x3ba928d7	0.005162339
43	0x3ba68683	0.005081953
44	0x3c0848e8	0.008318163
45	0x3bb98ffc	0.005662916
46	0x3bf7ec4a	0.0075660096
47	0x3c140654	0.009034712
48	0x3bbd9309	0.00578535
49	0x3bb3ebf5	0.0054907748
50	0x3c09e886	0.008417254
51	0x3baa6c8f	0.0052009295
52	0x3b9ec412	0.0048451507
53	0x3c061769	0.008184292
54	0x3b905464	0.0044045914
55	0x3b90b341	0.0044159
56	0x3b10df8d	0.0022105903
57	0x3b83e608	0.0040252246
58	0x3b74063f	0.0037235168
59	0x3aea23b9	0.0017863429
60	0x3b983f5b	0.0046462244
61	0x3b8bfaa0	0.00427182
62	0x3b233acd	0.0024906874
63	0x3d476a87	0.048685577
64	0x3d5f9497	0.054585066
65	0x3d668fdd	0.056289542
66	0x3d3afcd4	0.045651272
67	0x3d7fb4dc	0.06242834
68	0x3d4e1972	0.050317235
69	0x3d3fd7d7	0.0468367
70	0x3d790c64	0.060802832
71	0x3d359b2e	0.044337444
72	0x3c90d4b6	0.017679553
73	0x3cadf41d	0.021234566
74	0x3c9d865e	0.01922911
75	0x3ca85b1e	0.02055126
76	0x3c98148e	0.018564489
77	0x3c49f006	0.012325292
78	0x3c8dd55c	0.017313652
79	0x3c104b92	0.00880708
80	0x3be7b36b	0.007070949
81	0x3ca4e18a	0.020127077
82	0x3cabdfbc	0.020980708
83	0x3c91cb38	0.017797098
84	0x3c67b4ff	0.014142274
85	0x3c91f48b	0.017816802
86	0x3ca00e3f	0.019538043
87	0x3bd53501	0.0065065627
88	0x3c310ef3	0.010806787
89	0x3c728eab	0.0148045225
90	0x3b0da068	0.0021610502
91	0x3b113281	0.0022155347
92	0x3b1bea8a	0.002379092
93	0x3aab3230	0.0013061222
94	0x3ab5253f	0.0013820304
95	0x3b354b45	0.0027663272
96	0x3ad08107	0.0015907594
97	0x3aa4a42b	0.0012561133
98	0x3b3856e8	0.0028127972
99	0x3d14d4be	0.0363357
100	0x3ccbc0e8	0.024872258
101	0x3cd7a548	0.02632393
102	0x3d114184	0.03546287
103	0x3c941fb2	0.01808152
104	0x3ca33596	0.019923013
105	0x3cc05951	0.02348009
106	0x3c7aa68a	0.015298495
107	0x3c9388eb	0.018009624
108	0x3af0ece8	0.001838115
109	0x3a971111	0.0011525472
110	0x3aa96092	0.0012922457
111	0x3b0f548e	0.0021870467
112	0x3a2a58d5	0.00064982224
113	0x3984f3bb	0.00025358595
114	0x3b234814	0.0024914788
115	0x3aa1bda7	0.0012339846
116	0x3a8c5465	0.0010706304
117	0x3a3b12a7	0.00071362633
118	0x38a3a74f	7.803609e-05
119	0x3951e782	0.00020018037
120	0x3a19d8f7	0.0005868817
121	0x388b4014	6.639972e-05
122	0x391eec34	0.00015156047
123	0x3a28f938	0.0006445828
124	0x3999c619	0.00029330028
125	0x39a44f69	0.00031339683
126	0x3b42309b	0.0029631022
127	0x3b35a0cb	0.0027714248
128	0x3b395402	0.0028278832
129	0x3b80bdd6	0.00392888
130	0x3b6752be	0.003529712
131	0x3b671993	0.0035263046
132	0x3b554b87	0.0032546239
133	0x3b104258	0.00220122
134	0x3b0fefea	0.0021963068
135	0x3c70d119	0.01469829
136	0x3c394e8d	0.011310232
137	0x3bee1b7a	0.007266459
138	0x3c6079eb	0.0137009425
139	0x3c5bc242	0.013413014
140	0x3c1eb9cc	0.009687852
141	0x3c20a05e	0.0098038595
142	0x3c266508	0.010155924
143	0x3c12be86	0.008956557

exp_avg f4 [16]
0	0x311bb32f	2.2657323e-09
1	0xb59680c5	-1.1213348e-06
2	0x36262147	2.4755298e-06
3	0x3503c871	4.9092984e-07
4	0x35d65bbc	1.5970941e-06
5	0x3628cd9d	2.5153633e-06
6	0x341c06bd	1.4531084e-07
7	0x365eca16	3.3198207e-06
8	0x35ca72e0	1.5083606e-06
9	0xb4fdaff1	-4.7252936e-07
10	0xb48fe798	-2.6804332e-07
11	0xb3177028	-3.5259433e-08
12	0xb53228ee	-6.636973e-07
13	0xb2dd2562	-2.5744786e-08
14	0xb3ec8301	-1.1013436e-07
15	0xb625b0b6	-2.4689775e-06

exp_avg_sq f4 [16]
0	0x2c094748	1.950844e-12
1	0x2e6ded95	5.4098576e-11
2	0x300dde5c	5.1611493e-10
3	0x2c117a4e	2.0673632e-12
4	0x2dc5a151	2.2467946e-11
5	0x2f711e58	2.1929603e-10
6	0x2bad4d41	1.2313832e-12
7	0x303d9f33	6.8984035e-10
8	0x2ea8cb08	7.675821e-11
9	0x2f8ced11	2.5634297e-10
10	0x2d42c525	1.1071398e-11
11	0x2c0bc9c2	1.9865086e-12
12	0x2ce2864d	6.4382167e-12
13	0x2999c600	6.8289124e-14
14	0x2a7dc950	2.2540758e-13
15	0x2efb7eaa	1.14366586e-10

exp_avg f4 [16]
0	0x3bd5ee11	0.006528624
1	0x3b169f54	0.002298315
2	0x3b11c2c9	0.0022241345
3	0xbb8f429c	-0.004371954
4	0xbc5d0d35	-0.013491918
5	0xbc027971	-0.007963524
6	0xbc8c1eda	-0.017104555
7	0x3cb6f413	0.02233318
8	0xbb657e09	-0.003501775
9	0x3bd7aae5	0.0065816515
10	0xbc3d0f8c	-0.011539351
11	0x3b80d90b	0.0039321235
12	0x3caa2c25	0.020773003
13	0xbbcc3851	-0.0062322994
14	0xbc24bfad	-0.010055465
15	0xbc364124	-0.011123929

exp_avg_sq f4 [16]
0	0x3b3d5502	0.002888978
1	0x3b9ea28d	0.004841155
2	0x3b39ef49	0.0028371385
3	0x3b767286	0.0037604882
4	0x3b0c9fc0	0.0021457523
5	0x3b8b6418	0.0042538755
6	0x3ad281d1	0.0016060417
7	0x3ba1d7b5	0.0049390444
8	0x3b4c5d16	0.0031183413
9	0x3aa5ffee	0.0012664774
10	0x3ba43d6c	0.005012205
11	0x3aaf14ce	0.0013357641
12	0x3b512d3c	0.003191783
13	0x3a987f9e	0.0011634713
14	0x3bbb88d5	0.0057230988
15	0x3b6646d9	0.0035137443

exp_avg f4 [16]
0	0x3b2d9a39	0.002648963
1	0x3c053791	0.008130924
2	0x3bbda15f	0.005787059
3	0xbb53b362	-0.0032302965
4	0xbc377e2c	-0.011199515
5	0xbb89af6f	-0.0042018215
6	0xbb38c582	-0.0028193896
7	0x3cc4770f	0.023982553
8	0xbb04347a	-0.002017288
9	0x3bbcf493	0.00576646
10	0xba769ea1	-0.0009407793
11	0x3c1cd10e	0.009571327
12	0x3c02f6c3	0.007993403
13	0xbbf75839	-0.0075483588
14	0xbbca0eef	-0.006166331
15	0xbc2286e4	-0.009919856

exp_avg_sq f4 [16]
0	0x3b21cec6	0.0024689897
1	0x3b0838c4	0.0020785788
2	0x3b08b0ad	0.002085726
3	0x3b4c32e2	0.0031158258
4	0x3ab747b5	0.0013983162
5	0x3ab2234c	0.0013590842
6	0x3ad0049c	0.0015870514
7	0x3b9b70ae	0.004743657
8	0x3b00b150	0.0019636936
9	0x3a591079	0.00082803477
10	0x3ad04458	0.0015889509
11	0x3aa28ae8	0.0012401016
12	0x3a77cf8d	0.000945323
13	0x3ae3defb	0.0017385179
14	0x3b1c2dae	0.0023830938
15	0x3b135bdc	0.0022485172

exp_avg f4 [4, 16, 1, 1]
0	0x3788adba	1.6293361e-05
1	0xb7976609	-1.8048117e-05
2	0xb6b86d96	-5.496385e-06
3	0x366b001f	3.50178e-06
4	0xb723dfc3	-9.767656e-06
5	0xb71cbd08	-9.342337e-06
6	0x37a70b4a	1.9913208e-05
7	0x36c40ffe	5.843117e-06
8	0xb4069541	-1.2534021e-07
9	0x37301fc5	1.0497814e-05
10	0xb7ef9290	-2.8559269e-05
11	0x3821efe5	3.860881e-05
12	0xb7da06d2	-2.5990801e-05
13	0x3882624b	6.2171915e-05
14	0xb781c302	-1.5468806e-05
15	0xb5fd05c2	-1.8851645e-06
16	0xb7e969b8	-2.7824994e-05
17	0x38974308	7.2127266e-05
18	0x391b2288	0.00014794816
19	0xb9e5411e	-0.000437268
20	0x39440464	0.00018693652
21	0x398f9da8	0.00027392549
22	0xb8a9c582	-8.095337e-05
23	0x390c9b84	0.00013409375
24	0x3953aa2e	0.00020185925
25	0xb98e437c	-0.0002713463
26	0x3942341a	0.00018520691
27	0x385e8390	5.305145e-05
28	0x39893a81	0.00026174265
29	0xba573eb5	-0.0008210943
30	0x392cda48	0.00016484514
31	0xb904a019	-0.00012648142
32	0x37b6216e	2.1711658e-05
33	0xb7cc34de	-2.4343313e-05
34	0xb68c8359	-4.187616e-06
35	0x3691a508	4.340549e-06
36	0xb7ae049e	-2.0744566e-05
37	0xb7952bcd	-1.778258e-05
38	0x37fbd9c1	3.0022931e-05
39	0xb68b2e86	-4.147939e-06
40	0xb75da851	-1.3211816e-05
41	0x375f17c6	1.3297371e-05
42	0xb817a6c7	-3.615653e-05
43	0x381fce9a	3.8100967e-05
44	0xb8000340	-3.0520605e-05
45	0x38c08f22	9.181934e-05
46	0xb749a040	-1.2017845e-05
47	0xb6bc812d	-5.6178746e-06
48	0xb7e57fad	-2.7358381e-05
49	0x3982b02d	0.00024926793
50	0xb7ebaec7	-2.809557e-05
51	0x38e091e0	0.00010708324
52	0xb8d9f334	-0.000103926664
53	0xb65343da	-3.1480945e-06
54	0x3842367d	4.630395e-05
55	0xb752648e	-1.2540388e-05
56	0xb90cc66c	-0.00013425358
57	0xb92e5d5a	-0.0001662871
58	0x39a919e5	0.00032253485
59	0x389d67d3	7.505682e-05
60	0x3944ab48	0.00018755824
61	0xb9cb5f9b	-0.0003879041
62	0x388f11df	6.8221e-05
63	0xb8359d36	-4.3300177e-05

exp_avg_sq f4 [4, 16, 1, 1]
0	0x32687591	1.3530909e-08
1	0x3281010d	1.5018054e-08
2	0x32199b36	8.941063e-09
3	0x32b3a25f	2.091218e-08
4	0x32a34473	1.9006825e-08
5	0x32fd6ccd	2.9502553e-08
6	0x330b3ffa	3.2421646e-08
7	0x31ab1b6a	4.9798716e-09
8	0x31f81dfb	7.2211583e-09
9	0x329602cc	1.746357e-08
10	0x32e16471	2.6239123e-08
11	0x3364f147	5.3304827e-08
12	0x3306709e	3.130173e-08
13	0x348c7b3d	2.61667e-07
14	0x31e0a28a	6.5377366e-09
15	0x3181f501	3.782248e-09
16	0x3602474f	1.9413017e-06
17	0x3659ed5e	3.2473686e-06
18	0x3624f601	2.4581097e-06
19	0x36635117	3.3872836e-06
20	0x3660229e	3.339875e-06
21	0x36c0e7b8	5.7490215e-06
22	0x36969c1b	4.4885214e-06
23	0x35a6f4de	1.243923e-06
24	0x35aae3ae	1.273225e-06
25	0x364abb18	3.0209249e-06
26	0x36b7e9a4	5.4810243e-06
27	0x36e598be	6.8425134e-06
28	0x36cd715d	6.1226733e-06
29	0x384d186d	4.8898557e-05
30	0x35a68077	1.2405352e-06
31	0x353c9962	7.025866e-07
32	0x32789bef	1.4470955e-08
33	0x328c6c68	1.6347443e-08
34	0x322e634c	1.01507105e-08
35	0x32dc997b	2.5681166e-08
36	0x32bd2ddc	2.202335e-08
37	0x331050cd	3.36011e-08
38	0x331dbee8	3.672804e-08
39	0x31e5aace	6.6841954e-09
40	0x3214883f	8.645713e-09
41	0x32a68297	1.9384329e-08
42	0x32f58f33	2.8586873e-08
43	0x33694e54	5.432078e-08
44	0x33143a8d	3.4512187e-08
45	0x34a31220	3.0374304e-07
46	0x31fe472e	7.400465e-09
47	0x3191b8f9	4.2410844e-09
48	0x357c9500	9.409414e-07
49	0x35bc54d9	1.4031785e-06
50	0x35adbbfb	1.2944214e-06
51	0x361deaa9	2.3531413e-06
52	0x35f95de3	1.857927e-06
53	0x3646ab24	2.9603916e-06
54	0x362a934f	2.541772e-06
55	0x3535cec2	6.7728627e-07
56	0x354cf1bc	7.634769e-07
57	0x35fc1b2d	1.8783372e-06
58	0x3620c1cd	2.3954665e-06
59	0x366b4d19	3.5062606e-06
60	0x36447120	2.9272123e-06
61	0x37ca6c86	2.4130812e-05
62	0x3519a3c4	5.723525e-07
63	0x349e8019	2.9522997e-07

exp_avg f4 [4]
0	0x3913b5a0	0.00014086673
1	0xba563332	-0.0008171081
2	0x3980f382	0.0002459549
3	0xb9d4f9fe	-0.0004062205

exp_avg_sq f4 [4]
0	0x35f838d4	1.8493979e-06
1	0x39b9916b	0.00035394295
2	0x360ef8db	2.1304502e-06
3	0x39372d3e	0.00017469094

exp_avg f4 [16, 4, 1, 1]
0	0x387d26c6	6.035601e-05
1	0x388b1f44	6.63386e-05
2	0x3888d907	6.52541e-05
3	0x379b9a01	1.8549154e-05
4	0xb7cc9ba5	-2.4391173e-05
5	0x390e6fd4	0.00013583835
6	0xb7d92fbc	-2.5890644e-05
7	0xb7817f0c	-1.543716e-05
8	0x381657f7	3.584471e-05
9	0x39aab5f0	0.0003256048
10	0x3896b602	7.186459e-05
11	0x3b01d31f	0.0019809676
12	0xb87da068	-6.046929e-05
13	0x381bc191	3.7135153e-05
14	0xb86b1e95	-5.6056848e-05
15	0x3981f41d	0.00024786676
16	0x395bdfa9	0.00020968787
17	0xbab7aac6	-0.0014012686
18	0x3958f4be	0.00020690539
19	0xba301549	-0.0006717039
20	0xb77dfd91	-1.5139013e-05
21	0xbaba6691	-0.0014221241
22	0xb517f308	-5.660554e-07
23	0xb8f0b547	-0.00011477857
24	0x3a6ee370	0.00091128703
25	0xbbc3d2b8	-0.0059760474
26	0x3a6e8882	0.0009099321
27	0xbb5c8c82	-0.0033653085
28	0xb9ae0f69	-0.00033199348
29	0x3ab243d9	0.0013600542
30	0xb9af78ec	-0.00033468695
31	0x3a0ee924	0.0005451611
32	0x39586479	0.00020636794
33	0xbaff4aa2	-0.0019477198
34	0x3970c346	0.00022960929
35	0xb9ab3ffa	-0.00032663328
36	0xba060656	-0.00051126385
37	0x3b511629	0.0031904078
38	0xba0ad87b	-0.00052965403
39	0x3a60fbea	0.000858246
40	0xb1f8f09c	-7.245104e-09
41	0x3228642f	9.801666e-09
42	0xb2166421	-8.753916e-09
43	0x32926f58	1.704727e-08
44	0x3904c46d	0.00012661675
45	0xba847b0a	-0.0010107469
46	0x38f5eedc	0.000117270014
47	0xba5ff441	-0.00085431716
48	0xb9b958ed	-0.00035352205
49	0x3b044444	0.002018229
50	0xb9c1ea34	-0.00036986324
51	0x3a8ec51c	0.0010892483
52	0x396eb532	0.00022764949
53	0xba56a64e	-0.00081882335
54	0x396b7a3b	0.00022456881
55	0xb984b8fc	-0.00025314826
56	0x399331dc	0.00028075173
57	0xbaa699cb	-0.0012710629
58	0x3999fe32	0.00029371824
59	0xb90dc1a2	-0.00013518942
60	0x36e30adb	6.766391e-06
61	0xb72cb6eb	-1.0294588e-05
62	0x36fbc361	7.503128e-06
63	0xb7ca532c	-2.4119006e-05

exp_avg_sq f4 [16, 4, 1, 1]
0	0x367a6b69	3.7315424e-06
1	0x38ead412	0.00011197491
2	0x367375a1	3.627829e-06
3	0x3885bffc	6.377694e-05
4	0x33ae32c9	8.111744e-08
5	0x3511ae93	5.427075e-07
6	0x33abba2c	7.9966725e-08
7	0x3518a818	5.686902e-07
8	0x3753052a	1.2577782e-05
9	0x39c25e6f	0.00037072922
10	0x37521163	1.2521024e-05
11	0x3912f658	0.00014015415
12	0x363f71f6	2.8527552e-06
13	0x38e43136	0.000108810535
14	0x363d31c8	2.8192171e-06
15	0x3851003e	4.982971e-05
16	0x35242524	6.114881e-07
17	0x3792205b	1.7419623e-05
18	0x35226c4a	6.0507284e-07
19	0x36c97615	6.0040134e-06
20	0x3641d4c3	2.8883085e-06
21	0x3889bb38	6.567541e-05
22	0x363ab064	2.7818833e-06
23	0x3822ffc2	3.8862003e-05
24	0x36832dee	3.909451e-06
25	0x38f4f31a	0.00011680108
26	0x367deddc	3.783839e-06
27	0x389958b0	7.312128e-05
28	0x34e39dfc	4.2396994e-07
29	0x36e8582a	6.9244024e-06
30	0x34e53305	4.2691696e-07
31	0x35bb4541	1.3952741e-06
32	0x36a9ee08	5.064303e-06
33	0x393382ac	0.0001711945
34	0x36abe403	5.122741e-06
35	0x3833d49d	4.2874937e-05
36	0x37039015	7.841755e-06
37	0x399e4f67	0.00030195268
38	0x3703ab83	7.848142e-06
39	0x38e82a38	0.00011070486
40	0x2ff2f7f9	4.419574e-10
41	0x30d84c4d	1.5737754e-09
42	0x3000e432	4.6890414e-10
43	0x309077d5	1.0511437e-09
44	0x36186012	2.2705685e-06
45	0x388994a9	6.560359e-05
46	0x3613711d	2.1970548e-06
47	0x384a2553	4.8195314e-05
48	0x36156228	2.2259865e-06
49	0x38415b72	4.609995e-05
50	0x360d7ee8	2.1084506e-06
51	0x381bd4df	3.715313e-05
52	0x36ed4a71	7.0718165e-06
53	0x39aa663d	0.000325011
54	0x36f2d149	7.236526e-06
55	0x389cfbe5	7.485579e-05
56	0x36fd766b	7.5537732e-06
57	0x39576a08	0.00020543498
58	0x36f79111	7.3780616e-06
59	0x38dbe63a	0.00010485617
60	0x31b0b150	5.1424323e-09
61	0x329a7f8f	1.7985966e-08
62	0x31af6406	5.1045417e-09
63	0x32e66ef9	2.6825989e-08

exp_avg f4 [16]
0	0xb8c2d3fc	-9.290126e-05
1	0x38b95335	8.836986e-05
2	0x39a7ad2d	0.00031981748
3	0x39748ecb	0.00023322848
4	0xba7355df	-0.000928251
5	0xb9c36702	-0.00037270045
6	0xbb88fad6	-0.0041802926
7	0x3aa5e9c0	0.0012658164
8	0xba87365a	-0.0010315881
9	0x3b0b6a96	0.0021273247
10	0x331b8056	3.620547e-08
11	0xba05924a	-0.0005095346
12	0x3ae1320b	0.0017181052
13	0xba4ab130	-0.00077320915
14	0xba56dba4	-0.0008196181
15	0xb7eac11e	-2.7984901e-05
