saved_models/emnist_cnn_elite.pth (torch, 467962 bytes, 45 tensors)

conv1.weight f4 [4, 1, 3, 3]
1.0 0.0 1.0 1.0 1.0 1.0 0.0 0.0
1.0 1.0 1.0 0.0 1.0 1.0 1.0 0.0
0.0 0.0 1.0 0.0 0.0 1.0 0.0 1.0
1.0 0.0 1.0 0.0 1.0 0.0 1.0 0.0
1.0 1.0 0.0 0.0
00000000: 0000 803f 0000 0000 0000 803f 0000 803f
00000010: 0000 803f 0000 803f 0000 0000 0000 0000
00000020: 0000 803f 0000 803f 0000 803f 0000 0000
00000030: 0000 803f 0000 803f 0000 803f 0000 0000
00000040: 0000 0000 0000 0000 0000 803f 0000 0000
00000050: 0000 0000 0000 803f 0000 0000 0000 803f
00000060: 0000 803f 0000 0000 0000 803f 0000 0000
00000070: 0000 803f 0000 0000 0000 803f 0000 0000
00000080: 0000 803f 0000 803f 0000 0000 0000 0000

conv1.bias f4 [4]
1.5495102 1.158392 -0.55387515 1.3913032
00000000: 5a56 c63f 3046 943f c3ca 0dbf 3916 b23f

conv2.0.weight f4 [16, 4, 3, 3]
0.031200923 -0.10224477 -0.056188855 -0.2885877 -0.19042663 0.06759993 -0.034754228 0.267385
0.103101574 -0.0750643 0.4240028 0.24090803 0.33727303 0.050208535 -0.2077997 0.50507027
0.43350682 0.12800756 -0.10585064 -0.3774334 -0.2294276 -0.039177272 -0.22277078 0.014019238
0.12773757 -0.23057851 -0.21100701 0.39725143 0.36183605 0.10235868 0.28233325 -0.07387538
0.09150562 -0.26381943 0.00072888314 0.16498032 0.13788427 0.10954245 -0.35800883 0.10677195
-0.11135279 -0.29083326 0.054280326 -0.12313501 -0.120849445 -0.07615044 0.10713149 -0.07122718
-0.22143938 0.5672953 -0.18011273 0.027961908 0.045447808 0.0050887996 -0.40619308 0.2427154
-0.060614895 -0.18364687 0.121284604 0.06573159 0.16351749 0.2279556 0.14207892 -0.17515266
0.4681896 0.043133114 -0.4539498 0.45632365 -0.105625674 -0.15143318 0.19934525 -0.022506306
0.28673568 -0.15834321 -0.031222397 0.19840032 -0.3327555 0.12450177 0.036164355 -0.38166487
0.3544041 -0.054553263 0.006100287 -0.2521887 0.030208746 0.16802363 -0.41324311 -0.014241004
-0.049307816 0.01741719 -0.09618855 0.34027782 0.043846384 -0.17640676 0.0019105658 -0.2535636
-0.037050273 -0.2179277 0.0044281506 -0.25264126 0.11192881 -0.28617656 0.2524231 0.35375473
-0.2891312 0.50373536 -0.25193492 0.06004249 0.13481645 -0.16734429 0.010625905 0.20946154
0.26660815 0.42084846 0.18948 0.036771815 0.012480841 -0.036794975 -0.016614364 -0.0030933106
0.13000569 0.44964537 0.38768995 -0.07262533 0.27299413 0.0431974 0.09146939 0.22199626
-0.035086136 -0.33261776 -0.15521444 0.009175899 -0.42984313 -0.39470202 -0.3732334 -0.17896721
-0.13162419 -0.22422014 -0.28031665 -0.07004686 -0.01863571 -0.15869744 -0.3807949 -0.3300913
-0.17214735 0.14492817 -0.053268667 -0.05488361 0.05045262 -0.2606268 -0.07210835 -0.22161904
-0.12386271 0.014892506 -0.1098828 -0.07522355 -0.10239448 0.044309042 0.23612869 0.16474836
0.23923752 -0.1480442 -0.08153281 -0.010943547 -0.10944523 0.3100834 -0.34461963 -0.23594283
0.0072081867 -0.28594065 0.23139875 -0.19203614 -0.14823739 0.44308966 0.06418535 1.0438846
-0.0134008955 0.01864877 0.0414679 -0.26296055 -0.029100616 -0.3473602 0.3500909 0.43361536
-0.26077703 0.23653087 0.04061231 0.043374896 -0.081887774 -0.22713612 -0.15631048 0.16763806
0.1245495 -0.06379994 -0.21297474 -0.16552672 0.1491904 -0.1616943 0.0030374415 -0.24337326
0.13491651 0.41755894 0.21982592 -0.25270662 -0.27921647 0.39205748 0.028716419 -0.08274376
0.0024481602 -0.32230756 0.027167428 -0.09283361 -0.23837294 -0.26976964 -0.01559118 -0.0923271
0.1239167 0.097563215 0.036703225 -0.047622632 -0.21384081 -0.008496659 -0.10518848 0.03705849
0.2956245 -0.15989786 0.25611284 0.36895657 0.09553803 -0.019429924 -0.31327084 -0.4136509
-0.1215407 0.09240408 0.09263972 -0.1785031 -0.4673659 -0.0684646 -0.29108414 0.021178134
0.06691838 0.055570435 -0.16986899 0.10494956 0.3544344 -0.02043091 0.19476806 -0.29355887
0.21228725 -0.35941437 0.23909108 0.5285236 0.21790789 -0.31293452 -0.15352204 0.49465606
00000000: 1499 ff3c b565 d1bd 4926 66bd c4c1 93be
00000010: 33ff 42be d571 8a3d 735a 0ebd b0e6 883e
00000020: eb26 d33d 50bb 99bd e516 d93e 98b0 763e
00000030: 0daf ac3e 77a7 4d3d 72c9 54be 494c 013f
00000040: 9bf4 dd3e 6a14 033e 38c8 d8bd f33e c1be
00000050: 12ef 6abe 5978 20bd 061e 64be f2b0 653c
00000060: a3cd 023e c61c 6cbe 3912 58be 8a64 cb3e
00000070: 9342 b93e 6da1 d13d fc8d 903e fa4b 97bd
00000080: 4c67 bb3d 5713 87be 8512 3f3a 9af0 283e
00000090: 8931 0d3e cb57 e03d ef4c b7be 41ab da3d
000000a0: ee0c e4bd 19e8 94be 0c55 5e3d 352e fcbd
000000b0: ea7f f7bd c3f4 9bbd c167 db3d 8edf 91bd
000000c0: 01c1 62be 443a 113f 796f 38be 5f10 e53c
000000d0: 7b27 3a3d f2bf a63b 8af8 cfbe 638a 783e
000000e0: 5347 78bd ed0d 3cbe 1064 f83d 499e 863d
000000f0: 2171 273e 316d 693e 237d 113e 385b 33be
00000100: 8cb6 ef3e 59ac 303d 1c6c e8be 41a3 e93e
00000110: 4652 d8bd 4d11 1bbe 2921 4c3e 255f b8bc
00000120: 05cf 923e b924 22be 1dc6 ffbc 7429 4b3e
00000130: ee5e aabe c9fa fe3d 1321 143d 9469 c3be
00000140: 7474 b53e 3e73 5fbd ebe4 c73b e11e 81be
00000150: 5578 f73c 630e 2c3e 9a94 d3be 1a53 69bc
00000160: fef6 49bd 7fae 8e3c 81fe c4bd e538 ae3e
00000170: 4498 333d f9a3 34be f36b fa3a 17d3 81be
00000180: 07c2 17bd 7028 5fbe 051a 913b 325a 81be
00000190: ef3a e53d bc85 92be 9a3d 813e 571f b53e
000001a0: 0109 94be cdf4 003f 9dfd 80be 1def 753d
000001b0: 530d 0a3e 4d5c 2bbe 4718 2e3c 167d 563e
000001c0: dd80 883e 7379 d73e 0c07 423e 0b9e 163d
000001d0: 717c 4c3c 54b6 16bd d91a 88bc 24b9 4abb
000001e0: 3620 053e eb37 e63e 4c7f c63e 97bc 94bd
000001f0: e3c5 8b3e c2ef 303d 4e54 bb3d fd52 633e
00000200: 7bb6 0fbd e04c aabe 89f0 1ebe 8356 163c
00000210: 6614 dcbe 6216 cabe 7318 bfbe 2e43 37be
00000220: 7ec8 06be f799 65be aa85 8fbe ba74 8fbd
00000230: eba9 98bc 9581 22be 8df7 c2be ba01 a9be
00000240: 6547 30be 0d68 143e 3f30 5abd a3cd 60bd
00000250: 68a7 4e3d e070 85be 8bad 93bd 1af0 62be
00000260: bcab fdbd b3ff 733c 3c0a e1bd ce0e 9abd
00000270: 32b4 d1bd 667d 353d b8cb 713e cbb3 283e
00000280: aefa 743e e698 17be adfa a6bd 904c 33bc
00000290: d224 e0bd 40c3 9e3e fc71 b0be ff9a 71be
000002a0: a732 ec3b d066 92be cbf3 6c3e 1fa5 44be
000002b0: 8bcb 17be a6dc e23e 9c73 833d 039e 853f
000002c0: 6e8f 5bbc 4ec5 983c 3fda 293d c4a2 86be
000002d0: 6a64 eebc 32d9 b1be 1d3f b33e d502 de3e
000002e0: 9184 85be 2635 723e 1859 263d e0a9 313d
000002f0: c7b4 a7bd 5f96 68be db0f 20be 50a9 2b3e
00000300: cf13 ff3d 8ba9 82bd 0d16 5abe d67f 29be
00000310: 5ec5 183e 3193 25be d00f 473b d736 79be
00000320: 8e27 0a3e 49ca d53e 0c1a 613e c362 81be
00000330: 76f5 8ebe c2bb c83e b23e eb3c 8f75 a9bd
00000340: 5071 203b 7f05 a5be 3a8e de3c 8c1f bebd
00000350: 0918 74be 3f1f 8abe 2672 7fbc fe15 bdbd
00000360: 0ac8 fd3d 39cf c73d 1f56 163d f30f 43bd
00000370: 16f9 5abe 9235 0bbc 0f6d d7bd a5ca 173d
00000380: 185c 973e 44bc 23be 3921 833e e0e7 bc3e
00000390: 71a9 c33d 812b 9fbc 0965 a0be 0dca d3be
000003a0: 55ea f8bd 5a3e bd3d e5b9 bd3d 84c9 36be
000003b0: 954a efbe 2b37 8cbd fb08 95be c47d ad3c
000003c0: 810c 893d d39d 633d 23f2 2dbe cbef d63d
000003d0: 6d78 b53e b95e a7bc 4771 473e 594d 96be
000003e0: d461 593e 2905 b8be 4bd4 743e 534d 073f
000003f0: 3f23 5f3e f438 a0be e234 1dbe 8f43 fd3e

conv2.0.bias f4 [16]
0.09839763 0.06489004 0.05740858 0.12853907 -0.23662825 0.14398383 0.21514742 -0.013935981
0.0027546529 0.2272722 0.026410019 0.0812529 0.17150533 0.03450113 0.1646993 -0.07133986
00000000: b284 c93d 12e5 843d 4225 6b3d bf9f 033e
00000010: ad4e 72be 7f70 133e 9b4f 5c3e be53 64bc
00000020: 6887 343b 0bba 683e d359 d83c ec67 a63d
00000030: 189f 2f3e 0f51 0d3d efa6 283e a21a 92bd

conv2.1.weight f4 [16]
0.8843066 1.083723 1.1243955 0.92596215 1.040907 0.9915594 0.94995797 0.9862526
1.2382354 0.95476204 1.0055586 1.0209674 1.0806788 1.1676035 0.900813 0.92028666
00000000: eb61 623f 6fb7 8a3f 31ec 8f3f db0b 6d3f
00000010: 713c 853f d6d6 7d3f 7230 733f 0d7b 7c3f
00000020: 7f7e 9e3f 496b 743f 25b6 803f 0faf 823f
00000030: af53 8a3f 0874 953f ae9b 663f e897 6b3f

conv2.1.bias f4 [16]
-0.09594309 0.048839945 0.00065566995 -0.13091378 -0.18241239 -0.034078136 -0.044026434 -0.1525997
-0.4660776 0.008395965 -0.3412589 -0.0032822923 -0.23197404 -0.22764657 0.010551564 -0.13573478
00000000: d07d c4bd 650c 483d 44e1 2b3a 430e 06be
00000010: 50ca 3abe 8495 0bbd 1055 34bd 1943 1cbe
00000020: b9a1 eebe 3b8f 093c 7db9 aebe ba1b 57bb
00000030: 9a8a 6dbe 2f1c 69be 78e0 2c3c 0ffe 0abe

conv2.1.running_mean f4 [16]
3.141327 -0.5800847 0.4093422 1.3071461 0.7143561 -1.3195077 2.2722661 0.22280195
0.6052675 -0.90462726 3.6522126 2.3333116 0.6673275 -1.756337 -1.4391795 2.5287044
00000000: 800b 4940 6e80 14bf 4d95 d13e 9050 a73f
00000010: 0be0 363f a1e5 a8bf cf6c 1140 3226 643e
00000020: d0f2 1a3f a795 67bf dabd 6940 fa54 1540
00000030: fad5 2a3f a7cf e0bf 0937 b8bf 4bd6 2140

conv2.1.running_var f4 [16]
9.965199 17.09873 15.802916 20.978785 7.899106 10.737587 17.460957 38.987415
130.2615 5.7466683 14.667285 26.47745 89.0375 57.739624 5.1191387 3.8397398
00000000: 7571 1f41 33ca 8841 bed8 7c41 8dd4 a741
00000010: 7ac5 fc40 28cd 2b41 0ab0 8b41 1df3 1b42
00000020: f242 0243 b5e4 b740 33ad 6a41 d1d1 d341
00000030: 3313 b242 60f5 6642 fccf a340 4cbe 7540

attention.channel_att.1.weight f4 [4, 16, 1, 1]
-0.107096896 0.33147526 0.14135776 0.46770194 0.35165566 0.471731 0.1778593 0.51284957
-0.10341637 0.120688446 -0.07454954 0.2905767 -0.13000996 0.11240914 0.3361622 -0.16201454
0.11644712 -0.5087543 -0.15484685 0.625547 -0.013085149 -0.5097294 0.30825213 -0.5612185
0.5279288 -0.091639526 -0.18652964 -0.8395818 0.7457815 0.13491108 -0.2213524 -0.41337958
-2.364616 -1.061013 -0.84492475 -0.87251484 -0.7516699 -1.1724114 -0.8686354 -2.6697657
-0.2015943 -1.3348782 -2.2737238 -1.1296297 -2.2215192 -2.2861133 -2.0652456 -1.6914482
-0.1924769 -0.08750023 -0.09178319 0.30719334 -0.4482102 0.60059875 -0.39950427 0.9381152
0.3426757 0.4266918 0.078503564 0.7908956 -0.4117008 -0.6857704 0.41663605 -0.04898813
00000000: 9e55 dbbd 20b7 a93e 17c0 103e a176 ef3e
00000010: 360c b43e ba86 f13e c020 363e 1c4a 033f
00000020: f6cb d3bd 812b f73d 6ead 98bd 78c6 943e
00000030: 5521 05be c336 e63d 741d ac3e 24e7 25be
00000040: d47b ee3d b93d 02bf 2c90 1ebe d923 203f
00000050: 1863 56bc a07d 02bf 39d3 9d3e 04ac 0fbf
00000060: 5826 073f 81ad bbbd a001 3fbe d5ee 56bf
00000070: 89eb 3e3f 2126 0a3e 34aa 62be 7da6 d3be
00000080: de55 17c0 46cf 87bf fd4c 58bf 225d 5fbf
00000090: 706d 40bf 9411 96bf e45e 5ebf 71dd 2ac0
000000a0: bc6e 4ebe 4add aabf b184 11c0 b597 90bf
000000b0: 5f2d 0ec0 ae4f 12c0 fc2c 04c0 6081 d8bf
000000c0: aa18 45be 5233 b3bd d3f8 bbbd 7248 9d3e
000000d0: cf7b e5be d7c0 193f d38b ccbe 5128 703f
000000e0: 3073 af3e 5977 da3e 7ac6 a03d 2278 4a3f
000000f0: 72ca d2be a68e 2fbf 5251 d53e c7a7 48bd

attention.channel_att.1.bias f4 [4]
0.15711124 0.03184461 -0.78465784 -0.05657858
00000000: c5e1 203e 7e6f 023d 56df 48bf f1be 67bd

attention.channel_att.3.weight f4 [16, 4, 1, 1]
0.3580828 0.3050887 -1.1825974 0.4986093 -0.0034198996 1.0857061 -0.24218263 -0.4025435
0.04258706 1.0770183 -0.0039048325 0.24221686 -0.33283257 0.20175934 0.058534402 0.21950193
-0.4511263 0.3818607 0.7468388 0.509473 -0.66698885 0.7127038 -0.1379423 0.030900052
-0.2811994 -0.214271 -0.39282787 0.21164723 -0.5585071 0.34936845 -1.0504112 -0.5699615
0.33172712 0.47751853 0.7561904 0.055520304 -0.62335783 0.4108859 -0.93054396 -0.4930264
-0.21338034 -0.11400102 -1.0825756 0.59468573 0.25110883 0.5031465 -0.04857034 -0.28309786
0.44022733 -0.16952987 -0.22586423 0.80326986 0.31590623 0.25287247 -0.94130963 0.61049986
-0.317534 0.49256152 -0.446141 -1.1894588 -0.34456086 0.12959133 -0.81583804 0.26457515
00000000: a156 b73e 9634 9c3e 5a5f 97bf b849 ff3e
00000010: 6520 60bb 6bf8 8a3f b9fe 77be 2e1a cebe
00000020: c56f 2e3d bcdb 893f 38e8 7fbb b207 783e
00000030: 0869 aabe 009a 4e3e c5c1 6f3d 1dc5 603e
00000040: 07fa e6be 3f83 c33e d430 3f3f d36c 023f
00000050: c8bf 2abf c273 363f bf40 0dbe 1b22 fd3c
00000060: 5ef9 8fbe db69 5bbe bc20 c9be 0dba 583e
00000070: 52fa 0ebf 6ce0 b23e e073 86bf ffe8 11bf
00000080: 23d8 a93e 4f7d f43e b295 413f 4269 633d
00000090: 6194 1fbf a35f d23e 2138 6ebf f56d fcbe
000000a0: 6080 5abe 5e79 e9bd d691 8abf 533d 183f
000000b0: 5691 803e 36ce 003f b1f1 46bd 34f2 90be
000000c0: 7a65 e13e 3d99 2dbe f448 67be 18a3 4d3f
000000d0: 76be a13e 8078 813e abf9 70bf b849 1c3f
000000e0: d193 a2be 0631 fc3e 986c e4be 3040 98bf
000000f0: 486a b0be 97b3 043e c3da 50bf 6576 873e

attention.channel_att.3.bias f4 [16]
0.31369773 -0.00070966553 -0.039928716 0.05126875 -0.042144626 -0.14520112 0.22768143 0.14367566
0.13341863 -0.06592002 0.35671312 -0.4754085 -0.022246832 -0.21654007 0.1013026 0.0774509
00000000: fd9c a03e d908 3aba 4b8c 23bd 2eff 513d
00000010: d89f 2cbd 9aaf 14be 5225 693e b61f 133e
00000020: e59e 083e 1301 87bd 1aa3 b63e be68 f3be
00000030: fd3e b6bc aebc 5dbe bd77 cf3d 949e 9e3d

attention.spatial_att.0.weight f4 [1, 2, 7, 7]
0.17800654 0.14341414 0.42797375 0.24433804 0.03554782 -0.03892887 0.2214388 0.099287964
0.055334125 0.36822754 -0.18460834 -0.013679956 0.2885038 0.29775128 0.5277082 0.08116792
0.014460397 -0.3295077 -0.21563038 0.18184465 0.15283191 0.4406116 -0.27107686 -0.26375097
-0.11511981 -0.25724113 -0.1005759 0.15217271 0.09705376 0.009650794 0.33466083 -0.3274754
-0.24026844 -0.17334075 0.41587043 0.16344538 0.12895882 0.2211089 -0.21448514 -0.18402244
0.105722986 0.20059101 0.36738878 0.05795621 0.37850153 -0.02887084 0.073590316 -0.052495223
-0.06137846 0.67225814 -0.08990245 0.45459303 0.3635611 -0.5158278 -0.2926616 -0.23398459
0.10321604 -0.36738697 0.28576392 -0.12299729 -0.20998217 0.29661772 0.32698146 0.5019463
-0.039544802 -0.35322204 -0.5799203 -0.18370177 0.24585697 0.16391021 0.8183598 -0.050743185
-0.49593306 -0.03674347 -0.045609772 0.2576721 0.5581464 0.45996985 0.03565945 0.4833954
-0.11079652 -0.057032235 0.12177737 0.892218 0.12314054 0.42359602 0.8117369 0.17674962
0.16135603 0.34403974 0.5730543 0.0906907 -0.056767 0.37718847 0.21577857 -0.0176831
0.033539314 0.15479322
00000000: 5947 363e 28db 123e 601f db3e c033 7a3e
00000010: 979a 113d e173 1fbd dac0 623e 7d57 cb3d
00000020: 09a6 623d 5288 bc3e f809 3dbe e521 60bc
00000030: c5b6 933e db72 983e e217 073f 5e3b a63d
00000040: 4deb 6c3c 3cb5 a8be 36ce 5cbe 7c35 3a3e
00000050: f87f 1c3e d897 e13e 96ca 8abe 5e0a 87be
00000060: efc3 ebbd 1cb5 83be bdfa cdbd 2ad3 1b3e
00000070: 1fc4 c63d 5d1e 1e3c aa58 ab3e dbaa a7be
00000080: ee08 76be 3d80 31be f8ec d43e 3a5e 273e
00000090: c80d 043e 5f6a 623e fea1 5bbe 6170 3cbe
000000a0: 4b85 d83d bb67 4d3e 621a bc3e 7e63 6d3d
000000b0: f4ca c13e 8a82 ecbc 85b6 963d 3b05 57bd
000000c0: fb67 7bbd 1c19 2c3f c71e b8bd 6bc0 e83e
000000d0: ae24 ba3e 4a0d 04bf bed7 95be a899 6fbe
000000e0: ee62 d33d 251a bcbe a64f 923e 01e6 fbbd
000000f0: 9105 57be 47de 973e 1d6a a73e 8d7f 003f
00000100: bbf9 21bd 85d9 b4be a875 14bf 511c 3cbe
00000110: eec1 7b3e 14d8 273e 0780 513f 16d8 4fbd
00000120: f0ea fdbe 5280 16bd 50d1 3abd 99ed 833e
00000130: afe2 0e3f 2b81 eb3e a50f 123d 9a7f f73e
00000140: 49e9 e2bd a29a 69bd 6a66 f93d 6668 643f
00000150: 1c31 fc3d 94e1 d83e fdcd 4f3f dafd 343e
00000160: 843a 253e fa25 b03e b0b3 123f 0cbc b93d
00000170: 8484 68bd d91e c13e 0ff5 5c3e 26dc 90bc
00000180: 8560 093d 1d82 1e3e

fc.0.weight f4 [128, 256]
0.20766592 0.16470394 -0.0041163773 0.06434178 0.08921631 0.04359611 0.1680367 0.0719731
0.014479614 0.069929615 0.2371311 -0.16380432 -0.17235352 -0.2221678 -0.028482636 0.23446982
0.47261417 0.12900448 0.19571702 0.2845545 -0.20101672 0.35669458 0.051033046 -0.021194782
-0.16279766 0.020170076 0.0068810964 0.14005561 -0.13592803 0.1867674 -0.00011137522 0.094869584
0.015040916 0.25680318 0.1457749 -0.56829596 -0.219224 0.2617393 0.019985646 -0.2413501
-0.20510478 0.00047958788 -0.18809968 -0.19049102 0.17001082 0.11890185 -0.063523985 -0.1116841
0.09713713 0.12061251 -0.032424215 0.022276644 0.05610955 -0.09849218 0.07970162 0.035131127
0.10767399 0.27952847 -0.023717422 0.10963151 0.039896708 0.088740416 0.0010910318 0.124860525
-0.05627687 -0.1266292 -0.1600211 -0.37612757 -0.025800562 -0.10822565 0.21857394 -0.50806546
-0.05473631 0.074640706 0.15950881 -0.33872548 -0.055852104 0.060590558 -0.1358243 0.041156296
0.10560684 0.09099665 -0.06009593 0.02392397 -0.15970753 0.14573267 -0.5784108 0.1792918
0.082046404 -0.031176968 0.24318154 0.05918307 -0.08521412 -0.077289596 0.20785457 -0.054508273
-0.0064857085 -0.0010160814 0.198671 0.049150176 0.07613574 -0.37531993 0.06070572 -0.30823088
0.21501215 0.10787025 -0.01577514 -0.093425885 0.2920839 0.10771231 -0.07270122 -0.099808246
0.0075854855 0.1737329 -0.2317639 -0.009747179 0.12735467 0.088380486 0.1810161 -0.2918323
0.19784215 0.17545035 -0.04533392 -0.2546796 0.22517386 0.29565144 -0.10289206 -0.28613207
-0.065024465 0.16452432 0.09896556 0.060339354 -0.0049159396 0.28811312 -0.14687027 -0.14960974
0.18521193 0.12953381 0.09902663 0.07435278 0.1229778 -0.006403296 -0.101449914 0.22989208
0.038008142 -0.020324437 0.046860944 -0.2027741 0.14327188 -0.06253434 -0.02880961 -0.22755481
-0.016921774 0.08244144 0.31358853 0.16903166 -0.053765662 0.14678286 0.3130095 -0.09370487
-0.24783236 -0.2165945 0.3770651 0.21546368 -0.14491719 -0.23932384 -0.11356118 0.39960244
0.08018 -0.30772558 0.05418687 0.25988895 0.277504 -0.021511866 -0.03855362 0.06520092
-0.13639422 0.11273495 0.24263795 -0.123470806 -0.037437234 -0.39448112 -0.49495786 -0.34329227
0.04115552 -0.20472544 0.055916674 -0.22240265 -0.025238752 -0.28360337 0.27087307 -0.12340514
-0.057274304 -0.025550341 -0.1277197 0.07513047 -0.028429784 -0.26856193 -0.022329852 0.17783383
0.032566436 -0.11696298 -0.17024328 0.16042046 -0.01759089 -0.21046036 -0.5159663 0.0035173446
-0.16588788 0.27854905 0.06714509 0.013993723 -0.26420462 -0.0376062 -0.19854657 -0.39702126
0.36016104 0.13744338 0.018598441 -0.43136585 0.2312772 0.034322903 -0.12921374 0.08619583
0.48455837 0.3152908 -0.40192127 0.13314182 0.23753054 -0.29341012 -0.31673104 -0.003930945
-0.00025589226 -0.059493307 -0.08439588 0.01994321 -0.17699644 0.2853102 -0.020982897 0.33130944
-0.052202445 0.3624415 0.14078854 0.3948042 -0.04080669 -0.23695503 -0.0042129024 0.65007955
0.16180976 -0.38185912 -0.018387036 0.1074116 0.24127653 -0.4134463 0.06623179 0.0461623
00000000: 60a6 543e 26a8 283e ade2 86bb a0c5 833d
00000010: 0ab7 b63d d691 323d d011 2c3e a266 933d
00000020: e73b 6d3c 4237 8f3d 7fd2 723e 52bc 27be
00000030: 717d 30be f57f 63be 6b54 e9bc db18 703e
00000040: 7cfa f13e c019 043e 0b6a 483e 21b1 913e
00000050: 54d7 4dbe aca0 b63e 0708 513d aea0 adbc
00000060: 6eb4 26be b73b a53c d27a e13b bd6a 0f3e
00000070: b830 0bbe f43f 3f3e 1e92 e9b8 fc4a c23d
00000080: 2d6e 763c b57b 833e 0446 153e d87b 11bf
00000090: 427c 60be b202 863e f0b8 a33c 7b24 77be
000000a0: fd06 52be 3271 fb39 349d 40be 1410 43be
000000b0: 5117 2e3e d082 f33d dd18 82bd a2ba e4bd
000000c0: d5ef c63d b103 f73d 41cf 04bd 827d b63c
000000d0: 21d3 653d 45b6 c9bd 9a3a a33d a8e5 0f3d
000000e0: 2e84 dc3d 5b1e 8f3e 0a4b c2bc 7c86 e03d
000000f0: bb6a 233d 89bd b53d f400 8f3a e0b6 ff3d
00000100: 9382 66bd 16ab 01be 92dc 23be cb93 c0be
00000110: b35b d3bc 69a5 ddbd d9d1 5f3e 9410 02bf
00000120: 2e33 60bd 3add 983d 4756 233e 6d6d adbe
00000130: 2dc5 64bd ce2d 783d 8615 0bbe 8193 283d
00000140: 6648 d83d 745c ba3d 2627 76bd 34fc c33c
00000150: 5f8a 23be f23a 153e bb12 14bf 4598 373e
00000160: f207 a83d d766 ffbc 9504 793e f269 723d
00000170: be84 aebd 024a 9ebd d4d7 543e 1144 5fbd
00000180: 1186 d4bb 092e 85ba 6970 4b3e b251 493d
00000190: 0eed 9b3d ef29 c0be 90a6 783d 70d0 9dbe
000001a0: 252c 5c3e 14eb dc3d de3a 81bc 1256 bfbd
000001b0: 058c 953e 4698 dc3d 61e4 94bd 4468 ccbd
000001c0: aa8f f83b 0ae7 313e 8453 6dbe a2b2 1fbc
000001d0: 4369 023e d400 b53d 495c 393e 0b6b 95be
000001e0: 2297 4a3e 42a9 333e 0fb0 39bd 5d65 82be
000001f0: fa93 663e a05f 973e 13b9 d2bd e77f 92be
00000200: 8c2b 85bd 1079 283e 75ae ca3d 6626 773d
00000210: e415 a1bb 9083 933e 2965 16be 4c33 19be
00000220: 32a8 3d3e 83a4 043e 79ce ca3d 4546 983d
00000230: c9db fb3d bdd2 d1bb f9c4 cfbd d468 6b3e
00000240: 6dae 1b3d 6f7f a6bc 43f1 3f3d 03a4 4fbe
00000250: ddb5 123e 0112 80bd 2202 ecbc 2104 69be
00000260: 889f 8abc 0fd7 a83d ad8e a03e a316 2d3e
00000270: 6239 5cbd 3f4e 163e c842 a03e 57e8 bfbd
00000280: c4c7 7dbe f3ca 5dbe ad0e c13e 83a2 5c3e
00000290: 2c65 14be 4f11 75be c492 e8bd b198 cc3e
000002a0: 6935 a43d 358e 9dbe 0df3 5d3d 2a10 853e
000002b0: 0115 8e3e a739 b0bc 67ea 1dbd 0f88 853d
000002c0: edaa 0bbe 95e1 e63d 1576 783e 43de fcbd
000002d0: c957 19bd 6ef9 c9be 1e6b fdbe 01c4 afbe
000002e0: b192 283d 8ca3 51be e208 653d 85bd 63be
000002f0: 80c1 cebc 7634 91be e0af 8a3e d6bb fcbd
00000300: 7698 6abd f34e d1bc f4c8 02be 01de 993d
00000310: 94e5 e8bc f380 89be 18ed b6bc 121a 363e
00000320: 6264 053d 498a efbd 4154 2ebe 4345 243e
00000330: c51a 90bc ec82 57be 5e16 04bf 4083 663b
00000340: 83de 29be fb9d 8e3e 5d83 893d ee45 653c
00000350: d445 87be f508 1abd cb4f 4bbe 5f46 cbbe
00000360: 0767 b83e f5bd 0c3e c25b 983c fcdb dcbe
00000370: eed3 6c3e 2c96 0c3d 9b50 04be 7087 b03d
00000380: 0918 f83e cc6d a13e a0c8 cdbe 5456 083e
00000390: 353b 733e da39 96be 922a a2be 28cf 80bb
000003a0: 4729 86b9 41af 73bd bfd7 acbd f15f a33c
000003b0: 8e3e 35be 2e14 923e 53e4 abbc 64a1 a93e
000003c0: 3bd2 55bd ef91 b93e df2a 103e c723 ca3e
000003d0: ea24 27bd 57a4 72be 630c 8abb 9d6b 263f
000003e0: 75b1 253e 0a83 c3be 69a0 96bc 9dfa db3d
000003f0: 3211 773e 3caf d3be 88a4 873d ae14 3d3d

fc.0.bias f4 [128]
-0.0982807 0.0936976 0.117487036 0.15233581 -0.074813224 0.3029769 0.37213555 -0.029510293
-0.2191894 0.3134006 0.068596564 0.14874917 0.15166125 -0.3113098 0.19362585 0.14415346
0.15839635 0.0062206034 0.008371659 -0.10571642 0.17202717 0.20027931 0.14836268 0.16773973
0.058790784 0.19063668 0.4513224 0.13813396 0.027510745 -0.017387444 0.12084899 0.13968581
0.009417134 0.32803684 -0.2215421 0.062752984 0.05899964 -0.009173823 0.06717046 0.2998924
0.18026915 0.051318575 0.20549344 0.35469344 0.19993876 0.021861829 0.29140058 -0.21697462
0.39751768 -0.011581559 0.06611529 0.34263468 0.12926412 0.21930477 -0.025280047 -0.15562443
0.17672923 0.12470335 -0.012626225 0.153291 0.21517882 0.09802371 0.14223072 -0.11191924
0.11524441 -0.034782704 0.11281273 0.19884287 0.31590596 -0.19085698 -0.16276217 0.05030405
0.097076334 -0.1968595 -0.06021308 -0.12776327 0.237822 -0.27246034 -0.14061108 0.28083518
0.26045647 0.17560317 0.2068073 0.040830184 0.23604587 -0.26862305 0.0037658887 -0.05890749
0.01523342 0.054984618 0.08632958 0.0012947166 -0.2579403 -0.04411073 -0.26424137 -0.25525075
0.19877963 0.13232294 0.0002636968 -0.23146297 0.07294995 0.28297064 0.15113465 0.1646032
0.0782226 0.19032864 -0.041728135 0.05305447 -0.069150485 0.118254416 -0.11831416 0.03947618
0.04499983 0.102921925 0.01470864 0.25413153 0.017614381 0.21832657 0.1328579 0.26477143
0.114568144 -0.20099552 -0.18388104 -0.17067789 -0.044474807 0.06730115 0.06351133 -0.06473574
00000000: 6447 c9bd 87e4 bf3d 0b9d f03d ebfd 1b3e
00000010: ad37 99bd ca1f 9b3e 8d88 be3e 92bf f1bc
00000020: 3073 60be 0b76 a03e 5b7c 8c3d b451 183e
00000030: 164d 1b3e 0064 9fbe db45 463e f79c 133e
00000040: a732 223e 34d6 cb3b 4829 093c da81 d8bd
00000050: e427 303e 0516 4d3e 63ec 173e f7c3 2b3e
00000060: 9bce 703d 4336 433e bb13 e73e fd72 0d3e
00000070: 375e e13c 1d70 8ebc ad7f f73d cc09 0f3e
00000080: 534a 1a3c 72f4 a73e efdb 62be a384 803d
00000090: 9ba9 713d cd4d 16bc ab90 893d 7f8b 993e
000000a0: 7a98 383e 6d33 523d df6c 523e 619a b53e
000000b0: bfbc 4c3e 9417 b33c 7532 953e 982e 5ebe
000000c0: 7087 cb3e 94c0 3dbc 7467 873d d06d af3e
000000d0: d05d 043e 6e91 603e 1a18 cfbc 035c 1fbe
000000e0: 82f8 343e 7864 ff3d 3ade 4ebc 51f8 1c3e
000000f0: d657 5c3e a8c0 c83d eea4 113e ea35 e5bd
00000100: 4305 ec3d 4f78 0ebd 5c0a e73d 779d 4b3e
00000110: 6dbe a13e 0370 43be 20ab 26be 9f0b 4e3d
00000120: f5cf c63d 8995 49be fea1 76bd 60d4 02be
00000130: 9c87 733e ec7f 8bbe 5afc 0fbe a1c9 8f3e
00000140: 8d5a 853e 51d1 333e 4bc5 533e 8d3d 273d
00000150: 02b6 713e f688 89be 21cd 763b fb48 71bd
00000160: 9895 793c 8d37 613d 90cd b03d 7bb3 a93a
00000170: c010 84be 74ad 34bd a54a 87be 3ab0 82be
00000180: e38c 4b3e aa7f 073e c940 8a39 a104 6dbe
00000190: c966 953d 87e1 903e 0bc3 1a3e be8d 283e
000001a0: 2c33 a03d 83e5 423e 1feb 2abd a54f 593d
000001b0: c59e 8dbd 5f2f f23d b24e f2bd c6b1 213d
000001c0: be51 383d bbc8 d23d 82fc 703c 871d 823e
000001d0: 094c 903c 0091 5f3e e70b 083e 1f90 873e
000001e0: b4a2 ea3d c5d1 4dbe 504b 3cbe 2fc6 2ebe
000001f0: 372b 36bd 2fd5 893d 3a12 823d 2c94 84bd

fc.3.weight f4 [27, 128]
-0.63919306 -0.534064 -0.38790882 -0.22733964 -0.41927016 -0.940043 -0.4090173 -0.3107849
-0.4540582 -0.6139994 0.03151838 -0.59850985 -0.07434222 -0.24554181 -0.124196805 -0.010831269
-0.10811 -0.38931426 -0.425739 -0.70162886 -0.5042819 -0.3562105 -0.25363627 -0.1951136
-0.32773662 -0.501716 -1.1856292 -0.7693981 -0.35077626 -0.32096034 -0.8075037 -0.22410807
-0.20313065 -0.5898689 -0.6294699 -0.09225595 -0.8329133 -0.74640745 -0.73043233 -0.7135529
-0.213322 -0.41172522 0.081163205 -0.039366204 -0.36559913 -0.42883107 0.008982808 -0.9730785
-0.85739726 -0.40143222 -0.6214458 -0.30046558 -0.19701637 -0.34039927 -0.53392804 -0.44684073
0.008800591 -0.30678806 -0.2139633 -0.27167284 -0.21560542 -0.5688305 -0.30225506 -0.05204722
-0.45567864 -0.8910326 -0.34181368 -0.37769854 -0.10786104 -0.20194614 -0.67395043 -0.107363164
-0.34176096 -0.5396723 -0.3163823 -0.5626868 -0.484358 -0.43940789 -0.5803538 -0.5931384
-0.518581 -0.58118284 -0.6172493 -0.63557345 -0.2602157 -0.4456496 -0.23471977 -0.59079945
0.0064863665 -0.34101206 -0.43964097 -0.027027564 -0.68437266 -0.7796627 -0.698205 -0.6214712
-0.5346211 -0.3944335 -0.28751254 -0.7159693 0.0056410334 0.068524346 -0.6422953 -0.1914782
-0.08082688 -0.34573305 -0.32430387 -0.31725845 -0.24734914 -0.38487178 -0.059245467 -0.27577087
0.40981364 -0.6641484 -0.33010936 -0.44717452 -0.71655244 -0.25011373 -0.13376322 -0.15188892
-0.55433136 0.15518521 -0.7694865 -0.72656596 -0.26169422 -0.73670334 -0.48093846 -0.046434887
0.0921111 0.16800041 -0.8387414 -0.49699804 -0.4205956 0.14587739 0.061637595 0.1775378
-0.13342868 0.05147659 -0.57374156 -0.90285784 -0.056076802 -0.2208592 0.13632295 0.07213223
0.25251338 -0.49816582 0.046777666 -0.6510697 -0.25762063 -0.14668675 0.1354758 0.14387316
0.058660973 0.10848588 0.1470712 0.07435978 -0.52421325 -0.19653559 0.19306058 0.18720715
0.06748277 0.019280065 0.09976282 -0.9007037 0.2082136 -0.35104766 0.06523542 -0.055333413
-0.47277188 0.13785726 -0.2816616 0.0092380345 -0.0763943 -0.23640384 -0.21247603 -0.09377716
0.08770232 0.2666439 0.21514258 -0.17043865 -0.42830527 0.19969095 0.079991125 0.012556712
0.09992657 0.18412687 -0.47945505 0.22867951 0.18156521 0.22554635 0.25530636 0.039068606
0.09159079 -0.0054078894 -0.12754303 0.18921055 0.16628897 -0.58645904 -0.65447825 -0.83584553
-0.40969926 -0.7440013 -0.33443117 -0.0052237636 0.14849694 0.08529704 0.0795848 0.032098107
0.046408534 0.24642444 -0.62210107 0.041182578 -0.18299097 -0.17287351 -0.08538045 0.0429744
-0.8089272 0.3234711 0.12149481 0.1972765 -0.7362266 0.023789616 -0.017992318 -0.33761898
-0.647822 0.099691026 -0.5867274 0.04081421 0.11964979 0.10174934 0.01860047 -0.057940427
-0.32915685 -0.23222858 -0.63726896 -0.35743764 -0.4708664 0.11907872 -0.43945837 -0.124234214
0.13225766 0.13194329 0.28538743 -0.038123485 0.07504236 0.18020606 0.17762679 0.12195678
-0.47581804 -0.729233 0.22988789 0.10433404 -0.52921665 0.18437947 -0.04246572 -0.6147294
00000000: 28a2 23bf 6bb8 08bf fc9b c6be b9cb 68be
00000010: 94aa d6be a8a6 70bf b76a d1be 331f 9fbe
00000020: 517a e8be 112f 1dbf 6b19 013d f137 19bf
00000030: bc40 98bd 506f 7bbe e55a febd a375 31bc
00000040: c768 ddbd 3354 c7be 76fa d9be f39d 33bf
00000050: 9e18 01bf 3961 b6be 9ddc 81be dccb 47be
00000060: 18cd a7be 7670 00bf b3c2 97bf 46f7 44bf
00000070: f298 b3be ea54 a4be 90b8 4ebf 967c 65be
00000080: 7b01 50be a601 17bf f024 21bf b0f0 bcbd
00000090: ce39 55bf 8f14 3fbf 9dfd 3abf 67ab 36bf
000000a0: 1571 5abe a6cd d2be e538 a63d 753e 21bd
000000b0: cf2f bbbe bf8f dbbe a12c 133c ac1b 79bf
000000c0: 637e 5bbf 8688 cdbe 1217 1fbf a0d6 99be
000000d0: a9be 49be d048 aebe 82af 08bf 4fc8 e4be
000000e0: 5b30 103c 5313 9dbe 3219 5bbe b418 8bbe
000000f0: abc7 5cbe e09e 11bf 2dc1 9abe 772f 55bd
00000100: b64e e9be b61a 64bf 3402 afbe b461 c1be
00000110: 40e6 dcbd f8ca 4ebe 0488 2cbf 38e1 dbbd
00000120: 4bfb aebe f727 0abf dcfc a1be 3e0c 10bf
00000130: c6fd f7be 12fa e0be 1192 14bf ebd7 17bf
00000140: b9c1 04bf 66c8 14bf 0d04 1ebf f1b4 22bf
00000150: fe3a 85be 2f2c e4be 615a 70be a23e 17bf
00000160: 968b d43b 2299 aebe 9f18 e1be e968 ddbc
00000170: 0c33 2fbf fa97 47bf 90bd 32bf bd18 1fbf
00000180: eedc 08bf 30f3 c9be d834 93be c449 37bf
00000190: 6bd8 b83b 7e56 8c3d 776d 24bf dc12 44be
000001a0: 9088 a5bd ec03 b1be 280b a6be b36f a2be
000001b0: 1849 7dbe ea0d c5be 60ab 72bd d731 8dbe
000001c0: 18d3 d13e a105 2abf 1804 a9be 0ff4 e4be
000001d0: fb6f 37bf e80e 80be 3af9 08be c588 1bbe
000001e0: a9e8 0dbf dfe8 1e3e 11fd 44bf 3a00 3abf
000001f0: c9fc 85be 9798 3cbf 913d f6be 8232 3ebd
00000200: bfa4 bc3d 4d08 2c3e c2b7 56bf 8776 febe
00000210: 4e58 d7be e260 153e b477 7c3d 78cc 353e
00000220: 87a1 08be 1ed9 523d bae0 12bf b121 67bf
00000230: cab0 65bd ea28 62be 3e98 0b3e 10ba 933d
00000240: 6f49 813e 970f ffbe f099 3f3d 81ac 26bf
00000250: dae6 83be 0d35 16be 2bba 0a3e 7c53 133e
00000260: 7d46 703d d82d de3d d599 163e f149 983d
00000270: d732 06bf a040 49be acb1 453e 3bb3 3f3e
00000280: 6834 8a3d 3af1 9d3c 7350 cc3d 8594 66bf
00000290: f235 553e 85bc b3be 269a 853d 4aa5 62bd
000002a0: 280f f2be 742a 0d3e f335 90be 205b 173c
000002b0: 9d74 9cbd d913 72be 5193 59be 3d0e c0bd
000002c0: 469d b33d 8d85 883e 564e 5c3e 7887 2ebe
000002d0: d44a dbbe c97b 4c3e 63d2 a33d abba 4d3c
000002e0: 4da6 cc3d c18b 3c3e 227b f5be f62a 6a3e
000002f0: 3bec 393e 9ff5 663e 84b7 823e 6706 203d
00000300: f493 bb3d aa34 b1bb a49a 02be 69c0 413e
00000310: a847 2a3e 2e22 16bf e38b 27bf f9f9 55bf
00000320: 1ac4 d1be df76 3ebf 903a abbe 1b2c abbb
00000330: 950f 183e 37b0 ae3d 5bfd a23d 4e79 033d
00000340: e016 3e3d b056 7c3e 0442 1fbf 10af 283d
00000350: fc61 3bbe c105 31be f2db aebd ed05 303d
00000360: da15 4fbf 019e a53e 45d2 f83d da02 4a3e
00000370: 5979 3cbf 71e2 c23c a064 93bc 65dc acbe
00000380: aad7 25bf cf2a cc3d c433 16bf cd2c 273d
00000390: f30a f53d f561 d03d 0360 983c f152 6dbd
000003a0: 3f87 a8be 54cd 6dbe 0f24 23bf 1102 b7be
000003b0: 6715 f1be 8bdf f33d b000 e1be 826e febd
000003c0: 8d6e 073e 241c 073e 4d1e 923e 5f27 1cbd
000003d0: cfaf 993d f087 383e cce3 353e 7ac4 f93d
000003e0: 6c9e f3be 04af 3abf bb67 6b3e 16ad d53d
000003f0: be7a 07bf f9cd 3c3e 89f0 2dbd e85e 1dbf

fc.3.bias f4 [27]
-1.1379696 0.23365586 0.45751745 -0.06700972 0.13686252 0.07150802 0.061105903 0.18837301
0.13380939 0.14980973 -0.33264077 -0.014802573 -0.12759168 -0.44350937 0.1404232 -0.005861297
-0.18017718 0.041904606 -0.3867653 -0.24176712 -0.19224827 0.12158065 -0.10907045 -0.06400404
0.2433276 -0.3673218 0.026192334
00000000: fda8 91bf 7b43 6f3e ba3f ea3e 643c 89bd
00000010: b025 0c3e cc72 923d 2f4a 7a3d dbe4 403e
00000020: 5405 093e b967 193e e44f aabe 7e86 72bc
00000030: 65a7 02be a913 e3be 19cb 0f3e 1f10 c0bb
00000040: 5e80 38be 2aa4 2b3d 1a06 c6be cd91 77be
00000050: bbdc 44be 47ff f83d 5460 dfbd 8d14 83bd
00000060: df2a 793e 9a11 bcbe 4e91 d63c

exp_avg f4 [4]
-0.0017217041 0.00019689387 0.0011613767 0.0006111896
00000000: ceaa e1ba 4c75 4e39 5639 983a 3d38 203a

exp_avg_sq f4 [4]
9.6925745e-05 7.025277e-05 9.658511e-05 0.00011779509
00000000: 9d44 cb38 ab54 9338 bc8d ca38 c208 f738

exp_avg f4 [16, 4, 3, 3]
-0.00016522582 0.004253074 0.0014260816 0.0031480882 0.011778692 0.0065906094 0.0027989994 0.0029887387
-0.009956269 0.00055711396 0.006756859 0.00094482023 0.0012541676 0.011723146 0.005888603 0.0018308223
0.004745291 -0.007884417 -0.0020810973 0.0029834227 0.0028731613 0.0008558987 0.010829601 0.0026574582
-0.0014930548 0.00035616412 -0.010267752 0.00012390834 0.0038549055 -0.0007144163 0.0021669331 0.007528634
0.0027233348 0.001028068 0.0034294103 -0.0062961234 -0.01058026 -0.005142216 0.0040855897 0.012614701
0.024538076 0.02319397 0.011606397 0.010383824 0.0085440995 -0.012243689 -0.008563353 0.0008700294
0.009986698 0.019138673 0.020794315 0.009112051 0.008646109 0.007764146 -0.007112791 -0.0025059571
0.0031669566 0.0101373885 0.017751062 0.012882146 0.0059750285 0.0049497085 -0.0006850242 -0.010123091
-0.003641427 0.006332363 0.008467707 0.01616971 0.015140097 0.009524703 0.00777088 0.0071951244
-0.005175492 0.004254723 0.008083672 0.0031937058 -7.982151e-05 -0.0028246637 0.008491682 0.0060817567
0.010257615 -0.0052293064 9.293255e-05 0.0072875675 0.0039092014 -0.0002961682 -0.0021689595 0.006714187
0.0052445936 0.0068057724 0.0013211186 0.002398719 0.006921088 0.003559522 -0.0030540342 -0.0029188653
0.010044986 0.0060029686 0.008162486 -0.0031152945 0.000109310706 0.0059197443 0.002760089 -0.0012950536
-0.0017272834 0.005066977 0.005482737 0.0063212933 -0.001356627 -0.0005435291 0.005108093 0.0010511719
-0.0036618114 0.00064665556 -0.00072365365 -0.004974427 -0.0043229205 -0.00057648605 -0.00065002043 0.0051687774
0.0004029927 -0.0015445908 0.000897025 -0.00022954417 -0.003351119 -0.004818186 0.0010131951 -0.0018213333
0.0016468249 0.0038490547 -0.0040178113 -0.0016637007 -0.0007174553 -0.0033652012 -0.0027941416 0.0010813443
0.00066490856 0.0022691481 0.0026917136 -0.0010110233 -0.00028795216 -0.00036341551 -0.002505954 -0.0027285498
-0.014333118 -0.013494842 -0.005942198 -0.008824727 -0.002190777 0.0071075712 0.0006097198 0.0098869065
0.0031889044 -0.010687023 -0.01749077 -0.009222528 -0.009339204 -0.0024534834 0.0052911113 0.00026362063
0.0070860023 0.0029342868 -0.013493504 -0.01013964 -0.0074408376 -0.0046723625 -0.00047534672 0.00080383435
0.0003376501 0.005831733 5.5523746e-05 -0.008836464 -0.012997295 -0.006377381 -0.0053596376 -0.0017183389
0.007517717 0.00043756378 0.0072189267 0.0029119188 0.0059272996 -0.001656586 0.0030039703 -0.00084080984
-0.0017658115 0.010637848 -0.014013658 -0.001938097 0.008812992 0.004691058 -0.0028425262 0.0018281427
0.00017273227 -0.0030472954 0.008342178 -0.012694969 -0.0047439532 0.007623111 0.0064307614 -0.0011049211
0.0010089683 -0.0009110238 -0.0040014517 0.007841095 -0.011459101 -0.0046371976 0.007949978 0.004867542
-0.00065401674 0.003742515 -0.0017150998 -0.0033528542 0.006422625 -0.011660393 -0.0042013437 0.004588222
0.027140824 0.013459931 0.0021096054 0.005641719 -0.0035246983 -0.010081364 0.0020446233 -0.0072511006
-0.022929907 0.024475804 0.013139897 0.0042173066 0.007255015 -0.0009674663 -0.0070603085 0.0030417156
-0.004630256 -0.018644573 0.018648231 0.009836704 -0.0010351264 0.0032715746 -0.0031769387 -0.010988278
0.004427889 -0.0018760761 -0.014963669 0.018396266 0.011755752 0.0027097808 0.004689522 -0.002181956
-0.00640341 0.0007256133 -0.005805938 -0.015314281 -0.0029364908 0.0015446544 -0.002383642 -0.0006082017
00000000: 7840 2db9 5f5d 8b3b 5ceb ba3a 2850 4e3b
00000010: 6afb 403c 0af6 d73b 6b6f 373b b7de 433b
00000020: 9e1f 23bc 490b 123a a468 dd3b d0ad 773a
00000030: e262 a43a 7012 403c 2ff5 c03b 34f8 ef3a
00000040: 637e 9b3b a42d 01bc 0563 08bb 8785 433b
00000050: a64b 3c3b 645e 603a a46e 313c c028 2e3b
00000060: 9bb2 c3ba 8abb ba39 133a 28bc 64ed 0139
00000070: 95a2 7c3b ab47 3bba 1b03 0e3b c2b2 f63b
00000080: fa79 323b 3dc0 863a f5bf 603b b64f cebb
00000090: d458 2dbc 0980 a8bb 69e0 853b e4ad 4e3c
000000a0: 1304 c93c 4801 be3c c228 3e3c ea20 2a3c
000000b0: 8dfc 0b3c c199 48bc 4e4d 0cbc af12 643a
000000c0: 3f9f 233c b5c8 9c3c d758 aa3c b64a 153c
000000d0: 69a8 0d3c 616a fe3b 6a12 e9bb fc3a 24bb
000000e0: b78c 4f3b 4a17 263c ad6a 913c a30f 533c
000000f0: 2cca c33b 2a31 a23b 3293 33ba 52db 25bc
00000100: 02a5 6ebb b67f cf3b 23bc 0a3c 5776 843c
00000110: 2b0e 783c 800d 1c3c dea2 fe3b 14c5 eb3b
00000120: 2c97 a9bb 346b 8b3b 6171 043c 7e4d 513b
00000130: d965 a7b8 fe1d 39bb b220 0b3c 7949 c73b
00000140: 8e0f 283c 9a5a abbb c8e4 c238 8ccc ee3b
00000150: c218 803b 0647 9bb9 1a25 0ebb af02 dc3b
00000160: d7da ab3b f502 df3b 6229 ad3a d433 1d3b
00000170: 4bca e23b df46 693b 3126 48bb 6f4a 3fbb
00000180: ba93 243c 8db4 c43b f3bb 053c f829 4cbb
00000190: bd3d e538 6afa c13b 9ce2 343b cabe a9ba
000001a0: 0366 e2ba e208 a63b 88a8 b33b da22 cf3b
000001b0: d9d0 b1ba 9f7b 0eba ca61 a73b 7ac7 893a
000001c0: 00fb 6fbb 5284 293a 93b3 3dba 8500 a3bb
000001d0: 49a7 8dbb 531f 17ba 2266 2aba d95e a93b
000001e0: c448 d339 de73 caba 5426 6b3a cbb1 70b9
000001f0: 739e 5bbb e0e1 9dbb 30cd 843a ceb9 eeba
00000200: 46da d73a 6c40 7c3b d8a7 83bb 8810 daba
00000210: 9c13 3cba b58a 5cbb eb1d 37bb e5bb 8d3a
00000220: 424d 2e3a fdb5 143b 7667 303b 5084 84ba
00000230: 49f8 96b9 ce88 beb9 ee3a 24bb 78d1 32bb
00000240: 74d5 6abc 7819 5dbc c5b6 c2bb 9695 10bc
00000250: 2493 0fbb a1e6 e83b 9ad5 1f3a b1fc 213c
00000260: f0fc 503b a018 2fbc ce48 8fbc 161a 17bc
00000270: 7603 19bc 9fca 20bb 0f61 ad3b 9036 8a39
00000280: b231 e83b 2a4d 403b dc13 5dbc bc20 26bc
00000290: 45d2 f3bb 9e1a 99bb f537 f9b9 69b8 523a
000002a0: a106 b139 1f18 bf3b 2be2 6838 d1c6 10bc
000002b0: 9bf2 54bc 59f9 d0bb e69f afbb e339 e1ba
000002c0: 2e57 f63b d168 e539 bf8c ec3b e4d5 3e3b
000002d0: cb39 c23b cd21 d9ba 42de 443b cb69 5cba
000002e0: cd72 e7ba 5e4a 2e3c 8b99 65bc be07 feba
000002f0: 5e64 103c 72b7 993b ad49 3abb 4a9e ef3a
00000300: 771f 3539 22b5 47bb a1ad 083c 8ffe 4fbc
00000310: 2a73 9bbb 4acb f93b 23b9 d23b 00d3 90ba
00000320: 5c3f 843a c6d1 6eba 9c1e 83bb f077 003c
00000330: f4be 3bbc a2f3 97bb a040 023c e77f 9f3b
00000340: 5272 2bba fc44 753b 33cd e0ba 8fbb 5bbb
00000350: e274 d23b 3c0b 3fbc 6dab 89bb cc58 963b
00000360: 6f56 de3c 0b87 5c3c 4e41 0a3b 2bde b83b
00000370: a0fe 66bb 4e2c 25bc 16ff 053b a49a edbb
00000380: 80d7 bbbc 7b81 c83c b948 573c 5531 8a3b
00000390: 7abb ed3b 909d 7dba 295a e7bb 8557 473b
000003a0: 67b9 97bb 81bc 98bc 2dc4 983c 202a 213c
000003b0: 14ad 87ba ea67 563b 3034 50bb 2e08 34bc
000003c0: d317 913b abe6 f5ba 2d2a 75bc c4b3 963c
000003d0: 339b 403c 9496 313b 90aa 993b 26ff 0ebb
000003e0: b2d3 d1bb 1637 3e3a bd3f bebb c0e8 7abc
000003f0: 2472 40bb 0076 ca3a e036 1cbb ba6f 1fba

exp_avg_sq f4 [16, 4, 3, 3]
0.0026598228 0.0036272125 0.005082391 0.0028521472 0.004523827 0.0049634194 0.0023762507 0.002245134
0.0034355705 0.0020111143 0.0025258365 0.0037531646 0.001880982 0.003415682 0.0038340762 0.0016423495
0.0016664845 0.0024804976 0.0017934025 0.0023661074 0.003200752 0.0019138297 0.0029435712 0.0031812717
0.0014998451 0.0014876643 0.002227514 0.0012104902 0.0015838317 0.0023034676 0.0011930588 0.002113799
0.0022933984 0.0011627941 0.0010196808 0.001526031 0.003311844 0.00295444 0.0029655055 0.0028948358
0.002101645 0.002742788 0.0029195924 0.0023000252 0.003310012 0.002533517 0.0023535476 0.0024849712
0.0022559979 0.0014573245 0.0021719027 0.0023852887 0.0015138434 0.0024828047 0.0020659708 0.0019234285
0.0019774158 0.0019939765 0.0013944203 0.0018906022 0.0019828267 0.0013076732 0.0019406837 0.0014385146
0.0013427136 0.0015149233 0.0013927006 0.00092284736 0.0013773544 0.0015716163 0.0010767677 0.0015996051
0.0029177752 0.003138197 0.0013314044 0.0032490813 0.0026809766 0.0012151548 0.0028136144 0.0014266876
0.0025114561 0.0022228367 0.0025949643 0.0011329405 0.0024939305 0.002513737 0.00091302133 0.0022561573
0.0011877118 0.0016395879 0.0018485077 0.0021483134 0.0013129987 0.0021115679 0.001904163 0.0010783788
0.0018159569 0.0012633095 0.0018648087 0.0013970921 0.0016660851 0.0006206878 0.0015749576 0.0015008117
0.00051490794 0.0014586404 0.00075177813 0.0011664663 0.0013288471 0.0008677345 0.00084455626 0.0011473042
0.00036177144 0.00028251577 0.000517575 0.0004714894 0.00077245495 0.0011117316 0.0007891556 0.0007517557
0.0009947028 0.00029845868 0.00016498641 0.0004857751 0.0004409116 0.0006012925 0.0009104385 0.00049742917
0.00042076272 0.0008058092 0.0003238929 0.00023596334 0.00028658452 0.00023161166 0.00039052495 0.0006468731
0.00040703916 0.0003570976 0.0005668428 0.00022619279 0.00014849263 0.00025211676 0.00020072627 0.00029013457
0.0032217337 0.0039666714 0.004185503 0.0023732018 0.001550371 0.0036808986 0.0034079058 0.003457196
0.001642779 0.002463027 0.003478529 0.0033015658 0.0022422646 0.001021741 0.002979869 0.00254954
0.0029671907 0.0012328535 0.002252094 0.002206872 0.0022868086 0.0017302417 0.0011320852 0.002029328
0.002393685 0.0022705118 0.0014933087 0.0016317489 0.001986308 0.0020459362 0.0013378507 0.0005879295
0.0019129557 0.0018524016 0.0019606282 0.00072747265 0.0017513483 0.00093037187 0.001884333 0.0016982297
0.0028055662 0.0016283882 0.0022888593 0.0027019847 0.0015693606 0.0014657986 0.00072430045 0.001444696
0.0013166819 0.0021971446 0.0012848825 0.001679488 0.0021163134 0.0012410147 0.0012728724 0.0006747577
0.001464086 0.00091615407 0.0020201583 0.001382707 0.0013907821 0.0018156287 0.0011915895 0.00090482744
0.00048055316 0.00077202084 0.00079209363 0.0012987957 0.00073900574 0.0010818368 0.0012610791 0.0007555091
0.0020306045 0.0021721448 0.0022449777 0.0013601009 0.0011565343 0.0023097193 0.0008129914 0.001995529
0.0016800722 0.0016454275 0.0017394837 0.0017632478 0.0011841086 0.0008906717 0.0016489229 0.00056650356
0.0013926201 0.0013150059 0.0014671478 0.0013526698 0.0013408818 0.0008293203 0.0007404869 0.001449197
0.0007132348 0.0013061856 0.0009887405 0.0009882505 0.001044346 0.0010062844 0.0007032085 0.0005028143
0.001071934 0.0003534012 0.0009839786 0.00086990907 0.00074207655 0.00048620082 0.0001834877 0.00035800153
00000000: 6c50 2e3b 87b6 6d3b 308a a63b 17eb 3a3b
00000010: 9d3c 943b 2ea4 a23b dfba 1b3b 1923 133b
00000020: 4f27 613b e6cc 033b 8188 253b a7f7 753b
00000030: 488b f63a a2d9 5f3b 2045 7b3b 1b44 d73a
00000040: f16d da3a d88f 223b 9a10 eb3a b210 1b3b
00000050: b5c3 513b 78d9 fa3a eee8 403b e27c 503b
00000060: 7396 c43a bbfd c23a 7cfb 113b 50a9 9e3a
00000070: 9398 cf3a c6f5 163b 6960 9c3a aa87 0a3b
00000080: d74c 163b e568 983a cfa6 853a 1a05 c83a
00000090: 860b 593b 479f 413b ed58 423b 49b7 3d3b
000000a0: c1bb 093b 59c0 333b a256 3f3b 05bc 163b
000000b0: c9ec 583b 5d09 263b fa3d 1a3b e6da 223b
000000c0: 5dd9 133b b203 bf3a 7b56 0e3b 8152 1c3b
000000d0: 286c c63a 8db6 223b 3d65 073b 8d1b fc3a
000000e0: 8897 013b 60ad 023b fbc4 b63a 15ce f73a
000000f0: 50f2 013b 3b66 ab3a 8a5e fe3a 8a8c bc3a
00000100: fefd af3a 6490 c63a 478b b63a 3deb 713a
00000110: 5888 b43a b1fe cd3a 5422 8d3a d7a9 d13a
00000120: 2538 3f3b 35aa 4d3b 8582 ae3a 8aee 543b
00000130: 53b3 2f3b d445 9f3a 9e64 383b b1ff ba3a
00000140: 3e97 243b 03ad 113b 4710 2a3b 2d7f 943a
00000150: 3671 233b 82bd 243b d357 6f3a 0adc 133b
00000160: ffac 9b3a 71e7 d63a a049 f23a b8ca 0c3b
00000170: ed18 ac3a 3b62 0a3b 1c95 f93a 6358 8d3a
00000180: 6705 ee3a a295 a53a 996c f43a a21e b73a
00000190: 8a60 da3a a7b5 223a cf6e ce3a e2b6 c43a
000001a0: e3fa 063a da2f bf3a fa12 453a 1de4 983a
000001b0: b62c ae3a ad78 633a 3665 5d3a 2461 963a
000001c0: 24ac bd39 a01e 9439 dfad 073a 3c32 f739
000001d0: 937e 4a3a 86b7 913a 56df 4e3a 7911 453a
000001e0: b060 823a 727a 9c39 3400 2d39 a1af fe39
000001f0: 272a e739 0ea0 1d3a 7eaa 6e3a e865 023a
00000200: d199 dc39 f13c 533a 2bd0 a939 ed6c 7739
00000210: b940 9639 c8dc 7239 5fbf cc39 eb92 293a
00000220: df67 d539 d438 bb39 2d98 143a 2a2e 6d39
00000230: b0b4 1b39 8a2e 8439 0c7a 5239 341d 9839
00000240: b923 533b dafa 813b 8b26 893b b887 1b3b
00000250: d135 cb3a 3b3b 713b 2c57 5f3b 2092 623b
00000260: 8452 d73a bc6a 213b 08f8 633b 155f 583b
00000270: f5f2 123b f0eb 853a e849 433b 2f16 273b
00000280: 3375 423b b397 a13a de97 133b 2ba1 103b
00000290: 48de 153b 47c9 e23a 7a62 943a 79fe 043b
000002a0: 5fdf 1c3b decc 143b 20bb c33a 68e0 d53a
000002b0: b82c 023b 1d15 063b d25a af3a 481f 1a3a
000002c0: 24bc fa3a 49cc f23a e27d 003b ddb3 3e3a
000002d0: 7f8d e53a 33e4 733a b9fb f63a 2297 de3a
000002e0: 97dd 373b a46f d53a b000 163b c813 313b
000002f0: 01b3 cd3a 0a20 c03a fbde 3d3a f45b bd3a
00000300: 8394 ac3a f8fd 0f3b 8169 a83a 4422 dc3a
00000310: d9b1 0a3b 8ba9 a23a 83d6 a63a 39e2 303a
00000320: 93e6 bf3a 0f2a 703a a264 043b f33b b53a
00000330: e74a b63a 64fa ed3a 1c2f 9c3a f131 6d3a
00000340: c1f2 fb39 7161 4a3a 81a4 4f3a 5a3c aa3a
00000350: d6b9 413a 6bcc 8d3a cb4a a53a 5c0d 463a
00000360: e413 053b 8b5a 0e3b 7a20 133b 6a45 b23a
00000370: da96 973a a95e 173b ee1e 553a 6cc7 023b
00000380: de35 dc3a 63ab d73a 63ff e33a c71c e73a
00000390: 1734 9b3a f77b 693a ac20 d83a 6981 143a
000003a0: 9488 b63a 475c ac3a 504d c03a 114c b13a
000003b0: 87c0 af3a be66 593a 3c1d 423a fbf2 bd3a
000003c0: 61f8 3a3a 5134 ab3a a098 813a 2f88 813a
000003d0: 70e2 883a 4de5 833a 8657 383a 4ccf 033a
000003e0: 2380 8c3a b548 b939 d8f8 803a 9c0a 643a
000003f0: ea87 423a c5e8 fe39 9b66 4039 27b2 bb39

exp_avg f4 [16]
-7.72161e-10 3.7208311e-10 -1.8799719e-11 3.0312736e-10 4.939129e-10 -5.6630693e-11 -2.6520464e-10 -4.9961243e-11
3.209355e-11 2.6657587e-10 -2.4865557e-10 2.437885e-10 -3.0874264e-10 -9.712797e-11 -4.6644155e-10 -1.1467476e-09
00000000: 0040 54b0 0b8e cc2f 345d a5ad 62a5 a62f
00000010: 08c4 0730 7e10 79ae 3ccc 91af 5cbb 5bae
00000020: 2026 0d2e 388d 922f 29b3 88af 2e06 862f
00000030: aabb a9af 3096 d5ae e836 00b0 989b 9db0

exp_avg_sq f4 [16]
8.486986e-18 5.557818e-18 4.1892384e-18 1.878095e-18 7.6173e-18 3.3834073e-18 3.705103e-18 1.0217346e-18
7.875531e-19 6.3284214e-18 6.2391607e-18 1.9610264e-18 9.893439e-19 1.74341e-18 8.289229e-18 3.3361875e-17
00000000: a98e 1c23 1b0c cd22 3d8e 9a22 3694 0a22
00000010: af83 0c23 c2a6 7922 b5b1 8822 0bc8 9621
00000020: d471 6821 407a e922 352f e622 beb2 1022
00000030: 5b00 9221 15a4 0022 c7e8 1823 c0da 1924

exp_avg f4 [16]
0.013518923 0.010160579 -0.005551592 -0.02950638 0.0023746334 0.009492726 -0.0010081327 -0.008576503
-0.0029904942 0.0007413 0.0063841455 -0.022905072 0.004901519 -0.01774592 0.016322162 -0.02100016
00000000: 797e 5d3c 8f78 263c 21ea b5bb 5db7 f1bc
00000010: bd9f 1b3b 6187 1b3c 5223 84ba 7684 0cbc
00000020: 2bfc 43bb cd53 423a 1832 d13b 6ba3 bbbc
00000030: ec9c a03b e45f 91bc 0eb6 853c 8708 acbc

exp_avg_sq f4 [16]
0.023733199 0.015164305 0.005272729 0.008370095 0.010940873 0.005873632 0.010457777 0.007201813
0.010384488 0.006724801 0.018516053 0.007210781 0.012769413 0.011490182 0.012373419 0.023961827
00000000: 206c c23c b573 783c dbc6 ac3b b922 093c
00000010: 5941 333c 9977 c03b 1957 2b3c 30fd eb3b
00000020: b323 2a3c b85b dc3b faae 973c 6a48 ec3b
00000030: cd36 513c 5141 3c3c e1b9 4a3c 984b c43c

exp_avg f4 [16]
0.0126243 0.0022996392 -0.0019825639 -0.0095441 0.0050728475 0.007652975 -0.0006541448 0.00021270645
-0.0017783445 -0.00016740093 0.0054643154 -0.01536383 -0.00042599198 -0.011064615 0.004614577 -0.006677444
00000000: 27d6 4e3c 8bb5 163b e7ed 01bb db5e 1cbc
00000010: 213a a63b cfc5 fa3b ea7a 2bba f409 5f39
00000020: 5717 e9ba 5888 2fb9 000e b33b 93b8 7bbc
00000030: ad57 dfb9 5c48 35bc e135 973b 76ce dabb

exp_avg_sq f4 [16]
0.0061762743 0.006129601 0.0019783787 0.0021083758 0.0026255269 0.0014921597 0.0037214444 0.0018044792
0.0029875205 0.0014802618 0.0049035307 0.0025274605 0.003644785 0.0034501585 0.0027111385 0.0056687263
00000000: 5862 ca3b d2da c83b b0a7 013b ad2c 0a3b
00000010: 0811 2c3b 9294 c33a 7ae3 733b 4684 ec3a
00000020: 47ca 433b 5805 c23a ccad a03b c0a3 253b
00000030: 58dd 6e3b 0e1c 623b 5bad 313b b9c0 b93b

exp_avg f4 [4, 16, 1, 1]
-0.00064228894 7.225838e-05 -1.3459455e-05 -0.00024599416 -0.0006432918 0.00068416906 -0.00054456765 0.0003129924
0.00055130705 0.00056211365 -0.00051181135 0.00017754099 -5.7298712e-05 -0.00061027415 0.0002167875 -0.0005154604
0.00024400408 -6.374686e-05 -0.00021140015 -0.00036989205 -0.00015757991 -0.00022276885 -0.00019771638 3.7383084e-05
-0.00038542473 -7.262828e-05 0.00034209705 -0.00015579059 -6.0283266e-05 -3.264798e-05 -9.146877e-05 0.0003560282
-8.162533e-06 -0.00010001475 -0.00014114742 -3.755276e-05 -4.787623e-05 -8.900017e-05 -3.4961424e-05 -5.999714e-05
-6.211067e-05 -4.4380984e-05 1.8520479e-05 -8.808122e-05 4.3455752e-06 1.11279605e-05 -4.7927264e-05 1.3616958e-05
-0.0010274217 -0.0005182478 -0.0007591627 0.00016687393 -0.0008380026 9.731241e-05 -0.00058011775 -0.00021359642
0.0011418166 5.181288e-05 -0.00050406664 3.9584655e-05 -0.00036967394 -0.0008294989 -0.00013499611 -0.0008805884
00000000: 485f 28ba 6c89 9738 ebcf 61b7 c7f8 80b9
00000010: 95a2 28ba cf59 333a 51c1 0eba 2119 a439
00000020: 9785 103a cf5a 133a 142b 06ba 4c2a 3a39
00000030: 0654 70b8 cefa 1fba 7451 6339 f61f 07ba
00000040: 59db 7f39 d6af 85b8 4cab 5db9 12ee c1b9
00000050: 093c 25b9 0f97 69b9 1652 4fb9 c8cb 1c38
00000060: d512 cab9 0350 98b8 7d5b b339 b85b 23b9
00000070: aad8 7cb8 80ef 08b8 ecd2 bfb8 4ca9 ba39
00000080: d0f1 08b7 03bf d1b8 f900 14b9 f881 1db8
00000090: b6ce 48b8 9aa5 bab8 8ba3 12b8 70a5 7bb8
000000a0: 6941 82b8 b825 3ab8 6d5c 9b37 3fb8 b8b8
000000b0: 35d0 9136 3ab2 3a37 8205 49b8 6474 6437
000000c0: 8daa 86ba 05db 07ba 8c02 47ba e1fa 2e39
000000d0: 67ad 5bba 3414 cc38 0b13 18ba daf8 5fb9
000000e0: 02a9 953a a851 5938 5723 04ba b307 2638
000000f0: ccd0 c1b9 bb72 59ba be8d 0db9 4ad7 66ba

exp_avg_sq f4 [4, 16, 1, 1]
2.7656872e-05 5.6514105e-05 5.996584e-05 1.3608513e-05 1.6928363e-05 3.3393226e-05 2.1248783e-05 1.9824563e-05
3.6606747e-05 3.319601e-05 1.4700998e-05 4.2594824e-05 2.5463993e-05 3.8185906e-05 3.7395926e-05 2.8019616e-05
7.708379e-06 1.5355177e-05 2.092946e-05 4.164539e-06 6.257711e-06 9.274568e-06 7.209021e-06 4.5283236e-06
1.44605265e-05 8.460286e-06 4.150527e-06 1.244679e-05 7.355662e-06 1.0989518e-05 8.293794e-06 7.712121e-06
5.8028405e-08 2.160498e-07 6.1392524e-07 8.740363e-08 1.8227986e-07 2.7761098e-07 1.3626313e-07 3.993854e-08
8.5147235e-07 1.470514e-07 6.2606816e-08 3.430928e-07 4.613422e-08 7.290524e-08 6.754723e-08 7.193863e-08
3.645019e-05 7.536164e-05 7.507181e-05 2.2168828e-05 1.7680904e-05 5.6396482e-05 2.3823053e-05 3.3910386e-05
4.504679e-05 5.4057193e-05 1.8980068e-05 6.513023e-05 3.2847267e-05 4.2136435e-05 6.043917e-05 3.4231525e-05
00000000: ae00 e837 8f09 6d38 d583 7b38 1e50 6437
00000010: 6201 8e37 b40f 0c38 6a3f b237 ed4c a637
00000020: 328a 1938 f23b 0b38 4ea4 7637 d8a7 3238
00000030: 829b d537 ce29 2038 92d9 1c38 ab0b eb37
00000040: 3c53 0137 fece 8037 ac91 af37 1ebd 8b36
00000050: 54f9 d136 f799 1b37 05e5 f136 01f2 9736
00000060: 7d9b 7237 a7f0 0d37 c144 8b36 8ed2 5037
00000070: a8d0 f636 9f5f 3837 9325 0b37 4f63 0137
00000080: e83a 7933 51fb 6734 9fcc 2435 a7b2 bb33
00000090: b5b8 4334 900a 9534 b94f 1234 e488 2b33
000000a0: bc90 6435 2ee5 1d34 7672 8633 5132 b834
000000b0: 1d25 4633 1490 9c33 7b0e 9133 ae7c 9a33
000000c0: 18e2 1838 790b 9e38 df6f 9d38 32f7 b937
000000d0: 7451 9437 438b 6c38 9ed7 c737 003b 0e38
000000e0: 9ff0 3c38 78bb 6238 6337 9f37 8796 8838
000000f0: 7cc5 0938 a7bb 3038 1180 7d38 d293 0f38

exp_avg f4 [4]
-0.0011818382 -0.0012874384 -0.00027833274 -0.0021130112
00000000: e9e7 9aba 44bf a8ba 30ed 91b9 727a 0abb

exp_avg_sq f4 [4]
0.000815748 0.00026046246 5.4009774e-06 0.0010732228
00000000: ecd7 553a ae8e 8839 0b3a b536 62ab 8c3a
