saved_models/emnist_cnn_pro.pth (torch, 967410 bytes, 45 tensors)

conv1.weight f4 [9, 1, 3, 3]
0	0x3f800000	1.0
1	0x3f800000	1.0
2	0x00000000	0.0
3	0x3f800000	1.0
4	0x00000000	0.0
5	0x3f800000	1.0
6	0x3f800000	1.0
7	0x3f800000	1.0
8	0x00000000	0.0
9	0x00000000	0.0
10	0x3f800000	1.0
11	0x00000000	0.0
12	0x3f800000	1.0
13	0x00000000	0.0
14	0x00000000	0.0
15	0x00000000	0.0
16	0x3f800000	1.0
17	0x00000000	0.0
18	0x00000000	0.0
19	0x00000000	0.0
20	0x3f800000	1.0
21	0x00000000	0.0
22	0x3f800000	1.0
23	0x3f800000	1.0
24	0x00000000	0.0
25	0x3f800000	1.0
26	0x3f800000	1.0
27	0x00000000	0.0
28	0x00000000	0.0
29	0x00000000	0.0
30	0x00000000	0.0
31	0x00000000	0.0
32	0x3f800000	1.0
33	0x3f800000	1.0
34	0x3f800000	1.0
35	0x00000000	0.0
36	0x00000000	0.0
37	0x3f800000	1.0
38	0x3f800000	1.0
39	0x3f800000	1.0
40	0x3f800000	1.0
41	0x3f800000	1.0
42	0x3f800000	1.0
43	0x00000000	0.0
44	0x00000000	0.0
45	0x3f800000	1.0
46	0x3f800000	1.0
47	0x00000000	0.0
48	0x00000000	0.0
49	0x00000000	0.0
50	0x3f800000	1.0
51	0x3f800000	1.0
52	0x3f800000	1.0
53	0x3f800000	1.0
54	0x3f800000	1.0
55	0x00000000	0.0
56	0x3f800000	1.0
57	0x00000000	0.0
58	0x00000000	0.0
59	0x3f800000	1.0
60	0x3f800000	1.0
61	0x3f800000	1.0
62	0x00000000	0.0
63	0x3f800000	1.0
64	0x00000000	0.0
65	0x00000000	0.0
66	0x3f800000	1.0
67	0x00000000	0.0
68	0x3f800000	1.0
69	0x3f800000	1.0
70	0x00000000	0.0
71	0x3f800000	1.0
72	0x00000000	0.0
73	0x3f800000	1.0
74	0x3f800000	1.0
75	0x3f800000	1.0
76	0x3f800000	1.0
77	0x3f800000	1.0
78	0x3f800000	1.0
79	0x3f800000	1.0
80	0x00000000	0.0

conv1.bias f4 [9]
0	0xbf081ab8	-0.5316577
1	0x3ed12764	0.40850365
2	0xbe02bcc6	-0.12767324
3	0xbe93e743	-0.28887376
4	0x3efe01e5	0.4961082
5	0x3f55bd4b	0.83491963
6	0x3e24fc80	0.16111946
7	0xbf2cd884	-0.67517877
8	0x3f2c1ea3	0.6723425

conv2.0.weight f4 [16, 9, 3, 3]
0	0x3bdae907	0.006680611
1	0x3d3de0d6	0.046357
2	0x3dc088a1	0.0940106
3	0x3c20a88c	0.00980581
4	0xbd1f7046	-0.03892543
5	0x3e37111e	0.17877623
6	0x3e182b55	0.1486028
7	0xbe6cfd9d	-0.23143621
8	0x3e0d62e7	0.1380726
9	0x3e211f7c	0.15734667
10	0x3eb4e93a	0.35334188
11	0x3f12daf9	0.57365376
12	0x3eab497a	0.33454496
13	0x3e152cd5	0.14567883
14	0x3f53b73b	0.8270146
15	0x3ea5bf8b	0.32372698
16	0x3ddb2c9e	0.107018694
17	0x3dfb1a6b	0.12260898
18	0xbe6f4556	-0.23366293
19	0x3e925325	0.2857906
20	0xbe851e59	-0.25999716
21	0xbebf339b	-0.3734406
22	0x3e78aad3	0.24283914
23	0x3db9f8a8	0.090806305
24	0xbe0eb5a3	-0.13936476
25	0x3d84b194	0.06479183
26	0x3d8b08f4	0.06788817
27	0x3e1e282f	0.15445016
28	0x39b63324	0.00034751848
29	0x3ec9915e	0.3936872
30	0x3e05ba19	0.13059272
31	0x3dd3f3c9	0.10349233
32	0xbdf76c51	-0.120812066
33	0x3ed8f000	0.42370605
34	0x3b2d1d5d	0.0026415207
35	0xbe9e1626	-0.30876273
36	0x3e121910	0.14267373
37	0xbd80fa87	-0.06297784
38	0xbea397cf	-0.31951758
39	0x3d3f1ce3	0.046658408
40	0xbc8fa5ce	-0.017535117
41	0xbe34d445	-0.176591
42	0x3d57eaa1	0.052713994
43	0xbdbae3d8	-0.09125489
44	0x3e554972	0.20828798
45	0xbe23fa3c	-0.16013426
46	0x3e3eb80d	0.18624897
47	0xbe352840	-0.17691135
48	0xbe882fe6	-0.26599044
49	0x3dd8a27f	0.10577869
50	0x3e638f45	0.22222622
51	0xbd96656b	-0.07343563
52	0xbea17426	-0.31533927
53	0x3e5e795a	0.2172598
54	0xbd8616e1	-0.065473326
55	0xbcf7d1e6	-0.030251455
56	0x3dbfe7df	0.09370398
57	0xbe45f1a1	-0.19330455
58	0xbe49cb13	-0.19706373
59	0xbeb66eb1	-0.35631326
60	0x3da8d2be	0.08243321
61	0xbe16a10b	-0.1470987
62	0xbe43d074	-0.19122487
63	0xbc94e51d	-0.018175656
64	0x3ea00b76	0.31258744
65	0xbc383f60	-0.0112455785
66	0x3cad55b5	0.021159032
67	0xbc354bd6	-0.011065444
68	0x3f073ba7	0.528254
69	0x3e4b39b7	0.19846235
70	0xbebe6e20	-0.37193394
71	0x3e33884c	0.17532462
72	0x3cbdf809	0.023189561
73	0x3ada2299	0.0016642391
74	0xbe4c2d70	-0.19939208
75	0x3d839c61	0.06426311
76	0xbe762fc3	-0.24041657
77	0xbe7d0f2b	-0.24712817
78	0x3d6732c1	0.056444887
79	0xbdf4dd59	-0.11956281
80	0xbca5d13b	-0.02024137
81	0x3dabb253	0.08383622
82	0xbe8517bb	-0.25994667
83	0x3e10f7f1	0.14157082
84	0xbd5a7cb1	-0.05334157
85	0xbe96e233	-0.2946945
86	0x3e5614a9	0.20906319
87	0xbd4b5b65	-0.049647707
88	0xbe347627	-0.17623197
89	0x3e66116b	0.22467582
90	0xbb8124d3	-0.0039411574
91	0x3e21b36a	0.15791097
92	0x3eb1b622	0.3470927
93	0x3d0147c9	0.0315626
94	0xbdad8f4d	-0.08474598
95	0x3ed98ed1	0.42491773
96	0xbd75ced8	-0.060011715
97	0x3d969fcf	0.073547
98	0x3c0a264a	0.00843198
99	0xbcb30e58	-0.021857426
100	0x3e806133	0.25074157
101	0xbdb3e4b6	-0.087838575
102	0xbdf5f931	-0.1201042
103	0x3f19fb18	0.60148764
104	0xbea4ca17	-0.32185432
105	0x3e243a40	0.16037846
106	0x3f1edc3d	0.62054807
107	0xbe8258b5	-0.25458303
108	0x3f1df83f	0.6170692
109	0x3d5a8d02	0.05335713
110	0xbde423d3	-0.111396454
111	0x3c8a71f2	0.016900036
112	0x3da7da90	0.08195984
113	0xbdcb2d16	-0.09920709
114	0x3e79cfd3	0.24395685
115	0x3f07ed05	0.5309604
116	0xbe8a47db	-0.27007946
117	0x3f0bfb43	0.5468027
118	0x3dec2892	0.11531176
119	0xbde0eeac	-0.10983023
120	0xbccc964d	-0.024974013
121	0xbc506163	-0.012718531
122	0xbd81eb62	-0.06343724
123	0xbe58b1ea	-0.21161619
124	0x3d9b364e	0.07578717
125	0xbd92b037	-0.071625166
126	0xbf017f78	-0.50585127
127	0x3d09d60b	0.033651393
128	0xbce720bf	-0.028213857
129	0xbe9bdc5d	-0.3044156
130	0xbcfd0225	-0.030884812
131	0x3d15cc08	0.036571532
132	0xbdf4679a	-0.11933823
133	0xbe872c90	-0.26401186
134	0xbdf8d479	-0.12149901
135	0xbc81d008	-0.015846267
136	0xbe352e48	-0.17693436
137	0x3d58d4fa	0.052937485
138	0xbc142024	-0.009040866
139	0x3d3747ca	0.044746198
140	0xbe1086c4	-0.14113909
141	0xbc4ecf91	-0.01262273
142	0x3dfa05c8	0.12208134
143	0xbdadb7bb	-0.084823094
144	0x3e97ef4a	0.2967475
145	0x3e898a74	0.26863444
146	0x3e07a6ef	0.13247274
147	0x3d9f1a06	0.077686355
148	0xbde0dc96	-0.109795734
149	0x3e8f3898	0.27972865
150	0x3e2813d8	0.1641382
151	0xbde4f4e8	-0.11179525
152	0x3e5df2a1	0.21674587
153	0x3e2b579d	0.1673264
154	0xbd74b83b	-0.05974601
155	0x3be656cf	0.0070293914
156	0xbcf5208f	-0.029922752
157	0xbbd4bb83	-0.0064920797
158	0xbdcb7abf	-0.09935521
159	0xbe417f7c	-0.18896288
160	0x3e3b6c8e	0.18303129
161	0xbc9518cc	-0.0182003
162	0xbdedc4fd	-0.11609838
163	0xbdc02d65	-0.09383658
164	0x3dbd5dad	0.09246383
165	0x3e54c0f8	0.20776737
166	0xbdf21b62	-0.11821629
167	0xbe46af77	-0.19402872
168	0xbd60e0d5	-0.054901917
169	0xbd913d89	-0.07091815
170	0x3d354054	0.0442508
171	0x3d88aecf	0.06673967
172	0xbdc1b0c6	-0.09457545
173	0x3d9c7c9f	0.07640957
174	0x3e4fd570	0.20296264
175	0xbebc6ced	-0.36801854
176	0x3db6676c	0.08906445
177	0xbe316069	-0.17321934
178	0xbcf54bfe	-0.029943462
179	0x3d5549ef	0.05207246
180	0xbd2d9c97	-0.042385664
181	0xbe90aa26	-0.28254813
182	0x3e84dfb9	0.25951937
183	0x3c04f2e9	0.008114555
184	0x3e49ff95	0.19726403
185	0xbd6cc6c2	-0.057806738
186	0xbddeda4c	-0.108814806
187	0xbd28b048	-0.04118374
188	0xbeacd67e	-0.33757395
189	0xbd041f31	-0.03225631
190	0xbf045eca	-0.51707137
191	0x3dfc029b	0.123051845
192	0x3ebc0cb2	0.36728436
193	0x3f6ae5be	0.9175681
194	0x3ec544bc	0.38529003
195	0xbe95a8cc	-0.29230344
196	0xbebe8a52	-0.37214905
197	0xbf1f5d36	-0.62251604
198	0xbc925338	-0.017861947
199	0xbc0555be	-0.008138118
200	0x3e57b778	0.21066082
201	0x3c48297f	0.012216925
202	0x3e057543	0.13033013
203	0x3e25bc8b	0.16185205
204	0x3e7d7f18	0.24755514
205	0x3ea0dd49	0.31418827
206	0x3b261cd6	0.0025346777
207	0xbe808e53	-0.25108585
208	0xbe8f5a50	-0.2799859
209	0x3e3077a4	0.1723314
210	0x3e42393f	0.1896715
211	0x3e3c5ffe	0.18395993
212	0xbe4dcf16	-0.20098528
213	0xbe4cb4b0	-0.19990802
214	0xbeb4f12d	-0.35340253
215	0xbea1d7f7	-0.3161008
216	0xbdb75e4d	-0.08953533
217	0xbd4b94c3	-0.049702417
218	0x3e7dce1b	0.24785654
219	0xbb9972e4	-0.0046828855
220	0x3e934e7e	0.28770822
221	0x3dfe8ff7	0.12429803
222	0xbddbab71	-0.10726059
223	0xbd206332	-0.0391571
224	0xbe5639e6	-0.20920524
225	0xbd194037	-0.037414756
226	0xbe700bdb	-0.23442023
227	0xbcf3e585	-0.02977253
228	0x3f0991aa	0.5373789
229	0x3e580216	0.21094546
230	0xbe8593cc	-0.26089323
231	0x3dde5bb0	0.10857332
232	0x3d5ebcab	0.054379147
233	0xbdd12568	-0.10212213
234	0xbd8ba3d4	-0.06818357
235	0xbd243a52	-0.04009468
236	0x3d88bab7	0.06676238
237	0xbd4c2c73	-0.049847078
238	0x3e7ecbd8	0.24882448
239	0x3e875818	0.26434398
240	0xbd9c447c	-0.0763025
241	0x3e0ff5c4	0.14058596
242	0xbc4f551e	-0.012654571
243	0x3d84549c	0.064614505
244	0xbe2424bd	-0.1602964
245	0x3dc7fd30	0.097650886
246	0xbea8014b	-0.32813486
247	0xbd191960	-0.037377715
248	0x3db5ea80	0.08882618
249	0xbe3883b4	-0.18018991
250	0x3e21f332	0.15815428
251	0x3e051feb	0.13000457
252	0xbe840a0d	-0.25788918
253	0xbf008c0e	-0.50213706
254	0xbd9a1f33	-0.07525482
255	0xbeaa3d26	-0.33249778

conv2.0.bias f4 [16]
0	0x3d48e286	0.049044155
1	0xbc6dea41	-0.0145211825
2	0xbd4c290a	-0.049843825
3	0xbcfa5cb5	-0.030561784
4	0x3c89dd2d	0.016829098
5	0x3d18912f	0.037247833
6	0xbd8d563a	-0.06901212
7	0x3d4fb273	0.05070729
8	0xbe1dec76	-0.15422234
9	0xbdc48f7e	-0.095976815
10	0x3d0528ed	0.032509733
11	0x3d114567	0.035466578
12	0x3d6a8645	0.057256956
13	0x3dd6db2f	0.10491025
14	0x3e5dfd9e	0.21678779
15	0xbc146daf	-0.009059354

conv2.1.weight f4 [16]
0	0x3f675e5d	0.9037836
1	0x3f7a1104	0.97682214
2	0x3f56cba9	0.8390451
3	0x3f6b4d97	0.9191527
4	0x3f87109b	1.0551943
5	0x3f5d7cf9	0.8651882
6	0x3fac76cb	1.3473753
7	0x3f8c82eb	1.0977453
8	0x3f8c087e	1.0940092
9	0x3f73cda8	0.9523568
10	0x3f79c939	0.97572666
11	0x3f810294	1.0078912
12	0x3f52217c	0.82082343
13	0x3f6bd52e	0.9212216
14	0x3f64924c	0.8928573
15	0x3f7fbc95	0.9989713

conv2.1.bias f4 [16]
0	0xbe8319c7	-0.25605604
1	0xbf2f7c84	-0.6854937
2	0xbef0f0b5	-0.47058645
3	0xbea062bd	-0.3132533
4	0xbd6f52e1	-0.05842865
5	0xbeae530e	-0.3404774
6	0xbeb18720	-0.34673405
7	0xbeae021d	-0.33985987
8	0xbe8c9630	-0.27458334
9	0xbe8b4644	-0.27202046
10	0xbe9e1251	-0.3087335
11	0xbe2a090d	-0.16605015
12	0xbe6ef8b9	-0.23337068
13	0xbeb79f79	-0.35863855
14	0xbe4e97c2	-0.20175079
15	0xbf032274	-0.51224446

conv2.1.running_mean f4 [16]
0	0xbfc67341	-1.5503923
1	0xc08365fe	-4.1062
2	0xbfa3b930	-1.279089
3	0x41344c74	11.268665
4	0x3f207435	0.6267732
5	0xc0474daa	-3.1141152
6	0x409c7619	4.889416
7	0x40c25e1b	6.0739875
8	0xbc3e4030	-0.011611983
9	0x41245b2e	10.272261
10	0x4127e6a6	10.493811
11	0xbfbc9331	-1.4732419
12	0xbe3c79dc	-0.1840586
13	0xc0065255	-2.0987751
14	0xbfa025f6	-1.2511585
15	0xc0f58ef8	-7.6737022

conv2.1.running_var f4 [16]
0	0x4114523b	9.270076
1	0x41cba581	25.455812
2	0x424c74d4	51.11409
3	0x43880c2c	272.0951
4	0x421f980e	39.89849
5	0x42ced915	103.42399
6	0x42c33458	97.602234
7	0x43024ee9	130.30824
8	0x423d0860	47.25818
9	0x437e91a2	254.56888
10	0x437cac09	252.67201
11	0x42b826be	92.07567
12	0x414b764d	12.716382
13	0x428bc29d	69.880104
14	0x412ddefa	10.866938
15	0x4378f499	248.95546

attention.channel_att.1.weight f4 [2, 16, 1, 1]
0	0x3ea916a5	0.3302509
1	0x3e9318b8	0.28729796
2	0xbd3491ba	-0.04408429
3	0xbf15e102	-0.5854646
4	0x3e453127	0.19257031
5	0x3e977660	0.295825
6	0xbf0c4dcb	-0.548062
7	0xbe274e69	-0.16338505
8	0xbdaf4740	-0.08558512
9	0xbf07d24c	-0.5305526
10	0xbf2bc47f	-0.67096704
11	0xbdd00b2c	-0.10158381
12	0xbcfaf11c	-0.030632548
13	0xbf135e70	-0.57565975
14	0x3e0e9fd7	0.13928162
15	0x3e5e909b	0.2173485
16	0xbf697f87	-0.91210216
17	0xbe96069c	-0.29301918
18	0x3f5adacb	0.854901
19	0x3ea33bc3	0.31881532
20	0xbf70d177	-0.9406962
21	0xbe6f6563	-0.2337852
22	0x3f2cf19e	0.6755618
23	0xbd091ab0	-0.033472717
24	0xbe05e575	-0.13075812
25	0x3e14194a	0.14462772
26	0x3f2a18ad	0.664439
27	0x3b4361eb	0.0029813002
28	0x3f451922	0.76991475
29	0x3f991968	1.1960878
30	0x3e1e3b15	0.15452226
31	0x3f86456c	1.0489936

attention.channel_att.1.bias f4 [2]
0	0xbda46897	-0.080277614
1	0x3e5476e9	0.20748486

attention.channel_att.3.weight f4 [16, 2, 1, 1]
0	0x3db97adc	0.09056637
1	0x3f948c21	1.1605264
2	0xbeb12fbf	-0.3460674
3	0xbdabf74b	-0.08396777
4	0xbd631fa6	-0.055450104
5	0x3e23bcc9	0.15989985
6	0x3f0ef3c2	0.55840695
7	0xbf3c8b20	-0.7364979
8	0x3e1cf2a9	0.15326943
9	0x3fe15067	1.7602662
10	0x3ea39656	0.31950635
11	0xbe97f85e	-0.29681677
12	0x3f48362c	0.7820766
13	0xbf1242e4	-0.57133317
14	0x3eb85aa4	0.36006653
15	0x3f8b75ba	1.0895302
16	0x3fa70ab4	1.3050141
17	0x3b8bfc7c	0.004272042
18	0x3e33ab2c	0.17545766
19	0x3ea706e4	0.32622445
20	0x3e88c219	0.26710585
21	0xbe08357d	-0.13301654
22	0xbebee9b3	-0.37287673
23	0x3f02d8cd	0.5111206
24	0x3eaf32fd	0.34218588
25	0xbf2622e2	-0.64896977
26	0x3f715596	0.9427122
27	0xbfcb7702	-1.5895693
28	0xbe29eaa7	-0.16593419
29	0xbebf2bd3	-0.37338123
30	0xbefd410b	-0.49463686
31	0xbf22f059	-0.6364799

attention.channel_att.3.bias f4 [16]
0	0xbf30b5fe	-0.690277
1	0x3d55438f	0.052066382
2	0x3eaf0e7e	0.34190744
3	0x3e9b6332	0.30349118
4	0xbf5a0b15	-0.8517316
5	0xbdee29e2	-0.11629082
6	0xbeb6206b	-0.35571608
7	0x3ea95f72	0.33080631
8	0xbe89bf8d	-0.26903954
9	0xbc0f08e0	-0.008730143
10	0xbf6c21b6	-0.9223894
11	0xbf04612a	-0.5171076
12	0xbee29ee0	-0.44261837
13	0x3e06e2ff	0.1317253
14	0xbf3a67ef	-0.7281484
15	0xbef6092a	-0.48053867

attention.spatial_att.0.weight f4 [1, 2, 7, 7]
0	0x3da4cdbf	0.080470555
1	0x3e8db538	0.2767732
2	0x3f0e3488	0.55548906
3	0xbc3f8aff	-0.011690854
4	0xbdd3ed03	-0.10347941
5	0xbe6fb0f2	-0.23407343
6	0xbd5d8b75	-0.054088075
7	0x3f32fe44	0.6991923
8	0x3f03b673	0.5145027
9	0x3ef9c477	0.48782703
10	0xbd4fe02a	-0.05075089
11	0xbe40bcf9	-0.18822087
12	0x3da68c4f	0.081322305
13	0x3e41e86c	0.18936318
14	0x3ed5d98b	0.41767535
15	0x3ed7719b	0.42078862
16	0x3dcfe57a	0.10151191
17	0xbe21ea70	-0.15812087
18	0x3c8bd0b2	0.017067287
19	0x3e9d9242	0.30775648
20	0x3eefcb8b	0.46834978
21	0x3ed1ab21	0.40950873
22	0xbecace5e	-0.3961057
23	0xbe0e1562	-0.13875344
24	0x3e4fa78c	0.20278758
25	0xbe5b1970	-0.21396422
26	0x3d2a83aa	0.04162947
27	0x3e8d9cf1	0.276588
28	0x3df42b6d	0.11922345
29	0xbe401a62	-0.18760064
30	0x3dd1d220	0.10245156
31	0x3d25522d	0.040361572
32	0xbe0d8832	-0.13821486
33	0xbddcf4a9	-0.10788853
34	0xbad30ad8	-0.0016101254
35	0x3e06b2ab	0.13154094
36	0x3b591805	0.003312589
37	0x3dcf8b53	0.10133996
38	0xbddbf7c2	-0.107406154
39	0x3d7db45c	0.061939582
40	0x3a8300d1	0.000999475
41	0x3d6b90a6	0.057510994
42	0x3e146ddd	0.14495035
43	0x3de33ab0	0.11095178
44	0x3d6b7f33	0.057494354
45	0x3b79af10	0.003809873
46	0xbc066780	-0.008203387
47	0x3e231a09	0.159279
48	0xbc5a0e08	-0.013309009
49	0xbefceaeb	-0.49397978
50	0xbd62bf0d	-0.05535798
51	0x3dce708b	0.100800596
52	0x3e957e91	0.29198125
53	0xbe28547a	-0.16438475
54	0xbe32e423	-0.1746984
55	0xbe876ccd	-0.26450196
56	0x3d504c5d	0.050854076
57	0x3eff2a05	0.49836746
58	0xbc91a995	-0.017781058
59	0x3ea89fce	0.3293442
60	0x3ea1b2cb	0.3158172
61	0x3de30c6c	0.11086354
62	0xbdfaf843	-0.122543834
63	0x3ed7262c	0.4202131
64	0x3ee87256	0.4539973
65	0xbf17597a	-0.59120905
66	0x3de44e8f	0.11147796
67	0x3d46dfc9	0.048553262
68	0xbdd7e9ca	-0.105426386
69	0x3dd4c93b	0.10389944
70	0x3f695dc7	0.9115872
71	0xbf2f30ab	-0.68433636
72	0xbf5b9394	-0.8577206
73	0xbe6e60d0	-0.23279119
74	0xbee6f7a1	-0.451108
75	0xbf8a9401	-1.0826417
76	0xbe45f0af	-0.19330095
77	0x3d77d628	0.06050697
78	0xbf8e0a63	-1.109692
79	0xbf976c7a	-1.182998
80	0xbf1528c5	-0.58265334
81	0xbeb540a5	-0.35400882
82	0xbe5cf316	-0.21577105
83	0x3ee4afa2	0.44665247
84	0xbe9c0be2	-0.30477816
85	0xbf1be988	-0.60903215
86	0xbf1d33e9	-0.61407334
87	0xbeb6deb7	-0.35716793
88	0xbe8f2a18	-0.27961802
89	0xbe7a33d7	-0.24433838
90	0x3e4bb4d5	0.198932
91	0x3ea4ba8c	0.32173574
92	0x3f595632	0.8489715
93	0x3f3e5284	0.7434466
94	0x3f01aa0a	0.50650084
95	0x3e93b222	0.28846842
96	0xbdbd6f30	-0.09249723
97	0x3e79d335	0.24396975

fc.0.weight f4 [128, 576]
0	0x3e4c95c4	0.19979006
1	0x3f058cc7	0.52167934
2	0x3db1f158	0.08688611
3	0x3e043404	0.12910467
4	0xbca6de16	-0.02036957
5	0x3eb7449a	0.35794526
6	0x3e17af8d	0.14813061
7	0x3db57c79	0.08861632
8	0xbda20a24	-0.079120904
9	0x3d75c247	0.05999973
10	0xbd103cfb	-0.035214406
11	0xbdd7fce8	-0.10546285
12	0x3e879d7d	0.26487342
13	0x3d551a98	0.052027315
14	0x3ddfecba	0.10933824
15	0xbb47119f	-0.0030375493
16	0xbea1ba17	-0.31587288
17	0xbdf5f3a3	-0.12009361
18	0x3db856c9	0.09000928
19	0xbe1b839f	-0.15186928
20	0x3db78fce	0.089629754
21	0xbe8093ac	-0.25112665
22	0xbf086435	-0.53277904
23	0x3e538181	0.2065487
24	0xbddccb2b	-0.10780939
25	0x3ec633c7	0.38711378
26	0xbee1dcc7	-0.44113752
27	0xbeea9a25	-0.45820728
28	0xbeb35cef	-0.3503184
29	0x3ded0297	0.115727596
30	0x3db7eef7	0.08981126
31	0x3ebc3744	0.36760914
32	0xbd981dc9	-0.07427556
33	0xbed6f20d	-0.41981545
34	0xbe4c6bd0	-0.19963002
35	0xbe7a6162	-0.24451211
36	0x3e178df7	0.14800249
37	0x3da8a4b0	0.08234537
38	0x3e1e2339	0.15443124
39	0x3da151a6	0.07876901
40	0x3dad0a2a	0.08449204
41	0x3eba6ae2	0.3640967
42	0x3cf13161	0.029442491
43	0x3ea33f3a	0.31884176
44	0x3dcc9c8b	0.09990796
45	0x3dd5a14d	0.10431156
46	0x3e2250d1	0.15851142
47	0x3d8a3d3a	0.06749959
48	0x3ec560d5	0.3855044
49	0xbe4c8d12	-0.19975689
50	0x3dc469d0	0.09590495
51	0x3e19f215	0.15033753
52	0x3d1a7458	0.03770861
53	0xbe4bb397	-0.19892727
54	0x3e5433ea	0.20722929
55	0xbe9f0308	-0.31057
56	0x3c479ad0	0.012182906
57	0xbd347501	-0.044056896
58	0xbe1eebd8	-0.15519655
59	0xbe873553	-0.2640787
60	0x3eaec8f6	0.34137696
61	0xbce8ec93	-0.02843312
62	0xbe4572b8	-0.19282043
63	0xbea55993	-0.32294902
64	0xbead5df1	-0.33860734
65	0xbdce8b06	-0.1008511
66	0x3da24c8f	0.07924759
67	0xbd56e40e	-0.052463584
68	0xbe801d42	-0.25022322
69	0xbf13a5ac	-0.5767467
70	0x3da50c9f	0.08059048
71	0xbe1b8421	-0.15187122
72	0x3dd80ee9	0.10549719
73	0xbd2d143f	-0.042255636
74	0x3d3ef7bd	0.04662298
75	0x3e593e53	0.21215181
76	0x3e22115c	0.15826935
77	0x3e725c2e	0.23667976
78	0x3e7ab6b2	0.24483755
79	0xbe05009d	-0.12988515
80	0xbebd5215	-0.36976686
81	0xbcd7dc77	-0.026350243
82	0x3df1b74e	0.11802541
83	0x3d0b4729	0.03400341
84	0xbe5089e5	-0.20365103
85	0xbe132a54	-0.14371616
86	0xbdc7774e	-0.097395524
87	0x3d004828	0.031318814
88	0x3e2959fe	0.16538236
89	0xbd3dd8ef	-0.046349462
90	0xbedc7985	-0.43061462
91	0x3d87cb39	0.066305585
92	0xbd0124b2	-0.031529136
93	0x3ddd3daf	0.10802781
94	0x3e8c6de7	0.274276
95	0x3cd2375c	0.025661163
96	0x3e28b4aa	0.16475168
97	0x3e0a0006	0.13476571
98	0x3e86c62d	0.2632307
99	0x3e58f157	0.21185814
100	0x3e7389c4	0.23783022
101	0x3daf950f	0.085733525
102	0x3db69aef	0.0891627
103	0x3c808236	0.01568709
104	0x3e9929a3	0.2991458
105	0x3e5adf5b	0.21374266
106	0x3d787152	0.060654946
107	0x3c2779d1	0.010221914
108	0xbe40599c	-0.18784183
109	0xbd8f266e	-0.06989752
110	0xbe45dcb4	-0.19322473
111	0xbe2cd0f6	-0.16876587
112	0xbe88af1e	-0.26696104
113	0x3ce965f5	0.028491
114	0xbd86ecb2	-0.06588115
115	0xbd11c4b8	-0.035587996
116	0xbd86939a	-0.065711215
117	0xbe82a52f	-0.2551665
118	0xbeb55059	-0.35412863
119	0x3d0ebbe5	0.03484716
120	0xbd684750	-0.056708634
121	0x3d0fd602	0.035116203
122	0x3c00548e	0.007832659
123	0xbf0b30db	-0.5437142
124	0xbe9d89ec	-0.3076929
125	0x3edcb35b	0.43105587
126	0xbcad57cc	-0.021160029
127	0x3d6400e3	0.05566491
128	0xbd28bd7b	-0.041196328
129	0xbf09ab38	-0.53776884
130	0x3e5b6948	0.2142688
131	0x3ef311b7	0.47474453
132	0x3d61499a	0.055001833
133	0xbe8cef11	-0.27526143
134	0xbf005914	-0.5013592
135	0xbea825ff	-0.3284149
136	0x3d4a90e5	0.04945459
137	0x3e433295	0.19062264
138	0xbce124e5	-0.027483413
139	0xbe00f43d	-0.1259317
140	0x3cb6b012	0.022300754
141	0x3cfb92a8	0.03070958
142	0xbe31b838	-0.1735543
143	0xbc48e908	-0.01226259
144	0xbdf8528f	-0.12125122
145	0xbda8e2d6	-0.082463905
146	0x3e612f38	0.21990669
147	0x3e49c981	0.19705774
148	0x3bc28d67	0.0059372666
149	0x3d26254f	0.040562924
150	0x3e2a89ca	0.16654125
151	0x3e4a153e	0.19734666
152	0x3e9cb7cb	0.30608973
153	0xbe3b3720	-0.18282747
154	0x3d169528	0.03676334
155	0x3cb51f9a	0.022109795
156	0x3d3a297b	0.045449715
157	0x3e4e9671	0.20174576
158	0xba873791	-0.0010316243
159	0xbd8e339a	-0.06943436
160	0x3dc86b8b	0.09786137
161	0x3e59c525	0.21266611
162	0xbe41d3f6	-0.18928513
163	0xbe21f045	-0.15814312
164	0xbd96278a	-0.0733176
165	0x3d8d6304	0.06903651
166	0xbe072cab	-0.13200633
167	0x3e33f6f9	0.17574681
168	0x3cb12d0b	0.021627923
169	0xbe5df7a8	-0.21676505
170	0xbe114e22	-0.14189962
171	0xbeff9d04	-0.4992448
172	0xbc8f9791	-0.017528327
173	0xbd7ab390	-0.0612064
174	0x3db38622	0.08765818
175	0x3d8ba7dc	0.06819126
176	0xbe8d97fb	-0.27655014
177	0xbf0dcafc	-0.55387855
178	0xbc786083	-0.015159729
179	0x3cdde523	0.0270868
180	0x3e901afc	0.28145587
181	0x3e281ec4	0.16417986
182	0x3e12fb27	0.1435362
183	0x3eb22afa	0.34798414
184	0x3edddf2b	0.43334326
185	0xbd3ce1eb	-0.04611389
186	0x3b58d7b1	0.0033087546
187	0x3e46b975	0.19406684
188	0x3d90b2cb	0.07065352
189	0x3cf7d4de	0.03025287
190	0x3c9c2b59	0.019063639
191	0x3dfdea18	0.123981655
192	0x3de7fc39	0.113274045
193	0x3e0cd007	0.13751231
194	0x3e74c2cd	0.23902436
195	0x3d8e90f1	0.06961239
196	0xbde10232	-0.10986747
197	0x3e3fc719	0.18728293
198	0x3ce62a91	0.02809647
199	0x3e73ea3f	0.23819827
200	0x3e89d782	0.26922232
201	0x3d6ef9be	0.05834364
202	0xbe7bc7da	-0.24587956
203	0xbdc6750c	-0.09690294
204	0xbedc317e	-0.4300651
205	0x3e3c95a0	0.18416452
206	0x3ea22ac5	0.31673256
207	0xbd1909d1	-0.037362877
208	0xbe11729e	-0.14203879
209	0x3c6d26e4	0.014474604
210	0xbe7ba1eb	-0.24573486
211	0xbe90a259	-0.2824886
212	0x3c2fe9fe	0.01073694
213	0x3e2a861e	0.16652724
214	0x3e2ef8c3	0.17087083
215	0x3dba1880	0.09086704
216	0xbdbf9408	-0.093544066
217	0xbd95c9dc	-0.07313892
218	0xbe73ea5a	-0.23819867
219	0x3ca45403	0.020059591
220	0xbce3bab4	-0.027798988
221	0xbcdbfc60	-0.02685374
222	0x3e349cad	0.17637892
223	0xbe58c363	-0.21168284
224	0xbdc1665f	-0.09443354
225	0x3eb472bf	0.35243794
226	0x3e738f83	0.23785214
227	0x3e6bc3ea	0.23023954
228	0xbe3fbab3	-0.18723564
229	0xbe95edbf	-0.29282948
230	0xbdec6726	-0.115431115
231	0xbdd06bf6	-0.10176842
232	0x368af2ab	4.1409708e-06
233	0x3e7b7e54	0.24559909
234	0xba851bd9	-0.0010155394
235	0xbe4f550f	-0.20247291
236	0xbd0158ca	-0.031578816
237	0xbe36b8ff	-0.17844008
238	0x3eb7d995	0.3590819
239	0x3dfb7ccb	0.12279662
240	0xbe205cd2	-0.15660408
241	0xbdb3e0e7	-0.08783131
242	0xbea94a9c	-0.33064735
243	0x3ca50382	0.020143274
244	0x3e3ecb03	0.1863213
245	0x3d9201b9	0.07129235
246	0xbdd731eb	-0.10507568
247	0x3d55d530	0.052205265
248	0xbe10be15	-0.1413501
249	0xbe494f4c	-0.19659156
250	0xbe0d91de	-0.13825175
251	0x3e07444b	0.13209645
252	0x3dbb6d03	0.09151652
253	0x3dbe77ae	0.09300171
254	0x3e62a50b	0.22133271
255	0x3e5a4f7a	0.2131938

fc.0.bias f4 [128]
0	0xbcf3150c	-0.029673122
1	0x3d6af22a	0.057359852
2	0x3d11207f	0.03543138
3	0x3ba01d1f	0.004886284
4	0xbd86660a	-0.06562431
5	0x3e123c5f	0.14280842
6	0x3e4d1c3c	0.20030302
7	0x3d34378f	0.043998297
8	0xbccf03d0	-0.025270373
9	0x3dfe430a	0.124151304
10	0x3d9411eb	0.0722998
11	0x3dfe0f7a	0.12405296
12	0xbd907bb1	-0.07054842
13	0x3cf43098	0.029808328
14	0x3dd02f82	0.101653114
15	0x3d9ac860	0.0755775
16	0xbd621634	-0.055196956
17	0x3eaaabd1	0.3333421
18	0x3d38e1c2	0.045137174
19	0x3ddb89b7	0.107196264
20	0x3e27c19c	0.1638245
21	0x3db5bcd3	0.08873906
22	0x3e081b4f	0.13291667
23	0xbdb6a30f	-0.0891782
24	0x3e559601	0.20858003
25	0x3da4783a	0.08030744
26	0x3c3bf26b	0.011471371
27	0x3d16bf42	0.03680349
28	0xbe012257	-0.12610756
29	0x3de4e844	0.11177114
30	0xbd33404a	-0.043762483
31	0x3e24722e	0.16059181
32	0x3e96ce76	0.29454392
33	0xbe711747	-0.23544036
34	0x3d502322	0.050814755
35	0x3e2adcc6	0.16685781
36	0x3b254180	0.0025216043
37	0x3e2aabf7	0.16667162
38	0x3cbabfe4	0.022796579
39	0x3b97920c	0.0046255644
40	0x3d8a9b2b	0.06767877
41	0x3d8f1b3d	0.06987617
42	0xbd5948a2	-0.053047784
43	0xbdeda098	-0.116028965
44	0x3c6e3979	0.01454007
45	0x3e17110c	0.14752597
46	0xbda4d1fc	-0.08047864
47	0xbd5d19d8	-0.053979725
48	0x3dc57c62	0.09642865
49	0x3dc6751a	0.09690304
50	0x3daffbb6	0.08592932
51	0x3ce115e7	0.027476264
52	0x3deca6c5	0.11555246
53	0x3dab7d35	0.08373491
54	0x3da616eb	0.0810984
55	0x3d6d5019	0.057937715
56	0x3d8ad2a5	0.067784585
57	0x3dd6193a	0.1045403
58	0x3d386074	0.04501386
59	0xbd1d938c	-0.03847079
60	0xbd8b90d3	-0.068147324
61	0xbcf5bb31	-0.029996486
62	0xbc46c7ef	-0.012132629
63	0x3cc7a165	0.024368951
64	0x3d7783d3	0.06042845
65	0x3e192809	0.14956678
66	0x3d5d5d63	0.05404414
67	0xbce5019a	-0.027954865
68	0xbe2e5a68	-0.17026675
69	0x3d9aa8a6	0.075516984
70	0xbd72c785	-0.059272308
71	0x3dcf2c42	0.101158634
72	0x3d8738c3	0.06602623
73	0x3d1f3101	0.038865093
74	0x3d39db53	0.04537518
75	0xbd04492f	-0.032296356
76	0x3cce7fac	0.025207363
77	0xbd8e1533	-0.06937637
78	0x3d25c370	0.040469587
79	0x3dc036c0	0.09385443
80	0x3d0a0118	0.03369245
81	0xbd936b54	-0.071982056
82	0x3c8ea53e	0.017412778
83	0x3973d591	0.00023253846
84	0x3dbcc515	0.09217278
85	0x3e496936	0.19669041
86	0x3e4cff97	0.20019375
87	0x3caa516b	0.020790776
88	0xbc46fa14	-0.012144584
89	0xbdba00f0	-0.0908221
90	0xbd2e44a8	-0.042545944
91	0xbdb8a434	-0.09015694
92	0x3d4769c0	0.048684835
93	0x3ce60c48	0.028082028
94	0x3e0c1ae6	0.13682136
95	0x3dc518c6	0.09623866
96	0xbe23e0da	-0.16003743
97	0x3e1a58c9	0.15072931
98	0x3d5ad35d	0.053424228
99	0xbe023098	-0.1271385
100	0x3e147f75	0.14501746
101	0x3d3c640d	0.045993853
102	0xbcb06b88	-0.02153565
103	0xbdd82898	-0.10554618
104	0x3d8cd9fa	0.06877513
105	0x3d68243c	0.05667518
106	0xbd32fded	-0.043699194
107	0x3c152485	0.009102945
108	0xbcc93b49	-0.024564402
109	0x3de8d391	0.11368478
110	0xbd01f066	-0.031723402
111	0x3db89a4d	0.090138055
112	0x3e1fcdad	0.15605803
113	0x3dc438c1	0.095811374
114	0x3c7113cf	0.014714195
115	0x3d256dae	0.0403878
116	0xbc2c2899	-0.010507726
117	0xbb7b8da1	-0.0038383978
118	0x3dd0b7f6	0.10191338
119	0x3dd4340c	0.1036149
120	0x3d37f596	0.044911943
121	0xbda6cfd5	-0.081451096
122	0x3e9b9ecc	0.3039459
123	0x3d0717c3	0.032981645
124	0xbba120a2	-0.00491722
125	0xbe07ce21	-0.13262226
126	0x3dadc9fd	0.08485792
127	0x3d073ee7	0.033018973

fc.3.weight f4 [27, 128]
0	0xbe9bfe8b	-0.30467638
1	0xbdb38553	-0.08765664
2	0xbf381e13	-0.7192089
3	0xbe84bdcf	-0.25926062
4	0xbef89a1e	-0.48555082
5	0xbec74d07	-0.38925955
6	0xbea575aa	-0.32316333
7	0xbf16cc91	-0.58905894
8	0xbe88041d	-0.26565638
9	0xbf155f60	-0.58348656
10	0xbf0373d0	-0.5134859
11	0xbec7cfe1	-0.39025787
12	0xbee6b69a	-0.4506119
13	0xbf135f8e	-0.5756768
14	0xbf10c0d5	-0.5654424
15	0xbe8f4239	-0.2798021
16	0xbeda00f4	-0.42578852
17	0xbf56eccb	-0.8395507
18	0xbecaf343	-0.3963872
19	0xbedba6fb	-0.42900833
20	0xbee41e0f	-0.44554183
21	0xbe9248cf	-0.28571174
22	0xbf01efec	-0.50756717
23	0xbf3c8f35	-0.73656017
24	0xbee97616	-0.45597905
25	0xbec16552	-0.37772614
26	0xbeba3f8b	-0.36376604
27	0xbe34fe8b	-0.17675225
28	0xbde380c5	-0.11108545
29	0xbecb06ca	-0.39653617
30	0xbeab11ba	-0.33411962
31	0xbef75d9a	-0.483136
32	0xbeee25a9	-0.46513107
33	0xbefbff12	-0.4921804
34	0xbea02f06	-0.31285876
35	0xbecab32c	-0.39589822
36	0xbebb7dfc	-0.36619556
37	0xbf103924	-0.5633719
38	0xbf0164b5	-0.5054429
39	0xbe99439c	-0.29934394
40	0xbdc95b27	-0.09831839
41	0xbe321363	-0.17390208
42	0xbed06e81	-0.40709308
43	0xbf1e270f	-0.6177835
44	0xbed05c2b	-0.4069532
45	0xbf13da45	-0.5775493
46	0xbf5561a7	-0.8335213
47	0xbe6dc05b	-0.23217909
48	0xbec5d20b	-0.38636813
49	0xbf133f18	-0.5751815
50	0xbecf4c3f	-0.4048786
51	0xbf1eccc4	-0.620312
52	0xbecdec99	-0.40219572
53	0xbf1db2a6	-0.6160072
54	0xbeeda561	-0.46415237
55	0xbe6bff32	-0.23046568
56	0x3caadf21	0.02085835
57	0xbeedf773	-0.4647785
58	0x3c3fc936	0.011705687
59	0xbeb50fc4	-0.3536359
60	0xbf0a7607	-0.54086345
61	0xbef989f9	-0.48738077
62	0xbecaf57b	-0.39640412
63	0xbf0de9e5	-0.5543502
64	0xbddf7c99	-0.10912437
65	0xbe9a43e5	-0.30129924
66	0xbea741e8	-0.3266747
67	0xbe89c202	-0.2690583
68	0xbecc9a29	-0.39961365
69	0xbee212a0	-0.44154835
70	0xbf1ed947	-0.6205029
71	0xbec31dd2	-0.3810869
72	0xbe47a2a6	-0.19495639
73	0xbf1ab191	-0.60427195
74	0xbea5b5ea	-0.32365352
75	0xbe7bfc6c	-0.2460801
76	0xbeb6fb95	-0.35738817
77	0xbe884e52	-0.26622254
78	0xbeecd84c	-0.4625877
79	0xbe9a3c7a	-0.30124265
80	0xbef03dd0	-0.4692216
81	0xbec11363	-0.37710103
82	0xbeb20f3f	-0.34777257
83	0xbe4aa9d4	-0.19791347
84	0xbe8f6bd1	-0.28011945
85	0xbe3a7745	-0.1820956
86	0xbed77a04	-0.42085278
87	0xbf052cff	-0.52021784
88	0xbe308597	-0.1723846
89	0xbedf3b23	-0.43599805
90	0xbef3025e	-0.47462744
91	0xbf3e3867	-0.74304813
92	0xbf0e22d4	-0.55521894
93	0xbec23408	-0.37930322
94	0xbeed6330	-0.46364737
95	0xbed796c9	-0.42107227
96	0xbe24688e	-0.1605551
97	0xbea4132a	-0.3204587
98	0xbf14390b	-0.5789954
99	0xbf1396dc	-0.5765207
100	0xbef66530	-0.48124075
101	0xbeb6a3eb	-0.35671934
102	0xbd459f01	-0.04824734
103	0xbeb84b98	-0.35995173
104	0xbe3a2976	-0.18179879
105	0xbf07e9c1	-0.53091055
106	0xbf34fcc8	-0.70698214
107	0xbe7e253e	-0.24818894
108	0xbee948f5	-0.45563474
109	0xbf10e927	-0.5660576
110	0xbec184fa	-0.37796766
111	0xbe57fe42	-0.21093085
112	0xbe4900d1	-0.19629218
113	0xbe5b5119	-0.21417655
114	0xbf37e3ee	-0.7183217
115	0xbe8760dc	-0.26441085
116	0xbed9cfc3	-0.42541322
117	0xbda7f9b5	-0.08201925
118	0xbda230e5	-0.07919482
119	0xbf487ea7	-0.78318256
120	0xbe835663	-0.25651845
121	0xbe929d2a	-0.28635532
122	0xbeaddb5d	-0.33956423
123	0xbf0b2556	-0.54353845
124	0xbe79e296	-0.24402842
125	0xbf10672d	-0.56407434
126	0xbe4da491	-0.20082308
127	0xbe8c1254	-0.27357733
128	0xbdea971b	-0.11454602
129	0x3dc06773	0.093947314
130	0x3d0bf41f	0.03416836
131	0x3dbafde6	0.091304585
132	0xbd855efd	-0.06512258
133	0x3e58c6e6	0.21169624
134	0xbf1183cd	-0.5684174
135	0x3e23d2e0	0.15998411
136	0xbe9aedb1	-0.3025947
137	0xbed53593	-0.41642436
138	0xbebd77f9	-0.37005594
139	0xbda284c4	-0.07935479
140	0x3d79512c	0.060868427
141	0x3e0f4bf9	0.13993825
142	0x3e0a86c3	0.1352797
143	0x3d87ec9a	0.06636925
144	0x3d046cf4	0.03233047
145	0x3e237771	0.15963532
146	0x3d479bdd	0.048732627
147	0x3daa47ef	0.083145015
148	0x3e03a547	0.12856017
149	0xbefdf41f	-0.49600312
150	0x3e273673	0.16329364
151	0xbe08093c	-0.13284773
152	0xbdb5bbba	-0.088736966
153	0x3e0d93b4	0.13825876
154	0xbd70ddfd	-0.058805455
155	0xbdc12e46	-0.09432654
156	0x3e2705b2	0.16310766
157	0x3e0d89c5	0.13822086
158	0x3e0cc24d	0.13745995
159	0x3d0c8ea7	0.03431573
160	0x3e121fac	0.14269894
161	0xbdce28af	-0.100663535
162	0x3e069698	0.13143384
163	0x3e039c9c	0.1285271
164	0x3e7ff6a6	0.24996433
165	0x3e3f7221	0.1869588
166	0xbd780730	-0.06055373
167	0x3e02f17b	0.1278743
168	0x3dd72e39	0.10506863
169	0xbf04c9b9	-0.51870304
170	0xbf06d66b	-0.52670926
171	0xbdb993fe	-0.090614304
172	0xbde7e95e	-0.11323808
173	0x3df27308	0.11838347
174	0xbed2f888	-0.4120524
175	0x3e1f7f78	0.15575969
176	0xbf150bff	-0.5822143
177	0xbe41928d	-0.18903561
178	0xbf43022f	-0.76175207
179	0x3dea28a9	0.114335366
180	0x3e23be02	0.15990451
181	0xbf445dc7	-0.7670559
182	0x3e243801	0.16036989
183	0xbedf7dbd	-0.43650618
184	0x3e168186	0.14697847
185	0xbee9695c	-0.45588195
186	0xbe6d5b3e	-0.23179337
187	0x3dd64228	0.10461837
188	0xbee3b0cd	-0.44470826
189	0x3e946f65	0.28991237
190	0xbf29c500	-0.66316223
191	0x3d99bdec	0.07506928
192	0xbdfdef0b	-0.123991095
193	0xbf2a819b	-0.6660401
194	0x3ea3a40d	0.31961098
195	0x3e823a09	0.25434902
196	0xbe05d1cd	-0.13068314
197	0x3de30078	0.11084074
198	0xbf46897c	-0.77553535
199	0x3e40da0b	0.18833177
200	0xbebf24db	-0.37332806
201	0x3d9fb71f	0.077985995
202	0xbf661753	-0.8987934
203	0xbe4ac8f9	-0.19803227
204	0xbdbb8ee5	-0.09158114
205	0x3e275977	0.16342722
206	0xbec98298	-0.39357448
207	0x3e077356	0.13227591
208	0xbf4c4923	-0.797991
209	0x3ea902aa	0.33009845
210	0xbb35f68b	-0.002776536
211	0xbe34427c	-0.17603487
212	0xbc04f30f	-0.00811459
213	0xbf6ee47a	-0.9331738
214	0xbca0f384	-0.019647367
215	0x3cf8a2fc	0.030351155
216	0xbca9ebcb	-0.020742318
217	0x3db21d68	0.08697015
218	0xbe089807	-0.13339244
219	0x3e4acbc3	0.19804291
220	0x3e0e7e6c	0.13915414
221	0xbed34126	-0.41260642
222	0x3e200935	0.15628512
223	0xbe8e2f8a	-0.27770644
224	0xbe5dd2f1	-0.21662499
225	0xbe1953d2	-0.14973381
226	0xbf859620	-1.043644
227	0xbeca4367	-0.3950455
228	0xbe54dfab	-0.20788448
229	0x3d52d38f	0.05147129
230	0x3d56e340	0.052462816
231	0xbee6bc0f	-0.45065352
232	0x3e67fd2f	0.22655176
233	0xbd1056ff	-0.035239216
234	0xbe26b569	-0.1628014
235	0x3e2d1912	0.16904095
236	0xbd1a7184	-0.037705913
237	0x3d584523	0.05280031
238	0xbf19a885	-0.60022765
239	0xbd28e8be	-0.041237585
240	0x3e515799	0.20443572
241	0xbf159792	-0.584344
242	0xbe762c21	-0.24040271
243	0xbea2625d	-0.3171567
244	0x3e5e340a	0.21699539
245	0x3e2e10cb	0.16998594
246	0x3e55bff1	0.20874001
247	0x3db98431	0.09058417
248	0xbebe7648	-0.37199616
249	0xbe7f5783	-0.24935727
250	0xbec07fd8	-0.37597537
251	0x3c60ee23	0.013728651
252	0xbe89a80e	-0.26886028
253	0x3e8ec419	0.27883986
254	0xbeef5aff	-0.46749112
255	0x3c860a23	0.016362255

fc.3.bias f4 [27]
0	0xbf84f000	-1.0385742
1	0x3ecf7e13	0.40525874
2	0x3ee2efb6	0.4432351
3	0xbd3a11de	-0.045427196
4	0xbe37c8f8	-0.17947757
5	0x3e649ced	0.22325487
6	0x3ddc18d0	0.1074692
7	0x3b46e559	0.0030349104
8	0x3d8c09c1	0.06837798
9	0x3e6396e0	0.22225523
10	0xbd61ff63	-0.055175196
11	0xbd43390b	-0.047661822
12	0xbd9190d5	-0.07107703
13	0xbeba6a41	-0.3640919
14	0x3e299b56	0.16563162
15	0x3e69c471	0.22828843
16	0xbd2e372d	-0.04253309
17	0x3d5f02f2	0.05444617
18	0xbe6332d7	-0.22187363
19	0xbe91b1a8	-0.28455853
20	0xbd83e725	-0.06440572
21	0xbd9b892f	-0.07594525
22	0x3cb88382	0.022523645
23	0xbef3382e	-0.475038
24	0x3ef0d1a7	0.47034952
25	0xbe8969a4	-0.2683841
26	0xbedbf251	-0.4295831

exp_avg f4 [9]
0	0x394fa5a5	0.00019802766
1	0xbb2ffb1c	-0.0026852554
2	0xbaebb94e	-0.0017984302
3	0xb9fd6ba7	-0.00048336128
4	0xb7f6426a	-2.9356412e-05
5	0xb8634bda	-5.419166e-05
6	0xb884e188	-6.336259e-05
7	0xbab418a5	-0.0013740255
8	0x3997c385	0.00028946638

exp_avg_sq f4 [9]
0	0x3705e9ed	7.981883e-06
1	0x38edc9ec	0.000113386515
2	0x37ef1965	2.8502845e-05
3	0x38023fb8	3.1053758e-05
4	0x37b45dbf	2.1501326e-05
5	0x3745beaf	1.1786512e-05
6	0x370b3a4c	8.298619e-06
7	0x37aba675	2.0462301e-05
8	0x371ff2e6	9.533693e-06

exp_avg f4 [16, 9, 3, 3]
0	0xba03afad	-0.0005023431
1	0xbb714bc0	-0.0036818832
2	0x3b943e6c	0.004524043
3	0x3a9af496	0.001182216
4	0xbb44cc3e	-0.0030028964
5	0x3b052265	0.002031469
6	0x3bcc84c0	0.006241411
7	0x3bbef559	0.0058275876
8	0x3c2309c0	0.009951055
9	0xba07807f	-0.0005168989
10	0xbb2248fa	-0.0024762736
11	0x3a5cb96b	0.00084199634
12	0x39f0d346	0.00045933778
13	0xbac97b06	-0.0015371747
14	0xb8cc2972	-9.735198e-05
15	0x3b2fbd2b	0.0026815634
16	0x3b3c42e3	0.002872639
17	0x3b966258	0.00458936
18	0xbb29454c	-0.0025828658
19	0x36bc795e	5.6169656e-06
20	0x3b8144c0	0.003944963
21	0xbb008682	-0.0019611423
22	0xbaa9b64f	-0.0012948009
23	0x3a037f27	0.00050162006
24	0x3bcf44dd	0.006325348
25	0x3b9d1235	0.00479343
26	0x3bca246e	0.0061688935
27	0x3a7e7d5d	0.00097080116
28	0x3a16852c	0.000574189
29	0x3ae1d262	0.0017228837
30	0xba3bbbe0	-0.00071614794
31	0xb987ceee	-0.0002590338
32	0x3b09a99d	0.0021005638
33	0x3b9a3954	0.004706541
34	0x3b6996d6	0.0035642884
35	0x3b9dd826	0.0048170267
36	0xbaf515b4	-0.0018698485
37	0xbb376180	-0.0027981699
38	0x3bccc7fc	0.006249426
39	0xba9ec7ba	-0.0012113967
40	0xbb68d7ad	-0.0035528943
41	0x3a3874dc	0.00070364564
42	0x3b8af4ca	0.004240607
43	0x3bbfbbb4	0.0058512334
44	0x3beec86a	0.007287075
45	0xbb3d604a	-0.0028896504
46	0xbb6dbde7	-0.003627652
47	0x3b283cfe	0.002567112
48	0x37abc102	2.0474665e-05
49	0xbaf5e82d	-0.001876121
50	0x3a39ef39	0.0007092837
51	0x3be25554	0.0069071446
52	0x3bb8bf3b	0.005638031
53	0x3c03f688	0.008054383
54	0xbacd176c	-0.0015647239
55	0xbab77f4a	-0.0013999727
56	0x3ba8aa7b	0.005147276
57	0xb9483c20	-0.00019095885
58	0xbb0b7725	-0.0021280732
59	0x3b01c2e2	0.0019799997
60	0x3bc0c54a	0.0058828937
61	0x3b9c531d	0.00477065
62	0x3bd1a1c8	0.0063974597
63	0x398d3487	0.00026932752
64	0xbb6c8e5b	-0.0036095593
65	0x3b62fe09	0.003463628
66	0x3ac2b530	0.0014855023
67	0xbae80371	-0.0017701221
68	0x3aaea14c	0.0013323217
69	0x3bb3e070	0.0054894015
70	0x3ba21929	0.004946847
71	0x3c0b3400	0.0084962845
72	0xbb02f015	-0.0019979526
73	0xbb42150f	-0.0029614603
74	0x3bcbc708	0.0062187947
75	0xbaa7080f	-0.001274349
76	0xbb51735d	-0.003195963
77	0x3a91467d	0.0011083629
78	0x3bdbf754	0.0067128334
79	0x3be95461	0.0071206545
80	0x3c135f2c	0.008994859
81	0xbad90fb8	-0.0016560471
82	0xb9643054	-0.00021761778
83	0x3ab7d0fc	0.0014024074
84	0x3aa0cfd6	0.0012268971
85	0x3abcd5fd	0.0014407035
86	0xbb1e02a3	-0.0024110458
87	0x3c016b68	0.007899143
88	0xb9fe36b4	-0.00048487412
89	0xbb690889	-0.0035558066
90	0xba5377a3	-0.00080668385
91	0xbaae2946	-0.0013287447
92	0x39ecfbdc	0.00045201078
93	0xb985a4b8	-0.00025490462
94	0x3aa21baf	0.001236787
95	0xba631055	-0.00086617965
96	0x3b5437a9	0.003238181
97	0xb8d0af8c	-9.950911e-05
98	0xbb0014e7	-0.0019543709
99	0xbafac10d	-0.001913102
100	0x3b09859a	0.0020984174
101	0xba5f5248	-0.0008519036
102	0x3b05a7a0	0.0020394102
103	0x3ae2e47d	0.0017310526
104	0xbbdc8a5f	-0.0067303623
105	0x3b619ae3	0.0034424595
106	0xba890e41	-0.0010456519
107	0xbbaa3b03	-0.005195023
108	0xbb1a3b9f	-0.0023534072
109	0x3a80a693	0.0009815268
110	0xb9d897e8	-0.0004131191
111	0x3b3cee91	0.002882872
112	0x3a781348	0.00094633223
113	0xbb263731	-0.0025362486
114	0x3b8163d0	0.003948666
115	0xbac81fa5	-0.001526822
116	0xbb605e49	-0.0034235886
117	0xbb34f0f6	-0.0027609444
118	0xbaad6800	-0.0013229847
119	0x3aa02d0f	0.001222046
120	0xba03e542	-0.00050314155
121	0x3b0b4f2a	0.0021256902
122	0xbb6a73de	-0.0035774629
123	0x3be20d05	0.0068985247
124	0x39b66b63	0.00034793754
125	0xbbd876cf	-0.00660596
126	0xbb3afacb	-0.0028530832
127	0x3a9518ae	0.0011375153
128	0x38b88020	8.797669e-05
129	0x3aa158d6	0.00123098
130	0x398e7ff5	0.00027179686
131	0xbb91cb59	-0.0044492898
132	0x3bc5568a	0.006022279
133	0xbae3bdba	-0.0017375269
134	0xbb694a11	-0.0035597126
135	0xba99e6f8	-0.0011741808
136	0x3b23c997	0.0024991983
137	0x3a750f37	0.00093482755
138	0x3a224f91	0.0006191666
139	0x3a45e6a9	0.00075493247
140	0xbb9cd7e5	-0.004786479
141	0x3bccfe94	0.006255934
142	0xbab733de	-0.001397725
143	0xbba614aa	-0.0050683813
144	0xbaf8d9b3	-0.0018985778
145	0xba6674c2	-0.0008791202
146	0xb9437296	-0.00018639336
147	0x3b170a76	0.0023047007
148	0x39807e8f	0.00024508356
149	0xbb4d4038	-0.0031318795
150	0x3bce2871	0.006291442
151	0xba6b8400	-0.0008984208
152	0xbabdffdc	-0.0014495808
153	0xbb40bc7f	-0.0029409227
154	0xba26d323	-0.0006363859
155	0x3a6fbe26	0.0009145461
156	0x3a2e329f	0.00066451164
157	0x3b494d90	0.0030716397
158	0xbba2f044	-0.0049724896
159	0x3c011941	0.007879556
160	0xba438707	-0.00074587803
161	0xbbfdcf3d	-0.007745652
162	0xbbc89ef6	-0.0061224652
163	0x3999d191	0.00029338573
164	0xbaa83c41	-0.001283534
165	0xbae2e88d	-0.0017311737
166	0x3a4c0765	0.00077830843
167	0x3ab18892	0.001354473
168	0x3aa37d1a	0.0012473196
169	0x3b06119c	0.0020457273
170	0x3b304e05	0.0026901972
171	0xbb2626c9	-0.0025352708
172	0x38a7c2db	7.999475e-05
173	0xba5076da	-0.00079522806
174	0xba18e303	-0.0005832167
175	0x39936de9	0.00028119914
176	0x3a1ec46d	0.00060564914
177	0x3a84789a	0.0010106743
178	0x3aafb203	0.0013404492
179	0x3aeb2061	0.0017938727
180	0xbaeeb689	-0.0018212359
181	0xb9ef3cfc	-0.0004563107
182	0xbb139686	-0.002252014
183	0xba165add	-0.00057355856
184	0x39a944be	0.0003228541
185	0x3ad3670f	0.0016128736
186	0x3a44ed3f	0.0007512159
187	0x3aaafc99	0.0013045251
188	0x3b086f49	0.0020818284
189	0xbb21e9f7	-0.0024706104
190	0xb9bec83b	-0.00036388807
191	0xba904aa1	-0.0011008569
192	0x3a78aa91	0.00094858656
193	0x3a891e8f	0.0010461378
194	0x3b07aa94	0.0020701038
195	0x3a3eb0fb	0.0007274297
196	0xb9d916ad	-0.0004140636
197	0x39c5eadd	0.00037749755
198	0xbb991f19	-0.0046728966
199	0xb9d46fe4	-0.00040519156
200	0xbb760993	-0.0037542328
201	0xb8edda9b	-0.00011341759
202	0x3983ef20	0.0002516443
203	0x3aa07522	0.001224194
204	0x3b22fe86	0.0024870946
205	0x3b4d59f5	0.0031334136
206	0x3b36cbaf	0.00278924
207	0xbb7a7983	-0.00382194
208	0x39390e2a	0.00017648251
209	0xb98e0009	-0.00027084377
210	0xbab93ee3	-0.0014133122
211	0x3a9a0df8	0.0011753431
212	0x3b2517fb	0.0025191295
213	0x3962d014	0.00021630555
214	0x3a6c9835	0.0009025366
215	0x3b1f87a7	0.002434233
216	0xbb606ba1	-0.003424384
217	0x39219e06	0.00015413025
218	0xbaca863f	-0.0015451385
219	0xba3f0738	-0.00072871475
220	0x398faed8	0.00027405354
221	0x3a86159f	0.0010229832
222	0x3a239749	0.00062405
223	0x3a8d0503	0.001075894
224	0x3b11cb54	0.0022246437
225	0xbba39375	-0.0049919435
226	0xb98aff32	-0.00026511546
227	0xb9bbfb39	-0.00035854595
228	0xbae7c7bb	-0.0017683426
229	0x3a8220e9	0.0009928021
230	0x3ae003b1	0.0017090944
231	0x3a4ed34b	0.00078897615
232	0x3af39a48	0.0018585408
233	0x3acd5d80	0.0015668124
234	0xbba2e234	-0.004970813
235	0xba06a9d9	-0.00051370036
236	0xbb66fae6	-0.0035244762
237	0x3707496b	8.063721e-06
238	0x39b80aab	0.00035103163
239	0x3aecc712	0.0018064699
240	0x3b0c5fdc	0.0021419441
241	0x3b28e953	0.0025773838
242	0x3b43987f	0.0029845533
243	0xba8de6cf	-0.0010826233
244	0xb8f7e346	-0.00011820211
245	0x3880e145	6.145475e-05
246	0x3813232a	3.508028e-05
247	0x3a0da5dc	0.0005403438
248	0x39ca0c73	0.00038537718
249	0xb9f5dd76	-0.00046895043
250	0x38b15988	8.456694e-05
251	0x390c9284	0.00013406022
252	0xba00b1ce	-0.00049093075
253	0x37b71066	2.1822936e-05
254	0x387f19f1	6.0820897e-05
255	0x38a3187f	7.7770084e-05

exp_avg_sq f4 [16, 9, 3, 3]
0	0x3b1c6959	0.0023866503
1	0x3adcb4b7	0.0016838525
2	0x3ab4c621	0.0013791957
3	0x3b39c950	0.0028348751
4	0x3b00734b	0.001959997
5	0x3a95c01a	0.0011425049
6	0x3b2b79e2	0.0026165177
7	0x3ad02e6c	0.0015882975
8	0x3abc9761	0.0014388376
9	0x3a30af8a	0.00067400245
10	0x39ea886e	0.00044733606
11	0x399c6ab0	0.00029834127
12	0x3a4bb970	0.0007771468
13	0x3a0a88be	0.00052846584
14	0x399d47ca	0.0002999886
15	0x3a37f125	0.00070168293
16	0x39e50514	0.00043682067
17	0x39cf1390	0.00039496692
18	0x3ac17d0a	0.0014761996
19	0x3a6f965d	0.00091395323
20	0x3aa6e30b	0.0012732459
21	0x3ae1d4ec	0.0017229593
22	0x3aab5a36	0.001307315
23	0x3a869801	0.0010268689
24	0x3aba90f0	0.0014233869
25	0x3aab92e5	0.0013090043
26	0x3aaf08c9	0.0013354059
27	0x3a2d9bfa	0.00066226686
28	0x39d84aff	0.00041254607
29	0x39ce76b7	0.0003937983
30	0x3a40ff0d	0.0007362224
31	0x39eea5e0	0.00045518484
32	0x39b92479	0.00035313124
33	0x3a20076e	0.0006104623
34	0x39f0c0d7	0.00045920044
35	0x3a0cc693	0.0005370166
36	0x3b14cbbd	0.0022704445
37	0x3add4ff9	0.0016884796
38	0x3ad7c1a5	0.0016460909
39	0x3b390895	0.0028233875
40	0x3afd8fcf	0.0019345226
41	0x3ab5940b	0.0013853324
42	0x3b28be01	0.0025748017
43	0x3ad46ad6	0.0016206156
44	0x3abd5cde	0.0014447232
45	0x3b10b6eb	0.0022081684
46	0x3ac03e88	0.0014667073
47	0x3aabdfe5	0.001311299
48	0x3b2418df	0.0025039238
49	0x3ae17144	0.0017199893
50	0x3a971729	0.0011527288
51	0x3b0de28c	0.0021649925
52	0x3acc7322	0.0015598277
53	0x3ac12c09	0.0014737855
54	0x3abe9037	0.0014538829
55	0x3a8f19eb	0.0010917758
56	0x3a84cb08	0.0010131309
57	0x3ae1573e	0.0017192138
58	0x3a9c9af1	0.0011948032
59	0x3a6966e0	0.0008903574
60	0x3acb1ca2	0.0015496204
61	0x3a878d62	0.0010341818
62	0x3a7ec0b9	0.0009718049
63	0x3ac9c1bf	0.0015392824
64	0x3a87fb9b	0.0010374667
65	0x3a7f94bf	0.0009749643
66	0x3aea9944	0.001789846
67	0x3aa5786d	0.0012624391
68	0x3a4b471c	0.00077544316
69	0x3ad2eba4	0.0016091955
70	0x3a8fca22	0.0010970274
71	0x3a8ce236	0.0010748568
72	0x3b5083b8	0.0031816792
73	0x3b12c915	0.0022397686
74	0x3b046355	0.0020200808
75	0x3b785fd6	0.003789892
76	0x3b26d7c8	0.0025458205
77	0x3af0428e	0.0018330382
78	0x3b5d1471	0.0033734108
79	0x3b0f2ec4	0.0021847943
80	0x3b0807ef	0.0020756682
81	0x3a491181	0.000767015
82	0x3a46f1d3	0.0007589135
83	0x3a2aa80f	0.0006510028
84	0x3a9700cd	0.0011520624
85	0x3a36446d	0.0006952945
86	0x3a0210f1	0.0004961631
87	0x3ab93cd1	0.0014132505
88	0x3a6358c0	0.00086725876
89	0x3a4242fd	0.0007410495
90	0x394ffb06	0.00019834572
91	0x392c7c71	0.00016449556
92	0x3927ab5b	0.00015990196
93	0x39a7e9e5	0.00032026987
94	0x393be453	0.00017918767
95	0x39097720	0.00013109716
96	0x39cd4ea9	0.00039159253
97	0x39758814	0.00023415714
98	0x3959702d	0.00020736521
99	0x3a1101fc	0.0005531607
100	0x3a078201	0.00051692134
101	0x3a4f9a7e	0.00079194445
102	0x3a538a97	0.0008069663
103	0x39a95ea0	0.00032304693
104	0x3a3c3722	0.0007179846
105	0x3a7b2955	0.0009581049
106	0x3a0961c5	0.0005240704
107	0x3a605f15	0.000855909
108	0x396d1f62	0.00022613772
109	0x39797fd9	0.00023794117
110	0x3948389b	0.00019094574
111	0x39b3a658	0.00034265476
112	0x3936ab52	0.00017420694
113	0x3947e796	0.00019064391
114	0x39d78b4b	0.00041111777
115	0x3989dd61	0.00026295616
116	0x3992bea4	0.00027989328
117	0x3a25ba9e	0.00063220586
118	0x3a3b2584	0.0007139074
119	0x3a5e6c0a	0.0008484727
120	0x3a943708	0.0011307904
121	0x3a27230f	0.00063757686
122	0x3a291ca9	0.0006451109
123	0x3ab43484	0.0013748561
124	0x3a4eeb23	0.00078933145
125	0x3a5e1656	0.0008471956
126	0x3a42705a	0.00074172544
127	0x3a253059	0.0006301455
128	0x3a38ee47	0.0007054549
129	0x3a8ae1c8	0.0010595853
130	0x3a10c67b	0.000552274
131	0x3a20879a	0.0006123722
132	0x3aac0ad4	0.0013125786
133	0x3a4f4f19	0.000790821
134	0x3a5923cd	0.0008283228
135	0x39fb9387	0.00047984367
136	0x3a0354e4	0.0005009903
137	0x3a055a24	0.00050869794
138	0x3a3b57a7	0.0007146545
139	0x39c99963	0.0003845199
140	0x39e32e70	0.00043331413
141	0x3a6a7788	0.0008944203
142	0x3a09f4ce	0.0005262614
143	0x3a15cda7	0.00057145435
144	0x3a0b7107	0.00053192716
145	0x3a06125e	0.0005114431
146	0x39fea80c	0.0004857186
147	0x3a4731c4	0.0007598663
148	0x39f720d2	0.00047135964
149	0x39c89bb1	0.00038262972
150	0x3a6db870	0.0009068316
151	0x3a1aacd8	0.00059003895
152	0x3a03da74	0.00050298055
153	0x3a733a03	0.0009278359
154	0x3a8245dc	0.0009939033
155	0x3a8c0603	0.0010682944
156	0x3acf45b6	0.0015813622
157	0x3a59e3aa	0.00083118177
158	0x3a65f631	0.0008772342
159	0x3af9f869	0.0019071224
160	0x3a92a826	0.0011189028
161	0x3a9e4117	0.0012073842
162	0x39f1b732	0.00046103593
163	0x39bb7dca	0.0003576114
164	0x396e15bd	0.00022705547
165	0x39a1c7e2	0.00030857237
166	0x391b17aa	0.00014790767
167	0x38e5bd0d	0.000109547844
168	0x3997f649	0.0002898446
169	0x39750510	0.00023366907
170	0x3901a119	0.00012362412
171	0x39002407	0.00012220452
172	0x38cba167	9.709858e-05
173	0x388c92fd	6.703099e-05
174	0x38b9ed7e	8.865724e-05
175	0x3823a180	3.9012637e-05
176	0x37d08f6f	2.4862324e-05
177	0x389f074e	7.5830714e-05
178	0x38788305	5.924983e-05
179	0x381c8452	3.731653e-05
180	0x39a72405	0.0003187956
181	0x39670757	0.00022032611
182	0x390b4053	0.00013280036
183	0x3900d22d	0.00012285328
184	0x389d49a6	7.5000615e-05
185	0x38ed49db	0.00011314797
186	0x3951f509	0.00020023076
187	0x39269631	0.00015886944
188	0x38b45dfd	8.6005755e-05
189	0x39119afe	0.00013886017
190	0x38aa09b9	8.108043e-05
191	0x381311d6	3.5064142e-05
192	0x384e72f1	4.9221275e-05
193	0x37d41d30	2.528596e-05
194	0x38337ef9	4.2795178e-05
195	0x38f2830b	0.00011563868
196	0x389d3ad1	7.497299e-05
197	0x37ad8df5	2.0689311e-05
198	0x3a05820e	0.0005092927
199	0x39e7c020	0.00044202898
200	0x398ed84a	0.00027245498
201	0x399e16ba	0.0003015304
202	0x38e672bc	0.000109886256
203	0x38c725ba	9.4960866e-05
204	0x39929409	0.00027957585
205	0x398ee993	0.00027258377
206	0x3927fdf2	0.00016020963
207	0x39d1d222	0.00040020148
208	0x398d28a8	0.00026923907
209	0x39370049	0.00017452346
210	0x39684340	0.00022150297
211	0x390b650a	0.00013293713
212	0x3908b39f	0.00013036885
213	0x3980d620	0.00024573598
214	0x392c9179	0.00016457391
215	0x38bd0543	9.013202e-05
216	0x399f0912	0.000303336
217	0x396e26a5	0.00022711845
218	0x390db73c	0.00013515068
219	0x392e47e4	0.00016620714
220	0x38ae764e	8.3190025e-05
221	0x38a363b8	7.79102e-05
222	0x39346624	0.00017204188
223	0x3913d531	0.00014098432
224	0x389acea7	7.381784e-05
225	0x39999e38	0.00029300316
226	0x395c6f43	0.00021022283
227	0x390a75e6	0.00013204626
228	0x3932f91e	0.00017068206
229	0x38c67664	9.463428e-05
230	0x38b03d73	8.40378e-05
231	0x394feb5b	0.00019828735
232	0x391d02e8	0.0001497377
233	0x3898bf79	7.2835894e-05
234	0x3a30ad88	0.00067397254
235	0x3a0cd119	0.0005371734
236	0x39a5018d	0.00031472408
237	0x39c3571f	0.0003725821
238	0x392187c1	0.00015404729
239	0x39103303	0.00013751914
240	0x39cd9ce4	0.0003921754
241	0x39b73cb3	0.00034949704
242	0x393f7472	0.00018258559
243	0x36feb8f6	7.591322e-06
244	0x35ae7359	1.2997581e-06
245	0x352e18c1	6.4856073e-07
246	0x360af73d	2.0707514e-06
247	0x3741ed8f	1.1559007e-05
248	0x369c8419	4.6645405e-06
249	0x35f69ff8	1.8374985e-06
250	0x35b8b2f0	1.3761146e-06
251	0x357d1124	9.427479e-07
252	0x35db18da	1.6324004e-06
253	0x34fd221b	4.7149737e-07
254	0x34865ff7	2.502927e-07
255	0x353eda63	7.109831e-07

exp_avg f4 [16]
0	0xaf37cd9b	-1.6716799e-10
1	0x2ec2296a	8.829455e-11
2	0xae84a875	-6.032589e-11
3	0x2ea24682	7.379432e-11
4	0xaef12274	-1.0965531e-10
5	0x2f231f59	1.48359e-10
6	0xae0e1341	-3.2304163e-11
7	0x2f3a1b5c	1.6926321e-10
8	0x2fa04144	2.9150204e-10
9	0xae0ccf79	-3.2016587e-11
10	0x2e206538	3.646969e-11
11	0x2f261354	1.5104479e-10
12	0x2ec28305	8.8453724e-11
13	0xaf321b23	-1.6198647e-10
14	0x2f3d88ff	1.723812e-10
15	0xab935a25	-1.0469998e-12

exp_avg_sq f4 [16]
0	0x22a74e39	4.5348262e-18
1	0x224d04f0	2.7785295e-18
2	0x2141208a	6.543401e-19
3	0x1fdc1a28	9.3216896e-20
4	0x21ae5682	1.1813597e-18
5	0x20a4d434	2.7923105e-19
6	0x213ea908	6.4598215e-19
7	0x212d7079	5.8763536e-19
8	0x21b54792	1.2283982e-18
9	0x1ff3b940	1.03220974e-19
10	0x1f384882	3.9023493e-20
11	0x21307635	5.9787565e-19
12	0x21cdf73f	1.3956786e-18
13	0x21464db8	6.718787e-19
14	0x224d3080	2.7808356e-18
15	0x204d9098	1.7412017e-19

exp_avg f4 [16]
0	0xbc5d4aa4	-0.013506565
1	0xbca491b1	-0.020089002
2	0x3c848721	0.016177716
3	0x3bd0ba79	0.0063698855
4	0xbb30d988	-0.0026985127
5	0x3c73465a	0.014848316
6	0x3c914ef1	0.017737838
7	0x3b9cc044	0.004783662
8	0x3b3739c0	0.0027958006
9	0x3bea5f5a	0.00715248
10	0x3af363ca	0.0018569168
11	0xbcbda5bb	-0.023150316
12	0x3b0e3942	0.0021701609
13	0xbb54182a	-0.0032363036
14	0xbcde7818	-0.027156875
15	0x3b92b793	0.00447745

exp_avg_sq f4 [16]
0	0x3c7caaa1	0.0154215405
1	0x3c863176	0.016381007
2	0x3c9867d8	0.018604204
3	0x3b740790	0.0037235953
4	0x3beb0de0	0.007173285
5	0x3c4fcf66	0.012683725
6	0x3b825e4b	0.0039785258
7	0x3c084f62	0.008319708
8	0x3c2c4c55	0.010516246
9	0x3b8ca722	0.0042923847
10	0x3aa7c372	0.0012799336
11	0x3c731889	0.014837393
12	0x3c4355e2	0.0119223315
13	0x3c84613e	0.01615965
14	0x3c780491	0.0151378075
15	0x3c459690	0.012059823

exp_avg f4 [16]
0	0xbbc3ea6d	-0.0059788735
1	0xbc281f1f	-0.010261326
2	0x3bc4d5a6	0.006006914
3	0x3b656d09	0.0035007617
4	0xb9e86e1d	-0.0004433253
5	0x3bd54cb9	0.00650939
6	0x3c24d71a	0.01006105
7	0x3af9cd92	0.0019058457
8	0x39696673	0.00022258777
9	0x3ba0b4db	0.004904372
10	0x3840ebea	4.599608e-05
11	0xbc64a180	-0.01395452
12	0xba902415	-0.0010997081
13	0xbb40a8b1	-0.0029397423
14	0xbc02b55f	-0.007977813
15	0x3b0cb59c	0.0021470552

exp_avg_sq f4 [16]
0	0x3b3ec495	0.0029108871
1	0x3b334d86	0.002735944
2	0x3b589876	0.0033049858
3	0x3aef9e62	0.0018281455
4	0x3ac0e8a1	0.0014717766
5	0x3b25f859	0.0025325029
6	0x3ae409fb	0.0017397994
7	0x3b633864	0.0034671063
8	0x3b6aa55b	0.0035804126
9	0x3b0d5c0f	0.0021569764
10	0x3a4d64b7	0.0007835137
11	0x3b8d60f4	0.004314536
12	0x3b0e6c82	0.0021732156
13	0x3b26365e	0.0025361995
14	0x3b3f4e1d	0.0029190846
15	0x3b1ea1fc	0.0024205437
