saved_models/emnist_cnn_lite.pth (torch, 313636 bytes, 15 tensors)

conv1.weight f4 [1, 1, 3, 3]
0	0xbf800000	-1.0
1	0x3f800000	1.0
2	0xbf800000	-1.0
3	0x3f800000	1.0
4	0xbf800000	-1.0
5	0xbf800000	-1.0
6	0xbf800000	-1.0
7	0x3f800000	1.0
8	0xbf800000	-1.0

conv2.weight f4 [32, 1, 3, 3]
0	0x3daf5224	0.08560589
1	0x3edc8581	0.43070605
2	0xbd0dd6c4	-0.034628645
3	0xbe930d00	-0.28720856
4	0xbee65f97	-0.44994804
5	0xbd48449f	-0.048893567
6	0x3e5b008b	0.21386926
7	0x3eb11b3e	0.34591097
8	0x3c528ff2	0.012851702
9	0xbec80d2c	-0.3907255
10	0x3e5e0c9a	0.21684495
11	0x3e5aa3d2	0.21351555
12	0xbcfefed6	-0.031127375
13	0x3ed25fe4	0.41088784
14	0xbe6e981b	-0.23300211
15	0x3edcf1a2	0.431531
16	0xbcbcc982	-0.023045305
17	0xbd5aa9fd	-0.05338477
18	0x3ece4eec	0.40294588
19	0x3e5c3725	0.21505411
20	0xbe8589bf	-0.26081654
21	0xbe2dfd98	-0.1699127
22	0x3e7a9ee5	0.24474676
23	0x3e3267be	0.17422387
24	0xbe6fc1c6	-0.23413762
25	0xbe93375e	-0.2875318
26	0x3ec8e248	0.3923514
27	0xbee3125b	-0.44349942
28	0xbd0d40f0	-0.034485757
29	0x3d799043	0.060928594
30	0x3c50ccb0	0.012744114
31	0xbee0dd02	-0.43918616
32	0x3ef5a328	0.4797604
33	0x3d3dbde4	0.046323672
34	0xbeb41c33	-0.35177764
35	0xbe72928e	-0.23688719
36	0xbeb58055	-0.35449472
37	0x3dd1f395	0.10251538
38	0x3c466327	0.012108601
39	0x3e8a3de6	0.2700035
40	0xbe314ec3	-0.17315201
41	0xbee53f76	-0.4477498
42	0x3efd47cc	0.4946884
43	0x3e4c5ed5	0.1995805
44	0xbead2805	-0.33819595
45	0x3c63d977	0.013906828
46	0xbeab9143	-0.33509263
47	0x3defc48e	0.11707412
48	0x3edeca37	0.43513653
49	0x3edc70c0	0.4305477
50	0x3e3b5bef	0.18296789
51	0xbee5aed5	-0.4485995
52	0xbb96af22	-0.004598514
53	0x3d70592c	0.05867879
54	0x3e950a34	0.29109347
55	0xbec96bb2	-0.39339978
56	0xbe5e89ff	-0.21732329
57	0x3de3233a	0.11090703
58	0x3e876a59	0.26448324
59	0x3e4687ea	0.19387785
60	0x3e591611	0.21199824
61	0x3dcbec7b	0.099572144
62	0xbd0d0a88	-0.03443387
63	0x3eb724f8	0.35770392
64	0xbca162e7	-0.01970048
65	0xbe5a5e83	-0.21325116
66	0x3e04940b	0.12947099
67	0x3eb81c18	0.35958934
68	0xbe4d1725	-0.2002836
69	0xbeb7efa2	-0.35925013
70	0x3ec5a850	0.38604975
71	0xbd8c650c	-0.06855211
72	0x3eabfd3c	0.3359164
73	0x3e9a122a	0.30091983
74	0x3e9ba75b	0.3040112
75	0xbedcdacb	-0.43135676
76	0xbeb6f224	-0.35731614
77	0xbba62b39	-0.0050710705
78	0x3daa5f49	0.083189555
79	0xbd39a4f5	-0.04532333
80	0xbc87719c	-0.016533665
81	0x3e5eab46	0.21745023
82	0xbd9d2a16	-0.07674043
83	0xbe57f2f2	-0.2108877
84	0x3e57d735	0.21078189
85	0xbed4191a	-0.414254
86	0x3ec552d6	0.3853976
87	0xbeb81fcf	-0.35961768
88	0x3d680f16	0.056655012
89	0x3d74ffde	0.059814326
90	0x3e441b8f	0.19151138
91	0xbeac16a9	-0.33611038
92	0x3e38959b	0.1802582
93	0x3da33856	0.079697296
94	0x3c71bc21	0.014754326
95	0xbe19c6ff	-0.15017317
96	0xbeaaab47	-0.333338
97	0x3f120936	0.57045305
98	0xbea48e76	-0.3213994
99	0x3ec37b1f	0.3817987
100	0xbdbfcf82	-0.09365751
101	0xbe34b047	-0.1764537
102	0x3e159044	0.14605814
103	0x3edc679f	0.43047807
104	0xbd2e5d5b	-0.0425695
105	0xbe5b9f23	-0.21447425
106	0x3e13d50c	0.1443674
107	0x3eb1f4f8	0.3475721
108	0x3cb1d215	0.02170662
109	0xbe8a6655	-0.27031198
110	0x3ea3e1cc	0.32008207
111	0x3e7c4fd6	0.2463983
112	0xbecbfc96	-0.39841145
113	0x3e540129	0.20703568
114	0xbe51286a	-0.20425573
115	0xbd16629b	-0.03671513
116	0x3ee4469a	0.44585115
117	0xbeab6c67	-0.33481142
118	0x3ebee69f	0.37285325
119	0x3d72532f	0.05916136
120	0x3f000763	0.5001127
121	0xbe9793e2	-0.29605013
122	0xbec1705a	-0.3778103
123	0xbe2fe065	-0.17175443
124	0xbc9bebf5	-0.019033412
125	0x3ed6457c	0.41849887
126	0x3eead849	0.45868137
127	0xbe623714	-0.22091323
128	0xba838793	-0.0010034911
129	0x3e935360	0.28774548
130	0xbea65d93	-0.32493266
131	0xbe5b69d9	-0.21427096
132	0x3e7ebda0	0.24877024
133	0x3ec2182d	0.3790907
134	0x3cdb29f8	0.02675341
135	0xbd33dd64	-0.043912306
136	0xbe8c7e0b	-0.27439913
137	0x3c19ee09	0.009395131
138	0xbe704c8e	-0.23466703
139	0x3e8f30d2	0.27966934
140	0x3e816774	0.2527424
141	0x3e609b69	0.21934284
142	0x3e2ea36c	0.17054528
143	0xbe9a7973	-0.30170783
144	0xbeba1dbe	-0.36350816
145	0x3edd26fe	0.4319381
146	0x3e52f502	0.20601276
147	0x3ed91d1b	0.42405018
148	0x3c80fcce	0.015745547
149	0x3da1ebc8	0.079063
150	0xbd28a976	-0.041177236
151	0x3e7bec7d	0.24601932
152	0x3e1660e4	0.14685398
153	0xbea0e60a	-0.31425506
154	0x3dcfe536	0.101511404
155	0x3ed187a8	0.4092381
156	0x39d68991	0.00040919756
157	0xbeb8567e	-0.36003488
158	0x3ec7d7d0	0.3903184
159	0xbdff1a0f	-0.12456142
160	0xbe88562e	-0.2662825
161	0x3ed81efe	0.42211145
162	0xbe5ce403	-0.21571355
163	0xbddc57c6	-0.10758929
164	0x3e467330	0.19379878
165	0x3e06fe04	0.13182837
166	0x3f05c651	0.5225573
167	0xbe5d0762	-0.21584848
168	0xbd886aa5	-0.06660966
169	0xbee1dc60	-0.44113445
170	0x3dd0dad6	0.1019799
171	0xbd7e42dd	-0.062075485
172	0xbdb9f0e8	-0.09079152
173	0xbc938f89	-0.018012779
174	0x3e784db0	0.24248385
175	0x3ea84ab7	0.32869503
176	0xbeeb5cbd	-0.4596919
177	0xbec1f497	-0.3788192
178	0x3ec46bfb	0.38363633
179	0x3ef7a819	0.48370436
180	0xbeac2f5d	-0.33629885
181	0x3d643c2a	0.05572144
182	0x3eb0be70	0.34520292
183	0x3e7bca07	0.24588786
184	0x3ecd3b48	0.4008429
185	0x3e50e17e	0.20398518
186	0x3e88ef28	0.26744962
187	0xbe782a50	-0.24234891
188	0xbe89a6bd	-0.26885024
189	0xbd6d3677	-0.05791327
190	0x3d822d17	0.063562565
191	0xbdf0de5a	-0.1176116
192	0xbe738992	-0.23782948
193	0xbe99771f	-0.29973695
194	0xbdfc178d	-0.123091795
195	0x3e648ade	0.22318599
196	0x3e9ba286	0.30397433
197	0x3e38b880	0.18039131
198	0xbc4620a6	-0.012092745
199	0xbe4c0ad9	-0.19926013
200	0xbde5edc1	-0.112269886
201	0x3e087b52	0.13328293
202	0xbe2c1029	-0.1680304
203	0xbe8d694b	-0.27619395
204	0x3ebe2f56	0.3714549
205	0x3f061df6	0.52389467
206	0x3eadbb92	0.33932167
207	0x3dd9564a	0.106121615
208	0xbeb4f577	-0.35343525
209	0x3e8a714c	0.27039564
210	0x3eca2fbc	0.39489543
211	0xbf006b5d	-0.50163823
212	0x3e515030	0.20440745
213	0x3e211925	0.15732248
214	0xbe269b2c	-0.16270131
215	0x3c2e76d0	0.010648444
216	0xbe8146f9	-0.2524946
217	0x3e4f5486	0.20247087
218	0x3ec3ba8d	0.38228264
219	0xbc87f468	-0.016596034
220	0xbef8907a	-0.48547727
221	0xbdedd613	-0.11613097
222	0x3ed3f685	0.41399017
223	0x3e036200	0.12830353
224	0xbd7d88f1	-0.061898176
225	0x3ebdef4c	0.37096632
226	0x3ea3175d	0.31853762
227	0x3eaa470b	0.33257326
228	0x3eab7d4a	0.33494025
229	0x3d7a5cf2	0.061123796
230	0x3c851ca8	0.016249016
231	0xbe2c80c4	-0.16845995
232	0xbe895d09	-0.26828793
233	0xbe9f9948	-0.31171632
234	0xbe33bc39	-0.1755227
235	0x3e9af608	0.30265832
236	0x3f058148	0.5215039
237	0xbeac948a	-0.33707076
238	0x3e185260	0.14875174
239	0xbebe34bc	-0.37149608
240	0x3e002e06	0.12517557
241	0x3eac9e7f	0.33714673
242	0xbda78559	-0.08179731
243	0x3e08ae92	0.13347843
244	0x3eb36ef7	0.35045597
245	0xbe59e6a4	-0.21279389
246	0x3ecee2c7	0.40407392
247	0xbd89423d	-0.06702087
248	0xbde06b91	-0.10958017
249	0x3f087f50	0.53319263
250	0xbea259d7	-0.31709167
251	0xbe1a64a0	-0.15077448
252	0x3d6bda8c	0.05758147
253	0x3e6c9b16	0.23106036
254	0xbf019c5e	-0.5062922
255	0xbeac7e67	-0.33690187

conv2.bias f4 [32]
0	0x3ef6acef	0.48178813
1	0x3e6edfb5	0.23327525
2	0x3e98208c	0.2971233
3	0x3e2317c5	0.15927036
4	0xbc445755	-0.011983712
5	0x3ed93b59	0.4242809
6	0x3d4cecc9	0.050030503
7	0xbdf464dc	-0.119333
8	0x3eb75e89	0.35814312
9	0x3e41d0ea	0.1892735
10	0x3e9428de	0.2893743
11	0x3e8d09e1	0.275466
12	0x3f0034e7	0.5008072
13	0xbe4fc201	-0.2028885
14	0xbe253930	-0.16135097
15	0x3e00d63f	0.12581728
16	0x3e8b6a26	0.27229422
17	0x3e3223ad	0.17396422
18	0x3d70018b	0.05859522
19	0xbc1866b3	-0.009301829
20	0x3ee5391b	0.4477013
21	0x3df6afdf	0.120452635
22	0xbd4e07db	-0.05030046
23	0x3eae8853	0.34088382
24	0x3e2c9da8	0.16857016
25	0x3deeffb8	0.11669868
26	0x3ebe0698	0.37114406
27	0x3e83c159	0.2573345
28	0x3deb490c	0.11488542
29	0x3e158391	0.1460097
30	0x3ea072de	0.31337637
31	0xbe2eeb9e	-0.17082068

bn2.weight f4 [32]
0	0x3fa14c1f	1.2601355
1	0x3f9d0b5b	1.226909
2	0x3f979052	1.1840918
3	0x3f8e3579	1.1110069
4	0x3f68f67e	0.9100112
5	0x3fa8a58f	1.3175524
6	0x3f844ece	1.0336549
7	0x3fbf9414	1.4967065
8	0x3f94ff69	1.1640445
9	0x3f88a27c	1.0674586
10	0x3f8ff137	1.1245488
11	0x3f832aba	1.0247414
12	0x3f9c3405	1.2203375
13	0x3f84abc9	1.0364925
14	0x3f7b8558	0.9825034
15	0x3f92f45d	1.1480824
16	0x3f5d9593	0.8655636
17	0x3fb18b38	1.3870611
18	0x3fa121c5	1.2588431
19	0x3f917231	1.1362973
20	0x3fb82547	1.4386376
21	0x3f8c9ee3	1.0985988
22	0x3f822bc9	1.0169612
23	0x3f9e9fae	1.239248
24	0x3f7a309f	0.9773044
25	0x3fab7977	1.3396443
26	0x3f8ce25e	1.1006582
27	0x3fa22cc3	1.266991
28	0x3f85a9c4	1.0442433
29	0x3f81b697	1.0133847
30	0x3f825454	1.0181985
31	0x3fa5d05d	1.2954212

bn2.bias f4 [32]
0	0xbf495bf2	-0.7865592
1	0xbf56c5a0	-0.838953
2	0xbf5ac02c	-0.8544948
3	0xbf371d64	-0.7152922
4	0xbeaa55fb	-0.33268723
5	0xbf013321	-0.5046864
6	0xbf290a3c	-0.6603124
7	0xbf0c3daf	-0.5478162
8	0xbf0db35e	-0.5535182
9	0xbf8870cb	-1.0659422
10	0xbf0a7efb	-0.54100007
11	0xbf31586d	-0.6927555
12	0xbf434d2b	-0.76289624
13	0xbf1d7fb5	-0.6152299
14	0xbf53300f	-0.82495207
15	0xbf150d5e	-0.5822352
16	0xbf091858	-0.5355277
17	0xbf04124a	-0.51590407
18	0xbedad8b5	-0.4274346
19	0xbf1ec26d	-0.6201542
20	0xbf5f2707	-0.87168926
21	0xbf18a009	-0.59619194
22	0xbf19c1c5	-0.60061294
23	0xbf183885	-0.5946124
24	0xbf724135	-0.9463075
25	0xbf3decdf	-0.7418956
26	0xbf2df528	-0.67952204
27	0xbf3de074	-0.74170613
28	0xbf5c6637	-0.8609347
29	0xbf569910	-0.83827305
30	0xbee050ef	-0.43811747
31	0xbd92f915	-0.07176415

bn2.running_mean f4 [32]
0	0x3f16896c	0.5880344
1	0x3f10d0bd	0.5656851
2	0x3f13a044	0.5766642
3	0xbeb897ce	-0.36053318
4	0xbe1e908f	-0.15484832
5	0x3f3c3524	0.73518586
6	0x3eb9bc77	0.362766
7	0x3e0ce1a5	0.13757952
8	0x3ec8309c	0.39099586
9	0x3dd52dc4	0.1040912
10	0x3e7ff607	0.24996196
11	0x3f53d233	0.82742614
12	0x3f2350ab	0.63794965
13	0xbe00fcba	-0.12596408
14	0x3e1624bf	0.14662455
15	0x3e497c7f	0.19676398
16	0x3f736df0	0.95089626
17	0x3e924734	0.2856995
18	0x3d0ce209	0.03439525
19	0x3e87e320	0.2654047
20	0x3f5ed40d	0.87042314
21	0x3d3641ff	0.044496533
22	0x3e84d78b	0.25945696
23	0x3eb2e76d	0.3494219
24	0x3e656f05	0.22405632
25	0x3f033d64	0.5126555
26	0x3f229e48	0.6352277
27	0x3f107ba1	0.5643864
28	0xbf09c2ea	-0.5381304
29	0x3ea312ca	0.31850272
30	0x3ef0f728	0.47063565
31	0xbd6055b9	-0.05476925

bn2.running_var f4 [32]
0	0x3d16f33a	0.036853053
1	0x3d2ed32a	0.04268185
2	0x3d230d8d	0.039807845
3	0x3d92a06f	0.071595065
4	0x3db0a7d3	0.0862576
5	0x3d532cf0	0.051556528
6	0x3d581eaf	0.052763637
7	0x3d2e996f	0.042626794
8	0x3d8e382a	0.06944306
9	0x3caf412e	0.021393385
10	0x3c3c1e7d	0.011481878
11	0x3d546509	0.051854167
12	0x3d7c8501	0.06165028
13	0x3c5d7d97	0.0135187125
14	0x3db0fa49	0.08641488
15	0x3cb65058	0.022255108
16	0x3d93dfdf	0.072204344
17	0x3deb1ea3	0.11480453
18	0x3ca6498f	0.020298747
19	0x3d3b707e	0.045761578
20	0x3d8ce47d	0.06879518
21	0x3d433b77	0.047664132
22	0x3e0eb9ee	0.13938114
23	0x3d34bc26	0.044124745
24	0x3d07dd95	0.0331703
25	0x3e34a8a6	0.1764246
26	0x3d78f277	0.060778107
27	0x3de44754	0.11146417
28	0x3da37f80	0.07983303
29	0x3d4c14df	0.04982459
30	0x3d039b8c	0.032130763
31	0x3d560993	0.052255224

se.1.weight f4 [8, 32, 1, 1]
0	0xbe17dd30	-0.1483047
1	0xbe06e844	-0.1317454
2	0xbd0e3e18	-0.034727186
3	0xbd830f7a	-0.06399436
4	0x3d456748	0.0481942
5	0xbdbc4f34	-0.09194794
6	0x3d1e8ae4	0.038706675
7	0xbe1c5c58	-0.15269601
8	0x3d838654	0.064221054
9	0xbe3019ba	-0.17197314
10	0x3cd2ae00	0.025717735
11	0xbdaf7402	-0.085670486
12	0x3d72f134	0.05931206
13	0xbd3a91d0	-0.045549214
14	0x3e32130b	0.17390077
15	0xbda2bbcb	-0.07945975
16	0x3e2ed715	0.17074235
17	0xbe0b1644	-0.13582712
18	0xbe0da4b9	-0.13832368
19	0xbe0894bd	-0.13337989
20	0x3e2a51af	0.16632722
21	0x3e1f9dd3	0.15587549
22	0xbd50f828	-0.05101791
23	0xbcf17ec8	-0.0294794
24	0x3dfed51a	0.1244299
25	0xbcc44338	-0.023957834
26	0x3d1b1358	0.037860245
27	0x3db7d4da	0.08976145
28	0x3c951668	0.01819916
29	0xbda15d96	-0.07879178
30	0xbdd84249	-0.10559518
31	0xbdc2afe7	-0.09506207
32	0xbc1275c1	-0.0089392075
33	0x3f58c73c	0.8467901
34	0x3ed27b0c	0.41109502
35	0xbe82c587	-0.25541326
36	0x3e146b12	0.14493969
37	0x3e2b7317	0.16743122
38	0x3e6c7910	0.23093057
39	0x3eab973e	0.33513826
40	0x3e5ac31b	0.2136349
41	0x3f22385d	0.63367254
42	0x3dd56fc7	0.104217105
43	0x3f021e80	0.5082779
44	0x3ed15565	0.40885463
45	0x3eb03017	0.3441169
46	0x3f103dcc	0.56344295
47	0x3f1b90d3	0.6076786
48	0x3f056560	0.5210781
49	0x3edcd259	0.43129233
50	0x3de4b348	0.11167008
51	0x3c5a858e	0.013337506
52	0x3f22fdb9	0.636684
53	0x3ec7b25e	0.3900327
54	0x3e28b829	0.16476502
55	0xbeb278b0	-0.34857702
56	0x3d595706	0.053061508
57	0x3ebabb1c	0.36470878
58	0x3ea6f88e	0.32611507
59	0x3f3658cb	0.7122924
60	0xbd8a4d95	-0.06753079
61	0x3f1e4109	0.61817986
62	0x3efa1e55	0.48851267
63	0x3e80362b	0.25041327
64	0x3ed801cd	0.42188874
65	0xbe8d6f08	-0.27623773
66	0x3eb7802a	0.3583997
67	0x3f540942	0.82826626
68	0x3f0681eb	0.5254199
69	0x3ef0c857	0.47027847
70	0x3f21aded	0.63156015
71	0x3f01f4d9	0.5076423
72	0x3f171c30	0.59027386
73	0xbea1c524	-0.3159572
74	0x3e156ad8	0.14591539
75	0x3ebed3f7	0.3727109
76	0xbe3d96f1	-0.18514611
77	0xbea9324a	-0.3304618
78	0x3e6943ab	0.2277972
79	0xbd2404f3	-0.040043782
80	0xbda90801	-0.0825348
81	0x3e99b9b9	0.30024508
82	0x3ec81efb	0.39086136
83	0x3eaacfc2	0.33361632
84	0x3dcf7500	0.10129738
85	0x3f1bfcf5	0.60932857
86	0x3f1fb05b	0.6237847
87	0xbe281cfd	-0.16417308
88	0x3f240d9a	0.64083254
89	0x3eb08051	0.34472898
90	0x3df7566b	0.1207703
91	0x3e419e1b	0.18907969
92	0x3f140b94	0.57830167
93	0xbea972cf	-0.33095405
94	0x3d81a166	0.063296124
95	0x3e6d11ff	0.23151396
96	0x3e1c825b	0.15284102
97	0x3d9baa56	0.076008484
98	0x3c467600	0.012113094
99	0xb7c08000	-2.2947788e-05
100	0x3d88eb02	0.06685449
101	0x3d6dbd08	0.058041602
102	0xbe2aeb85	-0.16691406
103	0xbd2c3014	-0.04203804
104	0xbdfb01aa	-0.12256177
105	0xbe31018c	-0.17285746
106	0x3e333333	0.175
107	0xbdf3fe4a	-0.11913736
108	0xbe28f186	-0.16498384
109	0xbd476edc	-0.048689708
110	0x3db82a26	0.08992414
111	0x3c5fbb50	0.013655499
112	0xbdcb3217	-0.09921663
113	0x3df58fc6	0.11990313
114	0xbdb5250e	-0.08844958
115	0xbe1d2b5d	-0.15348573
116	0xbdb604f2	-0.08887662
117	0x3da3dcc6	0.080010936
118	0xbdaad1fb	-0.08340832
119	0xbcebdaf8	-0.028790936
120	0xbdbe3e11	-0.09289182
121	0xbd96b20e	-0.0735818
122	0x3d99745a	0.074928954
123	0xbd34bc24	-0.044124737
124	0xbe14c35e	-0.14527652
125	0xbe2fbbd3	-0.17161493
126	0x3e228799	0.15872039
127	0x3c7fd140	0.015613854
128	0xbcbdc130	-0.023163408
129	0xbdebb936	-0.115099356
130	0xbcda0650	-0.026614338
131	0xbd2a66c0	-0.041601896
132	0xbd27c340	-0.04095769
133	0xbe2eded6	-0.17077193
134	0x3a9a6380	0.0011778921
135	0x3dfb282a	0.1226352
136	0xbe10fa72	-0.14158037
137	0x3da34b76	0.079733774
138	0xbe23661f	-0.15956925
139	0xbcf8a050	-0.03034988
140	0xbd9eb4d5	-0.07749335
141	0xbdb6ef81	-0.089324005
142	0x3e06f017	0.13177525
143	0xbe1afd42	-0.15135673
144	0xbcd52c78	-0.02602218
145	0x3e06acdf	0.13151883
146	0xbde3685b	-0.111038886
147	0xbd551d72	-0.052030034
148	0xbcbbb710	-0.02291444
149	0xbe25100e	-0.16119406
150	0x3db0cee6	0.08633213
151	0x3d9c193a	0.07621999
152	0x3e219aaf	0.15781663
153	0xbe1261a0	-0.14295053
154	0x3dd2b4f6	0.10288422
155	0xbdb55466	-0.08853988
156	0x3b9cbb00	0.0047830343
157	0x3db1ee22	0.08687998
158	0xbdff5036	-0.12466471
159	0xbd2a23c4	-0.041538015
160	0x3f2f95ab	0.6858775
161	0x3e3a7789	0.18209662
162	0x3f44a137	0.76808494
163	0x3db13b49	0.08653886
164	0x3f002749	0.50059944
165	0x3f171469	0.5901552
166	0x3f4049f6	0.75112855
167	0x3ef6611f	0.48120973
168	0x3f4cf335	0.80058604
169	0x3d127576	0.03575655
170	0x3eb865db	0.3601521
171	0x3f4880fa	0.783218
172	0xbbfd89f7	-0.007737394
173	0x3ede0ca8	0.4336903
174	0x3f46b107	0.7761387
175	0x3e6d9ee4	0.23205143
176	0x3f355d38	0.70845366
177	0x3e1cde45	0.15319164
178	0x3ef48ebb	0.47765145
179	0x3f37b96a	0.71767294
180	0x3eca55d2	0.395186
181	0x3ee08bef	0.4385676
182	0x3f4b0c07	0.7931523
183	0xbdd95326	-0.106115624
184	0x3f21b79c	0.6317079
185	0x3ee55d51	0.44797757
186	0x3edf4237	0.43605205
187	0x3ea8a27e	0.32936472
188	0xbe9751cf	-0.29554603
189	0x3ee2b6ac	0.44279993
190	0x3eb30599	0.34965208
191	0x3f01a4ce	0.50642097
192	0xbe112cdc	-0.14177269
193	0x3ba01c58	0.0048861913
194	0x3d670bd0	0.05640775
195	0xbcd2d922	-0.025738303
196	0xbe46fe22	-0.19432881
197	0xbd2d18ff	-0.042260166
198	0xbd8ca230	-0.06866872
199	0x3d008194	0.031373575
200	0xbe49d1e6	-0.19708976
201	0xbcd0e66b	-0.025500497
202	0xbe288709	-0.16457762
203	0xbd240cbe	-0.040051214
204	0x3c578d48	0.013156243
205	0x3dd284f2	0.102792636
206	0xbcc3c88a	-0.023899335
207	0xbe4505cc	-0.19240493
208	0xbe221c8b	-0.15831201
209	0x3d964c40	0.07338762
210	0xbe35d890	-0.17758393
211	0xbda86600	-0.0822258
212	0x3dac1a8f	0.08403503
213	0xbaf65930	-0.001879489
214	0x3ddc4406	0.10755162
215	0xbd4c00ca	-0.04980544
216	0xbdeb301d	-0.11483786
217	0x3dfacb04	0.122457534
218	0xbd8a15a4	-0.06742409
219	0x3def7586	0.11692338
220	0x3d155b30	0.036463916
221	0x3c31dd3d	0.01085597
222	0x3db727e9	0.08943159
223	0xbe53a285	-0.20667465
224	0x3d309f18	0.043120474
225	0x3f26b6c4	0.6512263
226	0x3eb6cbad	0.35702267
227	0x3ea49bb1	0.32150033
228	0x3eedf900	0.46479034
229	0x3eedb14b	0.46424326
230	0x3ecaaf4f	0.39586875
231	0x3effe029	0.49975708
232	0x3e98c99c	0.29841316
233	0x3f3fdf98	0.7495055
234	0x3d46e69c	0.04855977
235	0x3e684bc3	0.22685151
236	0x3ece347d	0.4027442
237	0x3e0518c1	0.12997724
238	0x3ecc0a96	0.39851826
239	0x3f303d54	0.6884358
240	0x3f1283ed	0.5723255
241	0x3f315d4c	0.69282985
242	0x3ebe95e5	0.37223735
243	0x3e617205	0.22016151
244	0x3f173d93	0.5907833
245	0x3ecab451	0.39590696
246	0x3ed56fc2	0.41686827
247	0x3e75ff57	0.24023186
248	0x3db4f304	0.08835414
249	0x3eea67dd	0.45782366
250	0x3eaae974	0.33381236
251	0x3f0872c3	0.5330011
252	0x3edd0606	0.43168658
253	0x3f5e4b71	0.86833864
254	0x3f08efdc	0.53490996
255	0x3e5a9888	0.21347249

se.1.bias f4 [8]
0	0xbda8bc6c	-0.082390636
1	0x3e3ce9e2	0.18448594
2	0x3d71ac39	0.059002135
3	0xbd485278	-0.048906773
4	0xbdb08d26	-0.08620672
5	0x3ed08b4a	0.4073127
6	0x3d84f98c	0.0649291
7	0x3ed9257a	0.42411405

se.3.weight f4 [32, 8, 1, 1]
0	0xbdf0976e	-0.11747633
1	0x3f29e773	0.6636879
2	0x3e0bf4bf	0.13667582
3	0xbe3588bf	-0.17727946
4	0x3b518000	0.0031967163
5	0x3f0ea3e6	0.5571884
6	0x3e060e6a	0.13091436
7	0x3ebbfd76	0.36716813
8	0x3d1708e0	0.0368737
9	0x3ef7abbc	0.4837321
10	0x3eae5f24	0.34056962
11	0xbda2f938	-0.07957691
12	0xbe24ac6f	-0.16081403
13	0x3ec1f924	0.37885392
14	0xbe832ca7	-0.25620005
15	0x3d89a54e	0.067209825
16	0xbe424704	-0.18972403
17	0x3defb5b7	0.11704581
18	0x3ea2cc79	0.31796625
19	0xbe48a5d9	-0.19594516
20	0x3df32eb8	0.11874145
21	0x3ea0853d	0.31351653
22	0xbe6992eb	-0.22809951
23	0x3ed4e732	0.41582638
24	0xbdbf2354	-0.0933291
25	0x3eae407f	0.34033582
26	0x3c6e800b	0.014556895
27	0xbe7f805f	-0.24951313
28	0x3eac6d7b	0.33677277
29	0x3e1bc75c	0.15212768
30	0xbe7bbae0	-0.24583006
31	0xbd27381c	-0.040824994
32	0xbe071e7e	-0.13195226
33	0x3e50a9c3	0.20377259
34	0x3c8bd65c	0.017069988
35	0x3ea2706d	0.317264
36	0x3e5a19e6	0.21298942
37	0x3ec400ff	0.3828201
38	0x3eadaf51	0.33922818
39	0x3e4c7b64	0.19968945
40	0x3e76e642	0.24111274
41	0x3ece184e	0.40252918
42	0x3ef4e3d5	0.47830072
43	0xbdaccfd8	-0.084380805
44	0x3c5b0340	0.013367474
45	0x3eb741fd	0.35792533
46	0x3ec4e18a	0.38453323
47	0x3e5f41d3	0.21802454
48	0xbeb1d9d5	-0.34736505
49	0x3ec52653	0.38505802
50	0x3e280d81	0.16411401
51	0xbe9c8fa4	-0.3057834
52	0xbe911a46	-0.28340358
53	0xbd9e2e06	-0.07723622
54	0xbe33b6d1	-0.17550208
55	0x3ede6300	0.43434906
56	0x3d8a828c	0.06763181
57	0x3e99cfbe	0.30041307
58	0x3f2d8359	0.67778546
59	0xbe5701bb	-0.20996754
60	0x3dc34210	0.09534085
61	0x3ece28bb	0.4026545
62	0xbe8bb39d	-0.27285472
63	0x3f19c273	0.6006233
64	0x3cc5a8d0	0.024128348
65	0x3e1dc345	0.1540652
66	0x3ee459dd	0.4459981
67	0x3cbcf2e0	0.02306503
68	0x3d8bb2c0	0.06821203
69	0x3eaa7817	0.33294746
70	0xbe8fe8b5	-0.2810723
71	0x3f2dad8d	0.6784294
72	0xbe75606d	-0.23962565
73	0x3f0e7acc	0.55656123
74	0x3e30912f	0.17242883
75	0x3e2fe94e	0.17178842
76	0x3e89de3b	0.2692736
77	0x3eb4f713	0.35344753
78	0xbe6e94e0	-0.23298979
79	0x3edd1e18	0.43187022
80	0x3d1a4c80	0.037670612
81	0x3f24cf10	0.6437845
82	0x3d5bb12b	0.053635757
83	0xbe9d3700	-0.30706024
84	0x3ce14d50	0.027502686
85	0x3ec8f767	0.39251253
86	0x3d4dd1a0	0.050248742
87	0x3e9a3b54	0.3012339
88	0x3d924054	0.07141176
89	0x3ecba2e6	0.3977272
90	0x3f03ab86	0.514336
91	0x3ea4a9c5	0.32160774
92	0x3d37c598	0.044866174
93	0x3e9585b0	0.29203558
94	0xbc9a64a8	-0.018846825
95	0x3da3ace4	0.07991961
96	0xbd964324	-0.07337025
97	0x3eeb71ad	0.45985165
98	0x3ecfb0fd	0.4056472
99	0xbea4c2b1	-0.32179788
100	0xbeb153b4	-0.34634173
101	0x3e710021	0.23535205
102	0xbd25fd42	-0.04052473
103	0x3ecf85c1	0.40531734
104	0x3e1e3fee	0.15454075
105	0xbde10df0	-0.109889865
106	0x3eb0d21a	0.34535295
107	0x3cc43cf0	0.023954839
108	0xbd4748e0	-0.048653483
109	0x3e0699e7	0.13144647
110	0xbe35373e	-0.17696854
111	0xbe250ba7	-0.16117726
112	0x3eb1ce93	0.34727916
113	0x3eb915ec	0.36149538
114	0x3e8c39f6	0.2738797
115	0xbe9b260a	-0.3030246
116	0x3d99bc04	0.07506564
117	0x3eda64c1	0.42654994
118	0xbe587add	-0.21140619
119	0x3f1e6972	0.61879647
120	0xbe51f212	-0.20502499
121	0x3eaba909	0.335274
122	0x3e82a707	0.25518057
123	0x3c77dca0	0.015128285
124	0xbe2710cd	-0.16315003
125	0x3e90eca7	0.2830555
126	0x3d124813	0.035713267
127	0xbdb6fa71	-0.08934487
128	0xbc2081a0	-0.00979653
129	0x3e3e8fe7	0.18609582
130	0xbeb3e4a3	-0.35135373
131	0x3c9e3cf0	0.019316167
132	0x3de9725c	0.113987654
133	0xbe60eadf	-0.21964596
134	0x3dbff5a7	0.09373026
135	0xbc0f681d	-0.00875285
136	0x3e9a5239	0.30140856
137	0x3e91437c	0.283718
138	0x3eb72c67	0.35776064
139	0x3db1c574	0.08680239
140	0x3df582dc	0.1198785
141	0x3e882916	0.26593846
142	0xbb0ae94d	-0.0021196187
143	0x3f423af6	0.7587122
144	0xbe360d57	-0.17778526
145	0x3edc9c5c	0.43088043
146	0x3ed0db29	0.40792206
147	0xbe6c8b24	-0.23099953
148	0x3e4ec796	0.20193323
149	0x3eb671e2	0.3563376
150	0xbe9e72ce	-0.30946964
151	0x3ecdc720	0.40190983
152	0xbeae4862	-0.340396
153	0x3e7674be	0.24067971
154	0xbbdaf645	-0.0066821896
155	0xbe867ad0	-0.26265574
156	0x3e33cc82	0.17558482
157	0x3d46c529	0.04852787
158	0xbe2cdb59	-0.1688055
159	0x3f3f5063	0.74732035
160	0xbe17b229	-0.14814056
161	0x3ebd4e9c	0.36974037
162	0x3ec13620	0.37736607
163	0x3e97e637	0.29667827
164	0xbe952f58	-0.29137683
165	0x3ee30f7f	0.4434776
166	0x3d80ec09	0.0629502
167	0x3f0f825c	0.5605829
168	0xbd804a48	-0.06264168
169	0x3e8430ac	0.25818384
170	0x3d98d994	0.07463375
171	0xbe7eb850	-0.24874997
172	0x3d8ea478	0.06964964
173	0xbe0d770b	-0.13814943
174	0x3dc60626	0.096691415
175	0x3e7e7691	0.24849917
176	0xbe5c5b9e	-0.21519324
177	0xbce58fc5	-0.028022656
178	0xbe1687c9	-0.14700235
179	0xbd69eb80	-0.057109356
180	0x3d1f3430	0.03886813
181	0x3d911142	0.0708337
182	0xbcded93f	-0.0272032
183	0x3edd8f25	0.43273273
184	0xbe3a8828	-0.18216002
185	0x3f2b6ab8	0.66959715
186	0x3ede4e47	0.43419096
187	0x3e86ee6d	0.2635378
188	0xbcafa540	-0.021441102
189	0x3f1a6d06	0.60322607
190	0x3ea45f6c	0.3210405
191	0x3db90412	0.090339795
192	0x3d8f6084	0.07000831
193	0x3ecd8bb4	0.40145648
194	0xbdab5871	-0.08366478
195	0x3eac5203	0.3365632
196	0xbeb05144	-0.34437
197	0x3e8964ff	0.26834866
198	0x3e942aba	0.28938848
199	0x3e871897	0.26385948
200	0xbe53287d	-0.20620914
201	0x3d03aa60	0.032144904
202	0x3ea99f31	0.33129266
203	0x3ea7f051	0.32800534
204	0xbe934f5c	-0.28771484
205	0x3e52b338	0.20576179
206	0xbdf6926b	-0.12039646
207	0x3f333cb9	0.7001453
208	0xbe52448f	-0.20533966
209	0x3ea707dc	0.32623184
210	0x3e6b4276	0.22974572
211	0xbe884ab1	-0.26619485
212	0xbd28f540	-0.041249514
213	0x3ea17173	0.31531867
214	0xbc4249be	-0.011858402
215	0x3eabf862	0.3358794
216	0xbd0c9210	-0.034318984
217	0x3e73b997	0.23801266
218	0x3ee00113	0.4375082
219	0xbd857438	-0.065163076
220	0x3e328416	0.174332
221	0x3ed9dddd	0.4255208
222	0xbe596c6b	-0.21232764
223	0x3e695e49	0.22789873
224	0x3e010ed2	0.1260331
225	0x3e8cb278	0.2747991
226	0x3de4e110	0.1117574
227	0xbe315d20	-0.1732068
228	0x3e913ded	0.28367558
229	0x3f3098e9	0.6898332
230	0x3cad85dc	0.021181993
231	0xbc1278bc	-0.008939918
232	0x3ea187a1	0.3154879
233	0x3ebbe6ec	0.36699617
234	0x3f30c43f	0.6904945
235	0x3d9692e8	0.07352239
236	0x3d9270b8	0.07150406
237	0x3f34ffb1	0.70702654
238	0xbc20b7be	-0.009809433
239	0x3d3d3971	0.04619736
240	0xbd0c6380	-0.034274578
241	0x3ed95470	0.42447233
242	0x3ea56541	0.32303813
243	0x3e0d2c4e	0.13786432
244	0xbe468027	-0.19384824
245	0x3ebd0188	0.3691523
246	0xbea74cf7	-0.32675907
247	0x3eedcbad	0.46444455
248	0xbe22d54b	-0.15901677
249	0x3df31eaa	0.11871083
250	0x3f0b87ce	0.54504097
251	0xbe7b12a0	-0.24518824
252	0xbe7f3a64	-0.24924618
253	0x3ddfdf45	0.10931257
254	0x3e600d95	0.21880181
255	0xbd489bad	-0.04897659

se.3.bias f4 [32]
0	0x3ddbf17d	0.107394196
1	0x3e950719	0.29106978
2	0x3e50fb69	0.20408405
3	0x3ec30626	0.38090628
4	0x3f060599	0.5235229
5	0x3d0890a6	0.033341072
6	0x3e3b1fb2	0.1827381
7	0xbd6d3be2	-0.057918437
8	0x3f093937	0.5360293
9	0x3eeb806a	0.4599641
10	0x3ea0a4b8	0.3137567
11	0x3e96c3c1	0.29446223
12	0x3f3e4f44	0.743397
13	0x3e843378	0.25820518
14	0x3d2273f8	0.039661378
15	0xbea2e8f8	-0.31818366
16	0x3d592bc0	0.05302024
17	0x3e9f8e43	0.31163225
18	0x3f046eec	0.51731753
19	0x3ea08e29	0.3135846
20	0x3e44cec9	0.19219507
21	0x3cf04dab	0.02933391
22	0x3ea1d68a	0.31608993
23	0x3eb7bc06	0.35885638
24	0x3f225317	0.63408035
25	0x3ea95565	0.33072963
26	0x3dbc607e	0.09198092
27	0x3e858dd4	0.2608477
28	0x3ed260ec	0.4108957
29	0x3e6613f0	0.22468543
30	0x3ee86a36	0.45393533
31	0xbe14c312	-0.14527538

fc.0.weight f4 [64, 1152]
0	0x3c0aca11	0.008471028
1	0x3c0fdf2e	0.0087812375
2	0xbcd81888	-0.026378885
3	0x3ccf1e02	0.025282864
4	0xbccb51f1	-0.024819346
5	0xbc915f72	-0.017745707
6	0xbce6f5dc	-0.028193407
7	0xbc987017	-0.018608136
8	0xbb9b81f6	-0.004745717
9	0xbd15195b	-0.036401134
10	0x3c07d870	0.008291349
11	0xbd2c7db8	-0.042112082
12	0xbccfe54f	-0.025377898
13	0x3c123457	0.008923612
14	0xbcef4503	-0.029207712
15	0xbbab6043	-0.005229981
16	0xbc8023ce	-0.015642073
17	0x39497df2	0.00019215772
18	0xbd048259	-0.03235087
19	0xbc7fbf6b	-0.015609602
20	0xbb9e3677	-0.00482827
21	0xbc6043c4	-0.013688032
22	0x3c8a3679	0.016871678
23	0xbd121060	-0.035660148
24	0x3c221d09	0.009894618
25	0x3c7516fc	0.014959093
26	0xbce1c078	-0.027557597
27	0xbcbc30ff	-0.022972582
28	0xbd2d3d75	-0.042294938
29	0xbd168cd5	-0.0367554
30	0xbd217096	-0.03941401
31	0xbd0b98fb	-0.03408144
32	0xbab231db	-0.001359518
33	0x3ceb4f12	0.028724227
34	0xbd0932da	-0.03349576
35	0xbb8cd1e5	-0.0042974823
36	0xbd20e4ba	-0.03928063
37	0x3a154cb5	0.0005695329
38	0x3b2c3ff9	0.0026283248
39	0xbce586f2	-0.028018449
40	0x3c03aaf5	0.008036365
41	0xbd07f9b8	-0.033197135
42	0x3c664a80	0.014055848
43	0xbbf763d3	-0.007549742
44	0x3bc8d076	0.006128366
45	0x3c6fdbd9	0.014639818
46	0xbc0ce524	-0.008599553
47	0xbcbe64b2	-0.023241375
48	0xbc9e22f2	-0.019303773
49	0xbc57bb50	-0.013167217
50	0x3b857fb8	0.004074063
51	0xbc23c943	-0.009996715
52	0x3bacae6e	0.005269817
53	0x3bfc9ada	0.0077088894
54	0xbd110c35	-0.035412032
55	0xbcda68d6	-0.026661318
56	0xb8654d55	-5.4669876e-05
57	0x3c03bf7f	0.008041262
58	0xbc7bb1d0	-0.015362218
59	0xbd256446	-0.04037883
60	0xbc5cf8df	-0.01348707
61	0x3c873467	0.01650448
62	0xbcc350b8	-0.0238422
63	0x3c47aaf9	0.012186759
64	0x3c9cd762	0.019145671
65	0xbcfeea2e	-0.031117525
66	0xbcbd650c	-0.023119472
67	0xbd168e57	-0.03675684
68	0xbc35e91f	-0.011102944
69	0xbc8b99ba	-0.017041076
70	0x3b874438	0.0041280054
71	0xbd057837	-0.03258535
72	0xbbdcd3b4	-0.006739104
73	0x3c548bf6	0.012972822
74	0xbb2095e6	-0.002450341
75	0x3bdeb175	0.006796057
76	0x3c05d3da	0.008168185
77	0xbc97c10b	-0.018524667
78	0xbc26d24c	-0.010181975
79	0x3c2329ae	0.009958668
80	0x3c5f5d2d	0.013633055
81	0x3c2c3512	0.0105107
82	0xbcd28fb2	-0.025703285
83	0xbc776b8c	-0.015101325
84	0xbd1b79d0	-0.037957966
85	0xbc6a840f	-0.014313712
86	0xbcacd68c	-0.021098398
87	0x3b82cd67	0.003991771
88	0x3bab259c	0.0052229892
89	0x3cc11ee6	0.023574304
90	0xbc238f40	-0.009982884
91	0xbcb19054	-0.021675266
92	0x3d0680d1	0.032837693
93	0xbc909399	-0.017648505
94	0xbb84f415	-0.004057417
95	0x38844d21	6.308617e-05
96	0xbd218276	-0.039431058
97	0x3c6a377c	0.014295455
98	0x3c7d0c1d	0.015444783
99	0xbcc8999c	-0.02448731
100	0xbc53abe9	-0.012919405
101	0xbc3624d6	-0.011117181
102	0xbc3ec1a4	-0.011642847
103	0xbcc40b21	-0.023931088
104	0xbcf76bfc	-0.030202858
105	0xbc2b352e	-0.010449691
106	0x3ca3f13a	0.020012487
107	0x3c6249e8	0.013811566
108	0xbd098554	-0.033574417
109	0x3b41892c	0.0029531224
110	0x3aea1125	0.0017857893
111	0x3cafdf1f	0.021468697
112	0xbd0f4408	-0.03497699
113	0x3ac59a9d	0.0015075986
114	0xbcc3b860	-0.023891628
115	0xbce8881c	-0.028385215
116	0x3c29ed3d	0.010371503
117	0xbc9a4e79	-0.018836247
118	0xbcf37f57	-0.029723806
119	0xbc4f4d71	-0.012652741
120	0x3ca96db4	0.020682193
121	0x3c6e3c4c	0.014540743
122	0x3c34e4ed	0.011040908
123	0xbd1d8f7e	-0.038466923
124	0xbcd0211f	-0.025406418
125	0xbd1fca00	-0.039011
126	0x3ce4bd2f	0.027922241
127	0x3c40231f	0.0117271235
128	0x3b55efd5	0.0032644172
129	0x3c26fda2	0.010192307
130	0xbc848fea	-0.016181905
131	0xbc3e971f	-0.01163271
132	0xbceb55ab	-0.028727373
133	0x3c27ee24	0.010249648
134	0xbc9c41f9	-0.019074427
135	0x3a590430	0.0008278517
136	0xbb799359	-0.003808221
137	0x3ca412e4	0.020028539
138	0x3a4b8cf7	0.0007764841
139	0xbd1edbe0	-0.038783908
140	0x3bb090f2	0.0053883726
141	0x3b693833	0.0035586476
142	0xbd0bcaf0	-0.034129083
143	0xbb3e6db7	-0.0029057094
144	0x3c914872	0.01773474
145	0xbca24654	-0.019808926
146	0xbb47dfff	-0.0030498502
147	0x3b3ff58d	0.0029290647
148	0xbb8d4166	-0.0043107746
149	0xbb80ae97	-0.0039270627
150	0xbce29c7c	-0.027662508
151	0x3c50dbf5	0.012747754
152	0xbcbdbe6a	-0.023162086
153	0x3c917577	0.017756207
154	0x39d9b30c	0.00041522866
155	0xbb253de1	-0.0025213885
156	0xbc657215	-0.01400425
157	0xbba233b9	-0.0049500135
158	0x3c0131eb	0.0078854365
159	0xbcfdc080	-0.03097558
160	0x3c564f71	0.013080464
161	0xbc0df5d0	-0.008664563
162	0xbc0ad863	-0.008474442
163	0xbd0b59ad	-0.03402107
164	0x3ba8bb72	0.0051492983
165	0x3be878a2	0.0070944587
166	0x3c1ba9ce	0.009500934
167	0x3cb3e57c	0.021960013
168	0xbbbfe1df	-0.0058557834
169	0xbcd7650c	-0.0262933
170	0xbd32df97	-0.043670263
171	0x3c32c025	0.010910069
172	0xbcfe3c4d	-0.031034613
173	0x3ca6ed92	0.020376954
174	0xbc70fd8b	-0.014708887
175	0xbb257d46	-0.002525167
176	0xbb915149	-0.004434739
177	0xbbcf2a72	-0.0063221985
178	0xbc3a30c1	-0.011364163
179	0x3c0d9cc4	0.008643333
180	0xbc94ed5b	-0.018179586
181	0xbcb5a5d5	-0.022173801
182	0xbd089c5f	-0.033352252
183	0x3c277009	0.010219582
184	0xbcd9b25c	-0.026574306
185	0x3a99d27c	0.0011735703
186	0xba439a4b	-0.0007461651
187	0xbc9ad6c0	-0.018901229
188	0xba3c37aa	-0.00071799255
189	0xbcd726a5	-0.026263544
190	0xbbdb84db	-0.006699187
191	0xbc87e11c	-0.016586833
192	0xbcd06825	-0.025440285
193	0xbcc5cae4	-0.024144597
194	0xbc1f0ea0	-0.009708077
195	0xbc578727	-0.013154781
196	0xbc5f7c62	-0.013640495
197	0xbbbc673d	-0.0057496116
198	0x3cbc2c98	0.022970483
199	0x3bfc1959	0.0076934514
200	0xbc869845	-0.01643003
201	0x3ca6c600	0.020358086
202	0x3b990824	0.00467016
203	0x3c337ebc	0.010955509
204	0xbccab1c4	-0.024742968
205	0xbcad5709	-0.021159666
206	0x3bb8e403	0.0056424155
207	0x3b067786	0.002051802
208	0xbc6a718b	-0.014309297
209	0xb80258de	-3.107718e-05
210	0xbd0acf03	-0.033888828
211	0x3c4740bf	0.012161433
212	0xbcf1e1da	-0.02952664
213	0xbcf43f97	-0.029815478
214	0x3cbad6e5	0.022807548
215	0xbc553f8f	-0.013015642
216	0xbc063778	-0.008191936
217	0xba6eb5c3	-0.0009106064
218	0x3c251d7f	0.010077833
219	0xbbc6735b	-0.006056232
220	0xbc3468d7	-0.011011324
221	0xbce337c0	-0.027736545
222	0xbc941833	-0.018077945
223	0xbc6094be	-0.013707338
224	0x3abe022a	0.0014496495
225	0xbbf40f14	-0.0074480865
226	0xbbb43e6e	-0.0055006063
227	0x3c82109f	0.015877066
228	0xbd18d4e7	-0.037312414
229	0xbb43f798	-0.0029902216
230	0xbc38b3ed	-0.011273366
231	0xbca53f69	-0.020171838
232	0x3c956640	0.018237233
233	0xbc0d7b17	-0.008635304
234	0xbd081fbe	-0.033233397
235	0xbbfb2de5	-0.007665383
236	0x3ba4c5e3	0.0050284727
237	0x3ce50b57	0.027959509
238	0x3c454778	0.012040965
239	0x3bc85fdd	0.0061149434
240	0xbca55cb5	-0.020185808
241	0xbcaa417e	-0.020783182
242	0xbcca8812	-0.024723087
243	0xbd0186f2	-0.031622835
244	0xbcd77814	-0.026302375
245	0x3c6e5f4c	0.014549088
246	0x3b569c93	0.0032747134
247	0xba216648	-0.00061569037
248	0xbd14e8dc	-0.036354885
249	0xbcc9863a	-0.024600137
250	0xbcd01ff3	-0.02540586
251	0xbcb98aa7	-0.022649122
252	0xbcd11d9e	-0.025526818
253	0xba917bf3	-0.0011099562
254	0x3c258d92	0.010104554
255	0xbcb05bad	-0.02152809

fc.0.bias f4 [64]
0	0xbc7801f8	-0.015137188
1	0xbd2919af	-0.04128426
2	0x3c333742	0.010938467
3	0xbbe60147	-0.0070191952
4	0xbcca5032	-0.024696443
5	0x3d319585	0.043355484
6	0x3c56bb85	0.013106232
7	0x39af30c7	0.00033414943
8	0x3c3e522b	0.01161627
9	0xbd182767	-0.037146952
10	0xbd003f98	-0.031310648
11	0xbcd50bf2	-0.026006673
12	0xbd00e294	-0.03146608
13	0x3d945ca8	0.07244235
14	0xbc825564	-0.015909858
15	0xbbc4a002	-0.0060005197
16	0xbd65c01b	-0.05609141
17	0xbc9be6ad	-0.019030893
18	0xbcab616c	-0.020920478
19	0x3d7b4fe9	0.061355505
20	0xbc979f57	-0.018508596
21	0xbcb04e63	-0.021521753
22	0xbcb5d11a	-0.022194434
23	0x3bdf2c56	0.006810705
24	0xbd73c701	-0.059515957
25	0x3ccc0d6a	0.02490874
26	0xbd75e599	-0.060033415
27	0xbd43d365	-0.047809023
28	0x3c50aa80	0.012735963
29	0xbd9372c2	-0.07199623
30	0xbd2291ea	-0.039689936
31	0xbc89c3fb	-0.016817084
32	0xbaaddcdf	-0.0013264677
33	0x3d96ecd0	0.07369387
34	0xbd0c9be9	-0.034328375
35	0xbdde47ef	-0.10853564
36	0xbcea89c8	-0.028630152
37	0xbc99defd	-0.018783087
38	0x3d5afc3b	0.053463202
39	0x3c21e4ac	0.00988118
40	0xbde6f384	-0.11276916
41	0x3db90d87	0.09035783
42	0x3bb41bb7	0.005496468
43	0xbcbf0680	-0.02331853
44	0x3d34dc0a	0.044155158
45	0xbd225109	-0.039628062
46	0x3cfbe778	0.030750021
47	0xbd6c911c	-0.057755575
48	0x3dca5ec1	0.09881354
49	0x3c887d35	0.016661266
50	0xbc9f1483	-0.01941896
51	0xbb55ae12	-0.0032604975
52	0x3daa38b1	0.08311594
53	0x3d5ef1c2	0.054429777
54	0xbd5a27d0	-0.053260624
55	0x3c5be9ca	0.013422439
56	0xbd669e34	-0.056303218
57	0x3d5125d9	0.051061485
58	0xbd3368e3	-0.0438012
59	0xbe0d4ce4	-0.13798863
60	0x3d8b4c16	0.068016216
61	0xbd207caf	-0.039181408
62	0x3c97279a	0.0184515
63	0x3cbade18	0.02281098

fc.3.weight f4 [27, 64]
0	0x3d9e68a3	0.077348016
1	0xbec44e53	-0.38341007
2	0x3d9607a5	0.07325677
3	0xbe574d3c	-0.21025556
4	0xbdd4c9f3	-0.10390081
5	0xbeae61a9	-0.34058884
6	0xbec4bf58	-0.38427234
7	0xbea23f4d	-0.3168892
8	0xbbfdc082	-0.007743896
9	0x3dad3abc	0.08458468
10	0xbd8aa160	-0.06769061
11	0xbd7b62ff	-0.061373707
12	0xbd512893	-0.051064085
13	0xbee2b83a	-0.4428118
14	0x3c4793b2	0.012181209
15	0x3c9914e8	0.018686727
16	0xbe9910f3	-0.29895744
17	0x3d774a04	0.06037332
18	0xbec1c9b3	-0.37849197
19	0xbf1521df	-0.5825481
20	0x3dd3a3ad	0.10333953
21	0xbea5ede9	-0.32408074
22	0x3c674952	0.014116602
23	0x3d09a676	0.033606015
24	0xbee7b151	-0.4525247
25	0xbed6b4ce	-0.41934818
26	0xbdca761a	-0.09885807
27	0xbef6e809	-0.48223904
28	0xbde3dbcd	-0.11125908
29	0xbefac811	-0.48980764
30	0xbe909dae	-0.282453
31	0xbd3cb024	-0.04606642
32	0x3d2e74f8	0.04259202
33	0xbf1c82c3	-0.61137027
34	0x3cc77c59	0.024351286
35	0xbf20591c	-0.6263597
36	0xbef0d1cc	-0.47035062
37	0xbdb0e445	-0.08637289
38	0xbefde4a7	-0.4958851
39	0xbd87775a	-0.066145614
40	0xbec4f162	-0.3846541
41	0xbf124d57	-0.5714926
42	0x3dd5c095	0.10437123
43	0x3dc0847f	0.094002716
44	0xbec116c5	-0.37712684
45	0x3d527484	0.05138065
46	0xbec586d8	-0.3857944
47	0xbdd3d632	-0.10343589
48	0xbf03e707	-0.51524395
49	0x3d87346c	0.066017956
50	0xbed969f6	-0.42463654
51	0xbdd9c111	-0.106325276
52	0xbef3a2e7	-0.47585222
53	0xbed4bf41	-0.41552165
54	0x3cca6fbd	0.024711484
55	0x3dc7d244	0.09756902
56	0xbed1e750	-0.4099679
57	0xbeec2343	-0.46120653
58	0xbdd91ee0	-0.10601592
59	0xbe908909	-0.2822955
60	0xbef09d1c	-0.46994865
61	0x3d896ac2	0.067098156
62	0x3c037f31	0.00802593
63	0xbf14e270	-0.58158016
64	0xbd308d01	-0.04310322
65	0x3e3ef660	0.18648672
66	0xbd6feab7	-0.05857345
67	0xbeb33cc3	-0.35007295
68	0x3d4e9cd0	0.050442517
69	0xbe892e69	-0.2679322
70	0x3e3488d4	0.17630321
71	0xbd2396fc	-0.03993891
72	0x3dc79829	0.09745819
73	0xbd2774f5	-0.040883023
74	0xbcaf6259	-0.0214092
75	0xbbb77311	-0.005598434
76	0x3d628b00	0.055308342
77	0x3cb99fd1	0.022659214
78	0x3d6cfd01	0.05785847
79	0xbc0c7936	-0.008573821
80	0xbde2c8bb	-0.110734425
81	0x3de1fb63	0.11034276
82	0x3db941c1	0.09045745
83	0xbf06a361	-0.52593046
84	0x3de4111b	0.11136075
85	0xbe7f0950	-0.24905896
86	0x3d94b06e	0.07260214
87	0x3daaaad4	0.08333364
88	0x3e3e3bf0	0.18577552
89	0x3dcc2a62	0.099690214
90	0xbe03280c	-0.12808245
91	0x3dfe1c1a	0.12407704
92	0x3de2ffb3	0.11083927
93	0xbf3ee16b	-0.7456271
94	0x3bbb5ec0	0.005718082
95	0x3cec0f39	0.028815852
96	0xbd9a1fec	-0.0752562
97	0xbea5145e	-0.322421
98	0xbd970681	-0.073742874
99	0x3db09dca	0.08623846
100	0x3e3c055e	0.18361422
101	0x3cce286a	0.025165755
102	0xbc064641	-0.008195461
103	0x3d868273	0.0656785
104	0xbdc118bd	-0.094285466
105	0x3d856056	0.06512515
106	0xbdbc004a	-0.09179743
107	0xbd720213	-0.05908401
108	0xbe3ea4ec	-0.186176
109	0x3e027ad5	0.12742169
110	0xbe891356	-0.26772565
111	0x3d1d4fb5	0.038406093
112	0xbf5a7d66	-0.8534759
113	0x3dbc5043	0.09194996
114	0x3e445b60	0.19175482
115	0x3dafd116	0.08584802
116	0xbef8cb61	-0.48592666
117	0x3ba42718	0.005009543
118	0x3ccd6a0d	0.025074983
119	0x3ddc3dad	0.10753951
120	0x3dde493c	0.10853812
121	0x3e6c4239	0.23072137
122	0x3d6efb6f	0.058345255
123	0xbe07364b	-0.13204305
124	0xbc444fbc	-0.011981901
125	0xbc3a829a	-0.011383677
126	0x3d395f98	0.04525718
127	0x3e613690	0.2199347
128	0xbc85c090	-0.016327173
129	0xbea79651	-0.3273187
130	0xbd108af5	-0.03528877
131	0x3dd481d4	0.10376325
132	0x3ccdf45a	0.02514093
133	0xbf094756	-0.53624475
134	0xbe9bdbeb	-0.30441222
135	0x3ea3a307	0.31960317
136	0xbcb8f7d7	-0.022579117
137	0xbdb612a3	-0.088902734
138	0x3dd9e512	0.10639395
139	0xbdb33703	-0.08750727
140	0xbd9248e1	-0.07142807
141	0xbef001d6	-0.468764
142	0xbd32ed80	-0.04368353
143	0xbdf013f8	-0.11722559
144	0x3e4c2028	0.19934142
145	0xbe0010bd	-0.12506385
146	0xbd61a22b	-0.055086296
147	0x3e0a2bad	0.13493223
148	0xbb87cfa5	-0.004144626
149	0xbe78231c	-0.24232143
150	0x3dddad47	0.10824066
151	0x3e0bff50	0.13671613
152	0x3dd0bc6c	0.101921886
153	0x3d294a7b	0.041330796
154	0xbd59f75f	-0.053214427
155	0xbe0936a1	-0.13399746
156	0x3c4586ba	0.012056047
157	0x3e85c579	0.26127222
158	0xbe25b779	-0.1618327
159	0xbdc5b227	-0.096531205
160	0x3d315e7c	0.043302998
161	0xbe8e4bf8	-0.27792335
162	0x3d1dc5d7	0.038518753
163	0xbe73ca59	-0.23807658
164	0xbe661d8b	-0.22472207
165	0xbda15a55	-0.078785576
166	0xbf0d6861	-0.55237395
167	0x3ce27f9a	0.027648736
168	0x3e739d12	0.23790386
169	0x3e25be37	0.16185842
170	0xbc037091	-0.008022443
171	0xbdab6e99	-0.08370704
172	0x3e0b6b03	0.1361504
173	0x3dd29c28	0.10283691
174	0xbe82e720	-0.2556696
175	0xbc167029	-0.0091820145
176	0xbe0e8639	-0.1391839
177	0xbd6a04d1	-0.0571335
178	0xbdad2d61	-0.08455921
179	0x3d1afb64	0.0378374
180	0xbec79479	-0.38980463
181	0x3e3ecd2d	0.18632956
182	0xbd74f4d1	-0.059803788
183	0xbdcb436b	-0.09924968
184	0xbdd5e686	-0.104443595
185	0x3eb12f8d	0.3460659
186	0x3da9ccb7	0.082909994
187	0xbe17bef2	-0.14818934
188	0x3d96ba41	0.07359744
189	0xbd0d114a	-0.034440316
190	0x3dd3718e	0.10324393
191	0xbf0c8fcb	-0.5490691
192	0xbd741378	-0.05958888
193	0xbd15c223	-0.036562096
194	0x3d33953f	0.043843504
195	0x3dc49bb2	0.09600009
196	0xbd86208d	-0.06549177
197	0x3e7102fe	0.23536298
198	0x3cd83f96	0.026397508
199	0xbea30976	-0.31843156
200	0xbd828b9b	-0.06374284
201	0xbdb49cfd	-0.08819006
202	0x3d127cf8	0.03576371
203	0xbc30910f	-0.010776772
204	0x3dca244e	0.09870206
205	0x3e200336	0.15626225
206	0xbd7fffa3	-0.062499654
207	0xbdb60dcf	-0.088893525
208	0xbea74cfc	-0.32675922
209	0xbccd4e9b	-0.025061896
210	0xbefb38b5	-0.49066702
211	0xbecdd232	-0.4019943
212	0xbd216dad	-0.039411236
213	0x3e051048	0.12994492
214	0x3db29d07	0.08721357
215	0xbe09ddbc	-0.13463491
216	0xbf39e0c8	-0.72608614
217	0xbe2b7e79	-0.16747464
218	0x3eba5366	0.36391753
219	0xbda50356	-0.08057277
220	0x3d9c8b22	0.07643725
221	0x3d452f36	0.048140727
222	0xbe5eee7a	-0.21770659
223	0x3cea269a	0.02858286
224	0x3d8199c0	0.063281536
225	0xbf214c2a	-0.6300684
226	0x3dc52f6a	0.09628184
227	0xbeebb516	-0.46036595
228	0x3df49c22	0.119438425
229	0x3cbf16b8	0.023326263
230	0xbe557b5f	-0.20847844
231	0xbb764643	-0.00375785
232	0xbead6959	-0.33869436
233	0x3c1bad94	0.0095018335
234	0x3cbda674	0.02315066
235	0x3cb44278	0.022004351
236	0x3e713832	0.23556593
237	0x3dc3bb46	0.09557204
238	0xbe8c4b0a	-0.27401
239	0x3d889a28	0.06670028
240	0xbe7df6f5	-0.24801238
241	0xbd12dca2	-0.035854943
242	0x3d5cb177	0.05388018
243	0x3de74783	0.11292937
244	0x3e8f7c49	0.2802451
245	0x3e29206a	0.16516271
246	0xbd71f3d3	-0.05907042
247	0x3d39ca72	0.045359083
248	0x3e420ca1	0.1895013
249	0x3db1e0b1	0.086854346
250	0xbd0f6570	-0.035008848
251	0xbe334b6b	-0.17509238
252	0xbeda1edc	-0.4260167
253	0x3dc166c0	0.09443426
254	0xbb1a654d	-0.0023558915
255	0xbf245d95	-0.64205295

fc.3.bias f4 [27]
0	0xbee28ea4	-0.4424945
1	0x3e94e457	0.2908046
2	0x3e569ff0	0.20959449
3	0x3d3a5078	0.045486897
4	0x3e5bc75e	0.21462771
5	0x3d546d2c	0.051861927
6	0x3e2bac67	0.16764985
7	0xbd4c1ac2	-0.049830206
8	0xbdc172c9	-0.09445722
9	0x3dd57725	0.10423116
10	0x3c94b3ac	0.01815208
11	0xbe3c6244	-0.1839686
12	0xbd5fe85a	-0.054664947
13	0xbe08f9ce	-0.13376543
14	0xbe1c147c	-0.15242189
15	0x3ec1e7e6	0.37872237
16	0xbd52feb5	-0.05151244
17	0xbd9cdafa	-0.07658954
18	0xbf2d9914	-0.67811704
19	0xbe3ffd02	-0.18748859
20	0xbcbff7a1	-0.023433508
21	0xbe48e17a	-0.19617262
22	0x3dc4d51c	0.0961096
23	0xbe31e3ba	-0.17372027
24	0x3f0ba25c	0.54544616
25	0xbeb4fd55	-0.35349527
26	0x3ee52cb3	0.44760665
