saved_models/emnist_cnn.pth (torch, 313506 bytes, 15 tensors)

conv1.weight f4 [1, 1, 3, 3]
0	0x3e2b665a	0.16738263
1	0x3bcb59c0	0.0062057674
2	0x3e1f9b0e	0.15586492
3	0xbe0c2fd6	-0.13690123
4	0xbe82a5e8	-0.255172
5	0x3e3c40a2	0.1838403
6	0x3e813049	0.2523215
7	0x3e02d278	0.127756
8	0xbea908c4	-0.330145

conv2.weight f4 [32, 1, 3, 3]
0	0x3d9b5b8c	0.075858206
1	0x3df56065	0.119812764
2	0xbe492b6c	-0.1964547
3	0xbed045a2	-0.40678126
4	0x3f1bbf95	0.60839206
5	0xbe651715	-0.22372086
6	0xbebb3f0d	-0.3657154
7	0xb9ce0a22	-0.0003929893
8	0x3e7586cc	0.23977202
9	0xbe03b8c6	-0.12863454
10	0xbe092228	-0.13391936
11	0xbf001f98	-0.5004821
12	0xbed3c2a8	-0.41359448
13	0xbe6a7821	-0.22897388
14	0x3e897e73	0.26854286
15	0xbe90f0eb	-0.28308806
16	0x3eaa07ac	0.33208978
17	0x3e1a1867	0.15048371
18	0x3db9b263	0.09067228
19	0xbef1404c	-0.47119367
20	0x3e934836	0.2876603
21	0x3ea2ce83	0.3179818
22	0xbe904b6c	-0.28182542
23	0xbe53467c	-0.20632356
24	0x3da0fee0	0.078611135
25	0x3e5212d9	0.20515002
26	0xbf04fdcc	-0.51949763
27	0xbe3938bd	-0.1808805
28	0xbe9afeaf	-0.30272433
29	0x3d48c5a5	0.049016614
30	0x3e276b5e	0.16349551
31	0xbf05c668	-0.5225587
32	0xbe21e70a	-0.1581079
33	0x3ec3b250	0.3822198
34	0x3cf53f53	0.029937422
35	0xbec790db	-0.38977703
36	0xbf04d65b	-0.5188958
37	0xbcb983d6	-0.022645872
38	0x3e64a210	0.22327447
39	0xbdc5abe4	-0.09651926
40	0x3e44c39b	0.19215243
41	0x3e485b97	0.19566189
42	0x3e7fba9b	0.24973528
43	0xbe318b6e	-0.17338344
44	0xbf0c3bdf	-0.54778856
45	0x3e0b7603	0.13619237
46	0xbea82326	-0.32839316
47	0x3e2b53c2	0.1673117
48	0x3e8ee011	0.27905324
49	0xbf05c4b2	-0.5225326
50	0x3e919099	0.28430632
51	0x3e6c773b	0.23092358
52	0xbeb47e81	-0.35252765
53	0x3e3406c5	0.17580707
54	0xbe199017	-0.14996372
55	0xbeee5956	-0.46552533
56	0x3edb15e1	0.4279013
57	0x3ec1b096	0.37830037
58	0xbe7b0a27	-0.24515592
59	0xbdfce9d8	-0.1234929
60	0x3b372d54	0.0027950602
61	0x3eb49c44	0.3527547
62	0x3d59afc5	0.053146143
63	0x3e33d483	0.17561536
64	0x3e3cfef5	0.18456633
65	0x3e652ac5	0.22379597
66	0xbeb98b06	-0.3623888
67	0xbef64e98	-0.48106837
68	0xbebf278b	-0.37334856
69	0x3e781138	0.24225318
70	0x3ebeda76	0.37276047
71	0x3c252e86	0.010081893
72	0xbe1fba1e	-0.15598342
73	0x3e7b7fcc	0.2456047
74	0xbe8a9049	-0.27063206
75	0xbe874962	-0.26423174
76	0x3e51d8bb	0.20492832
77	0x3d8cb277	0.06869977
78	0x3e688504	0.22706991
79	0xbef144ee	-0.47122902
80	0x3e47538f	0.19465469
81	0xbd787016	-0.06065377
82	0x3e90f924	0.2831508
83	0xbeb695b8	-0.356611
84	0xbe0112f9	-0.12604894
85	0x3ec92da1	0.39292625
86	0xbe595124	-0.21222359
87	0xbd17d8a6	-0.037071846
88	0x3e8ef000	0.2791748
89	0xbf125073	-0.57154006
90	0x3e8e8355	0.27834573
91	0x3e2ad9b8	0.16684616
92	0xbe8e1637	-0.27751324
93	0xbee41cfd	-0.44553366
94	0xbed41a64	-0.41426384
95	0xbeaf143f	-0.34195134
96	0xbcbc6731	-0.022998424
97	0x3e8bc5a3	0.27299222
98	0x3df34409	0.11878211
99	0x3eaa5ef6	0.33275574
100	0x3e341cb7	0.17589079
101	0x3d5f5bd7	0.054530945
102	0xbe3c7e5b	-0.18407576
103	0x3ddab79f	0.10679554
104	0x3e942b22	0.28939158
105	0xbde78ee2	-0.113065496
106	0xbefce025	-0.4938976
107	0xbea23eff	-0.31688687
108	0xbec29cbd	-0.38010207
109	0x3e971066	0.295047
110	0x3e8a1e8d	0.26976433
111	0xbf0bcf81	-0.546135
112	0x3bc49eb0	0.0060003623
113	0xbd906cb5	-0.07051984
114	0xbd334ad9	-0.043772552
115	0x3e84e5d8	0.25956607
116	0xbece4875	-0.40289655
117	0xbce7038f	-0.028199939
118	0x3e4775d6	0.19478545
119	0x3d99ac76	0.075035974
120	0xbeaa72f4	-0.33290827
121	0x3d5862f3	0.05282874
122	0x3ef3facd	0.47652283
123	0xbe5f26f6	-0.21792206
124	0xbec8fe5a	-0.39256555
125	0x3d18e78b	0.03733019
126	0xbe3bfbc5	-0.18357761
127	0xbe724a09	-0.23661055
128	0xbe143f8c	-0.14477366
129	0xbe9bbab7	-0.3041589
130	0x3e8840ad	0.26611844
131	0x3f09e351	0.5386248
132	0x3b22ab7c	0.002482145
133	0xbed42e27	-0.4144146
134	0xbe80455f	-0.25052926
135	0x3eeb1a0c	0.4591831
136	0x3cd36bdd	0.02580827
137	0xbeb94d7f	-0.36191937
138	0xbb723ba8	-0.0036961827
139	0xbdfc3a23	-0.12315776
140	0xbe0931f8	-0.13397968
141	0xbedd3c2f	-0.4320998
142	0xbeafb102	-0.34314734
143	0xbe952c1a	-0.2913521
144	0x3ea5a8ab	0.32355246
145	0x3c495f44	0.0122907795
146	0xbec299be	-0.3800792
147	0x3e721521	0.23640873
148	0x3dec44e3	0.115365766
149	0xbe05e413	-0.13075285
150	0x3edfe64c	0.4373039
151	0xbd7486f1	-0.059699003
152	0xbee4f048	-0.4471457
153	0xbed5b332	-0.41738278
154	0x3ec4ac54	0.38412726
155	0xbc8c3a25	-0.01711757
156	0x3da3768e	0.07981597
157	0x3e34ac40	0.17643833
158	0xbe8e7d37	-0.27829906
159	0x3e8520cb	0.26001582
160	0xbee566d4	-0.44805014
161	0x3e90e7e5	0.2830192
162	0x3cf0838b	0.0293596
163	0xbe87949a	-0.26480561
164	0x3e84b423	0.25918683
165	0x3b937961	0.0045005535
166	0xbeb9903e	-0.3624286
167	0x3e784d84	0.2424832
168	0x3eb99a33	0.36250457
169	0xbf03a9be	-0.5143088
170	0xbe26de55	-0.1629575
171	0xbee21495	-0.44156328
172	0x3e1b7ef5	0.15185149
173	0x3e014882	0.12625316
174	0xbec7c24f	-0.39015433
175	0xbec3a9b1	-0.38215402
176	0x3dfbeef6	0.123014376
177	0x3c8a9c9f	0.016920386
178	0xbec22480	-0.37918472
179	0xbec5422d	-0.3852705
180	0xbe317ef1	-0.1733358
181	0x3eb2d5b7	0.34928676
182	0x3e9ec88e	0.31012386
183	0xbd25ea72	-0.040506788
184	0xbe84c0e2	-0.25928408
185	0xbe81323a	-0.25233632
186	0xbea982e6	-0.3310768
187	0xbea77f32	-0.3271423
188	0x3d2b302b	0.041793983
189	0xbf09dffa	-0.53857386
190	0x3e3cc206	0.18433389
191	0x3e50d8a2	0.20395139
192	0xbe67dfa5	-0.22643907
193	0x3d01cf3c	0.031691775
194	0x3e488eb6	0.1958569
195	0xbd8af5b3	-0.06785145
196	0xbec72b65	-0.38900295
197	0x3eb96f52	0.36217743
198	0x3c39f8e6	0.011350846
199	0x3dda16b9	0.10648865
200	0xbd70fadc	-0.05883299
201	0xbe36ebfc	-0.17863458
202	0x3ead2109	0.33814266
203	0xbe44f0a0	-0.19232416
204	0xbed173ff	-0.4090881
205	0x3ee3553e	0.44400972
206	0xbee0c474	-0.43899882
207	0xbe79fd2a	-0.2441298
208	0xbeb7e232	-0.3591476
209	0x3d4b2228	0.04959312
210	0x3ec2ff2a	0.380853
211	0x3bc2c8e0	0.0059443563
212	0xbede59ee	-0.43427986
213	0xbda93ca8	-0.082635224
214	0x3eb327cd	0.34991303
215	0xbe096aec	-0.13419694
216	0x3c1f6a65	0.009729956
217	0xbeb35f06	-0.35033435
218	0xbe877ac3	-0.26460847
219	0x3d234442	0.039860018
220	0x3f1100b3	0.5664169
221	0x3e671f28	0.22570479
222	0xbb00eed5	-0.0019673605
223	0xbef5e8b0	-0.4802909
224	0xbde2d02d	-0.11074863
225	0x3e3bb416	0.18330416
226	0xbdc79b55	-0.09746424
227	0xbf03e0db	-0.5151498
228	0x3e06f77d	0.13180347
229	0xbeb6af01	-0.35680392
230	0xbe4598cf	-0.19296573
231	0xbecb15bf	-0.39665028
232	0xbf2ec4aa	-0.68268836
233	0x3aebb671	0.0017983449
234	0xbe36028e	-0.17774412
235	0xbecfa241	-0.40553477
236	0xbed7e165	-0.4216415
237	0xbc9bbc8c	-0.019010805
238	0x3e9f7a73	0.3114811
239	0x3ec097b3	0.37615737
240	0x3eaf2fd2	0.34216172
241	0xbce77a40	-0.028256536
242	0xbd9f119d	-0.07767031
243	0x3e6e1baa	0.2325274
244	0xbcaedb49	-0.021344798
245	0xbe792e54	-0.24334079
246	0xbd681c86	-0.056667827
247	0xbeddf24c	-0.4334892
248	0x3d19111f	0.037369844
249	0xbef195d9	-0.47184637
250	0xbe4f5015	-0.20245393
251	0x3ec22372	0.37917668
252	0x3e78dbbb	0.2430257
253	0xbf088804	-0.53332543
254	0xbece3922	-0.40277964
255	0xbe7e0367	-0.24805985

conv2.bias f4 [32]
0	0xbe3ca4f0	-0.18422294
1	0xbe9ccf42	-0.30626875
2	0x3ebca625	0.36845508
3	0x3bfbd2ae	0.007685027
4	0x3e84efbc	0.25964153
5	0x3e61e149	0.22058596
6	0xbe9dfecb	-0.30858454
7	0xbe831c12	-0.25607353
8	0x3ea0aabf	0.3138027
9	0xbe84350c	-0.25821722
10	0x3dbd1ca9	0.09233982
11	0xbe85422b	-0.26027045
12	0x3d169061	0.036758784
13	0x3cd03e76	0.025420409
14	0xbe0a6610	-0.13515496
15	0x3eb6005d	0.35547152
16	0x3d9fdc73	0.07805719
17	0x3e07e65c	0.13271469
18	0x3efc71a1	0.49305442
19	0xbdd6b69f	-0.10484051
20	0x3f002d51	0.5006915
21	0x3e99b6de	0.3002233
22	0x3e96c5b5	0.29447713
23	0x3e8b8290	0.2724805
24	0x3df2796f	0.11839568
25	0x3e13c03a	0.14428797
26	0xbe1e00d5	-0.15430005
27	0x3d6b14a4	0.05739273
28	0x3d147b9d	0.0362507
29	0x3e6c0b3f	0.23051165
30	0x3df2c0e0	0.11853194
31	0xbe5de615	-0.216698

bn2.weight f4 [32]
0	0x3f765a13	0.9623119
1	0x3faa178b	1.3288435
2	0x3fa86669	1.3156253
3	0x3f922ce9	1.1419955
4	0x3f83a431	1.0284482
5	0x3f83d535	1.0299441
6	0x3f34b1d8	0.7058387
7	0x3f60748d	0.8767784
8	0x3f62b522	0.88557637
9	0x3f92b315	1.1460901
10	0x3f96c97a	1.1780236
11	0x3f81d42f	1.0142878
12	0x3f89fe6d	1.078077
13	0x3f8ad75b	1.0846971
14	0x3f867d32	1.0506957
15	0x3f888324	1.0665021
16	0x3f70598d	0.93886644
17	0x3f4e432b	0.8057124
18	0x3fac5ee6	1.3466461
19	0x3f867427	1.0504197
20	0x3f87f958	1.0622969
21	0x3f86ed04	1.0541081
22	0x3f8021ba	1.0010293
23	0x3fab1692	1.3366263
24	0x3f6bccaa	0.9210917
25	0x3f92cf36	1.1469486
26	0x3f95e77b	1.1711267
27	0x3fb4cbad	1.4124657
28	0x3f89e00b	1.0771497
29	0x3f941565	1.1569029
30	0x3f8f5d50	1.1200352
31	0x3f7a1579	0.97689015

bn2.bias f4 [32]
0	0xbf2e079d	-0.67980367
1	0xbf567d18	-0.8378463
2	0xbf39246f	-0.7232122
3	0xbef4c5e0	-0.47807217
4	0xbf255f9f	-0.6459903
5	0xbf084a56	-0.5323843
6	0xbf4cf73f	-0.8006477
7	0xbeac6e00	-0.33677673
8	0xbef5aeb4	-0.4798485
9	0xbf24875c	-0.6426904
10	0xbf31c625	-0.6944297
11	0xbf3f531e	-0.747362
12	0xbf267e7e	-0.6503676
13	0xbed899fd	-0.42304984
14	0xbf51e59f	-0.81991
15	0xbf19ba15	-0.60049564
16	0xbefff426	-0.49990958
17	0xbf1308a8	-0.57435083
18	0xbf478ba9	-0.7794748
19	0xbe9bc78e	-0.30425686
20	0xbf2811f9	-0.65652424
21	0xbf107a62	-0.5643674
22	0xbf22ad15	-0.6354535
23	0xbf49ebee	-0.78875625
24	0xbefa8d1b	-0.4893578
25	0xbeadb5d9	-0.339278
26	0xbea5d92f	-0.3239226
27	0xbf5bac02	-0.8580934
28	0xbf27dfbf	-0.65575784
29	0xbf1187c7	-0.56847805
30	0xbf416135	-0.7553895
31	0xbf620033	-0.88281554

bn2.running_mean f4 [32]
0	0xbe75fd48	-0.240224
1	0xbf2fab10	-0.68620396
2	0x3e2681b8	0.16260421
3	0xbebe786d	-0.37201253
4	0x3d7be572	0.061498113
5	0x3e7d0cd3	0.24711923
6	0xbe5f48cf	-0.21805118
7	0xbe894fc9	-0.26818684
8	0x3e656c93	0.22404699
9	0xbed54aca	-0.41658622
10	0xbe363f45	-0.17797573
11	0xbea3f386	-0.3202173
12	0xbe61587c	-0.2200641
13	0xbcb4e9d3	-0.022084152
14	0xbedd1807	-0.43182394
15	0xbe047bfe	-0.12937924
16	0x3e021e3a	0.12706843
17	0x3e089c9f	0.13340996
18	0x3ea2b8f1	0.31781724
19	0xbf3d2a53	-0.73892707
20	0x3e5cc197	0.21558224
21	0x3e5a599b	0.21323244
22	0x3e14aa98	0.14518201
23	0x3db66c57	0.08907383
24	0xbd016f35	-0.031600196
25	0xbf248859	-0.6427055
26	0xbe42cb6a	-0.19022909
27	0xbe842dd2	-0.25816208
28	0xbe172ca2	-0.1476312
29	0xbe0fef4c	-0.14056128
30	0xbe0e06fd	-0.13869853
31	0xbe494801	-0.19656374

bn2.running_var f4 [32]
0	0x3d4b3cd3	0.049618553
1	0x3ea6b876	0.32562608
2	0x3df0b841	0.11753894
3	0x3e6ddd19	0.23228873
4	0x3de814ab	0.11332067
5	0x3d3aec0f	0.04563528
6	0x3d6e0109	0.058106456
7	0x3d87f87c	0.066391915
8	0x3c9c9cbb	0.019117704
9	0x3dd46a17	0.103717975
10	0x3e400fdb	0.18756048
11	0x3e2cd24f	0.16877101
12	0x3e147923	0.14499335
13	0x3e016a08	0.12638104
14	0x3e04e5c1	0.12978269
15	0x3ee2e090	0.44311953
16	0x3e792063	0.24328761
17	0x3ce6dec5	0.028182397
18	0x3db1ecdc	0.086877555
19	0x3ee5d3e4	0.44888222
20	0x3e547516	0.2074779
21	0x3e24a2e8	0.16077769
22	0x3d5a2124	0.05325426
23	0x3db7856e	0.089609966
24	0x3d5e0824	0.054206982
25	0x3f4fe21e	0.812044
26	0x3e1525c9	0.14565195
27	0x3e7807c4	0.24221712
28	0x3e789b3a	0.24277964
29	0x3ed6cd1d	0.41953364
30	0x3de35c54	0.111015946
31	0x3d1ec88f	0.038765486

se.1.weight f4 [8, 32, 1, 1]
0	0xbd6769ed	-0.056497503
1	0x3ca3ac7b	0.019979706
2	0xbdfeabf8	-0.12435144
3	0xbd5ec142	-0.054383524
4	0xbe1a1b1d	-0.15049405
5	0x3dd17bfa	0.10228725
6	0xbe4cf23c	-0.2001428
7	0x3e0883a0	0.13331461
8	0x3da2fcf8	0.07958406
9	0x3df960da	0.12176676
10	0x3c47aef2	0.012187706
11	0xbdea769f	-0.114484064
12	0x3d24b9a6	0.04021611
13	0xbdeef188	-0.11667162
14	0x3d9626e3	0.07331636
15	0xb9d88f45	-0.00041305475
16	0x3dd455bd	0.10367916
17	0x3c501a21	0.012701542
18	0x3d3d2dec	0.046186373
19	0xbe4e7741	-0.2016268
20	0xbc261517	-0.010136864
21	0xbd9334d0	-0.071878076
22	0x3dda9e53	0.10674729
23	0xbde96edc	-0.11398098
24	0x3b3dac5f	0.0028941853
25	0xbdf31abf	-0.11870336
26	0xbdb2aca6	-0.08724336
27	0x3deb8fd6	0.11502044
28	0xbdecfd75	-0.115717806
29	0xbd8cd59f	-0.068766825
30	0xbdb80901	-0.08986092
31	0xbe0a53fb	-0.13508599
32	0x3e6b9a97	0.2300819
33	0x3ee9ca12	0.4566198
34	0xbe42827e	-0.18995091
35	0x3f2939f1	0.66104037
36	0x3f55f833	0.83581847
37	0xbe043895	-0.1291221
38	0x3ed50d66	0.41611785
39	0x3ebf5335	0.3736817
40	0xbdd838e0	-0.10557723
41	0x3e916eb2	0.28404766
42	0x3f24b32f	0.6433591
43	0x3f2558dc	0.64588714
44	0x3ecb61cb	0.39723048
45	0x3d721b79	0.05910823
46	0x3eab7fb7	0.33495876
47	0x3f4968cc	0.7867553
48	0x3d729269	0.05922166
49	0x3ddd41f9	0.10803599
50	0xbe358454	-0.1772626
51	0x3f517e7b	0.8183362
52	0x3f0fe6d2	0.5621158
53	0xbcf0acb6	-0.02937923
54	0x3ee145f7	0.4399869
55	0x3ecb4514	0.3970114
56	0x3ed89e38	0.4230821
57	0x3f72b5de	0.9480876
58	0x3ed91f97	0.42406914
59	0x3ef270fe	0.4735183
60	0x3ee8b3fd	0.4544982
61	0x3f14d05c	0.5813043
62	0x3eec3cfd	0.4614028
63	0x3c1b832b	0.009491722
64	0xbe2b6509	-0.1673776
65	0xbdfc6147	-0.12323242
66	0x3e1d7760	0.15377569
67	0x3e218032	0.15771559
68	0xbdc1594d	-0.09440861
69	0xbcc81fce	-0.024429228
70	0xbe2a6bfa	-0.16642752
71	0x3e21bbf8	0.1579436
72	0x3dbc1478	0.091835916
73	0x3d8444d7	0.06458443
74	0xbe375784	-0.17904478
75	0xbcfbfe53	-0.03076092
76	0xbdb156df	-0.086591475
77	0xbda396ec	-0.079877704
78	0xbe12d3eb	-0.14338653
79	0x3e107c43	0.14109902
80	0x3df46d14	0.119348675
81	0xbcac6aac	-0.021046959
82	0x3baacc94	0.005212376
83	0xbd3f030d	-0.04663377
84	0xbdc3f91d	-0.09568999
85	0xbdea474a	-0.114393786
86	0xbb317544	-0.0027077952
87	0xbdfe6061	-0.124207266
88	0x3d97e289	0.07416255
89	0xbd9c0260	-0.076176405
90	0x3d66a3f6	0.05630871
91	0x3dfe224f	0.124088876
92	0x3dbe64a3	0.09296539
93	0xbdeeb491	-0.11655534
94	0xbe110c21	-0.14164783
95	0xbca26fe0	-0.019828737
96	0x3c379e57	0.011207185
97	0xbe359359	-0.1773199
98	0xbe5cf6da	-0.21578541
99	0xbd4c89a8	-0.049935967
100	0xbe2c2b17	-0.16813312
101	0x3d63f8a2	0.055657037
102	0xbdecaf36	-0.11556856
103	0xbe32e070	-0.17468429
104	0x3caa8e26	0.020819735
105	0x3d017f27	0.031615403
106	0x3d61d4f5	0.055134732
107	0xbe43a9e5	-0.19107778
108	0xbe21fecb	-0.15819852
109	0xbe05b8e0	-0.13058805
110	0x3d93453e	0.07190941
111	0xbe55e5ff	-0.20888518
112	0x3d54503b	0.051834326
113	0xbe625049	-0.22100939
114	0x3cd14ecd	0.02555027
115	0xbcd01357	-0.025399847
116	0xbc9a0492	-0.018801007
117	0xbd288855	-0.04114564
118	0xbdf0ca97	-0.11757391
119	0x3b1a307b	0.0023527432
120	0x3dca5eaf	0.09881341
121	0x3dbdacd1	0.09261478
122	0xbd867ca3	-0.06566741
123	0xbc6ebf41	-0.014571966
124	0xbe1f3de3	-0.15550952
125	0xbe2c260f	-0.16811393
126	0xbe3c28c2	-0.18374923
127	0xbe3684cf	-0.178241
128	0x3da2db23	0.07951953
129	0x3d23c364	0.03998126
130	0x3d0d72b9	0.034533236
131	0x3ca92015	0.02064518
132	0x3d6059f9	0.054773305
133	0xbd00286f	-0.03128856
134	0xbdeefc2a	-0.1166919
135	0xbd840118	-0.06445521
136	0xbdf4513a	-0.11929555
137	0xbdfc9c70	-0.123345256
138	0xbde4c61a	-0.111705974
139	0xbd665690	-0.056234896
140	0xbdd3190d	-0.103075124
141	0x3d8f4db2	0.06997241
142	0x3d5583cd	0.05212765
143	0x3d5b913c	0.053605303
144	0xbd93094f	-0.0717951
145	0x3e123f6f	0.1428201
146	0x3a1486ea	0.0005665856
147	0x3d18a33c	0.037265047
148	0xbd8da06e	-0.06915365
149	0x3dfc7219	0.1232645
150	0x3d311cc5	0.043240327
151	0xbe1263bb	-0.14295857
152	0xbb1392db	-0.0022517953
153	0x3d338a4d	0.043833066
154	0x3da570bf	0.08078145
155	0xbd0a795d	-0.033807147
156	0x3d894690	0.06702912
157	0x3b902818	0.004399311
158	0xbd46bc73	-0.048519563
159	0xbe26ae8f	-0.16277526
160	0x3f0edd9f	0.55806917
161	0x3e18914e	0.1489918
162	0x3eec5aa6	0.4616291
163	0x3f825d42	1.018471
164	0x3f11fee0	0.57029533
165	0x3d987da5	0.0744584
166	0x3ed9360f	0.42424056
167	0x3e56c6e0	0.20974302
168	0x3ea19c70	0.31564665
169	0x3ec3c094	0.38232863
170	0x3e31b485	0.17354019
171	0x3ea45669	0.32097176
172	0x3f412cec	0.7545917
173	0x3f324b7e	0.6964644
174	0x3f0030ca	0.50074446
175	0x3f2ec195	0.6826413
176	0x3ec0c4cf	0.37650153
177	0x3d3a17e2	0.045432933
178	0x3f0eac48	0.5573163
179	0x3f6f5164	0.9348357
180	0x3ec06c7b	0.37582764
181	0x3e99e1d9	0.3005512
182	0x3f358868	0.70911264
183	0x3f0d2059	0.55127484
184	0x3e9498c3	0.29022798
185	0x3f81a12e	1.0127313
186	0x3ed46087	0.41479895
187	0x3ec065ba	0.3757761
188	0x3f070389	0.5273977
189	0x3e666631	0.2249992
190	0x3f16cf2e	0.5890988
191	0x3e4bc1dd	0.19898172
192	0x3effc96e	0.49958366
193	0x3ec3aa03	0.38215646
194	0x3ea34289	0.318867
195	0x3f01f184	0.5075915
196	0x3f15233b	0.5825688
197	0x3ec078ce	0.37592167
198	0x3e4ae7f8	0.19815052
199	0xbe3e10fc	-0.18561167
200	0x3d950706	0.0727673
201	0x3ef9123c	0.48646724
202	0xbd0304c0	-0.03198695
203	0x3f10cba8	0.56560755
204	0x3f2a69c1	0.6656762
205	0x3f21df9a	0.63231814
206	0x3dfb1927	0.12260657
207	0x3ea77b7c	0.327114
208	0x3eacdce0	0.33762264
209	0x3e161a62	0.14658502
210	0x3f169f70	0.5883703
211	0x3f26e03b	0.651859
212	0x3edb96b7	0.42888424
213	0x3ed85fc3	0.4226056
214	0x3f31e851	0.6949511
215	0x3f1f68dd	0.62269384
216	0xbc43d222	-0.011951955
217	0x3f013147	0.50465816
218	0x3e213a62	0.15744928
219	0x3eb6a3d0	0.35671854
220	0x3ed7f28d	0.4217724
221	0x3ecfa872	0.405582
222	0x3ebb9c06	0.36642474
223	0x3ea4d997	0.32197258
224	0x3d937c53	0.07201447
225	0xbe41d97d	-0.18930621
226	0x3dbf68cf	0.093461625
227	0x3cf7e0d2	0.03025857
228	0xbd88cd64	-0.066798
229	0xbe122bef	-0.14274572
230	0xbe216813	-0.15762357
231	0x3d5341ca	0.051576413
232	0xbd153917	-0.0364314
233	0x3dc854c9	0.097817965
234	0x3d35f52b	0.044423264
235	0xbd0dc595	-0.034612257
236	0x3e013705	0.12618645
237	0x3df323a7	0.118720345
238	0xbe354c24	-0.17704827
239	0xbe00f217	-0.1259235
240	0xbbf2ebe9	-0.0074133766
241	0xbe4001f7	-0.1875075
242	0xbd56261c	-0.052282438
243	0xbe05b7b6	-0.13058361
244	0x3e01f545	0.12691219
245	0x3d98c9ec	0.074603885
246	0xbe1511da	-0.14557591
247	0x3d8958ac	0.06706366
248	0xbe18611e	-0.14880797
249	0xbe22e508	-0.15907681
250	0x3e09e466	0.13466033
251	0xbde1b95f	-0.11021685
252	0x3d03a94c	0.032143876
253	0xbdcb9a18	-0.099415004
254	0xbe2ff758	-0.17184198
255	0x3dfdf5c1	0.124003895

se.1.bias f4 [8]
0	0xbc839e1e	-0.016066607
1	0x3ecdc0d3	0.40186176
2	0xbdd96e0e	-0.106166944
3	0xbd90c51d	-0.070688464
4	0xbdc58d1d	-0.09646056
5	0x3f069b7d	0.52581006
6	0x3edd20c3	0.43189058
7	0xbe4710aa	-0.1943995

se.3.weight f4 [32, 8, 1, 1]
0	0x3dbe7ac4	0.093007594
1	0x3f0d68d8	0.55238104
2	0x3c1c87cb	0.00955386
3	0x3e25300a	0.16131607
4	0x3eac66ed	0.33672276
5	0x3f31d8e6	0.69471586
6	0x3e795005	0.24346931
7	0x3dee18d0	0.11625826
8	0xbe970d29	-0.29502228
9	0x3f2a5dd5	0.66549426
10	0x3bded14c	0.0067998525
11	0xbbbb3600	-0.0057132244
12	0x3ea60784	0.3242761
13	0x3ea49f77	0.32152912
14	0x3f006325	0.5015128
15	0xbe50f4e8	-0.20405924
16	0x3ea9bcfb	0.33151993
17	0x3ec8f81a	0.39251786
18	0x3e4c997c	0.19980425
19	0x3e6c3402	0.23066714
20	0x3e2e7731	0.17037655
21	0x3f22d32a	0.6360346
22	0x3ef054e8	0.46939778
23	0x3e553e47	0.20824538
24	0x3c971bd9	0.018445896
25	0x3f09d7ba	0.538448
26	0xbe88fb19	-0.26754072
27	0x3e43f314	0.19135696
28	0xbe3fe152	-0.18738297
29	0x3e82695b	0.25471005
30	0x3d1456d2	0.03621561
31	0x3ea14e21	0.3150492
32	0xbe6eb032	-0.233094
33	0x3e60e2ca	0.21961513
34	0xbe970438	-0.29495406
35	0x3ebd7db5	0.3700997
36	0xbd2e14ba	-0.042500235
37	0xbe152169	-0.14563526
38	0x3e1101ac	0.14160794
39	0xbe9ee4f4	-0.31034052
40	0xbe9b06f2	-0.30278736
41	0x3f209667	0.62729496
42	0x3e82e55d	0.25565615
43	0xbdd0ffbc	-0.102050275
44	0xbe777065	-0.24163969
45	0x3f34b47e	0.7058791
46	0x3ebc812b	0.36817297
47	0x3da7feb8	0.082028806
48	0x3e2bb032	0.16766432
49	0x3f330458	0.69928503
50	0x3cf3d421	0.029764237
51	0x3eb45f2b	0.35228857
52	0xbe8b8621	-0.2725077
53	0x3edea960	0.43488598
54	0x3f38d8c7	0.72205776
55	0xbe7776da	-0.24166432
56	0xbe39d8d6	-0.18149123
57	0x3e567c10	0.20945764
58	0xbe08e532	-0.13368681
59	0x3e882f9a	0.26598817
60	0x3e5b3d5b	0.21410124
61	0x3f5ba109	0.85792595
62	0x3e89376d	0.268001
63	0x3e7696d3	0.24080972
64	0xbdc4421c	-0.09582922
65	0x3f4f3e80	0.8095474
66	0xbeafda25	-0.3434612
67	0xbe8b648d	-0.27225152
68	0xbe4ee2dd	-0.20203729
69	0x3ea2b450	0.31778193
70	0x3f2b4cc8	0.66914034
71	0xbe68c66e	-0.22731945
72	0xbd13c577	-0.03607699
73	0x3e644616	0.2229236
74	0x3e4dfd48	0.2011615
75	0x3d849a82	0.064747825
76	0x3ea2a48b	0.3176616
77	0x3f0e28f8	0.55531263
78	0x3eb37b77	0.35055134
79	0xbea99b2e	-0.33126205
80	0xbdf58b58	-0.11989468
81	0x3f2a6f85	0.66576415
82	0xbdec0c48	-0.1152578
83	0x3e042814	0.12905914
84	0x3e76cadf	0.24100827
85	0x3f2152a0	0.630167
86	0x3e8da3b4	0.27663958
87	0xbd85e88b	-0.06538495
88	0xbe9d59ab	-0.30732474
89	0xbe0b0cac	-0.13579053
90	0x3e156aa0	0.14591455
91	0xbe1fb212	-0.15595272
92	0xbe31026c	-0.1728608
93	0x3e4324d7	0.19057022
94	0x3f0fdf2b	0.561999
95	0x3ccb8107	0.024841798
96	0xbcdbf383	-0.026849514
97	0x3eec8f1e	0.4620294
98	0xbdeec273	-0.11658182
99	0x3c7337b5	0.014844825
100	0xbbc958ba	-0.0061446102
101	0x3eeccac1	0.4624844
102	0xbd6716fa	-0.056418397
103	0x3ea0a0cf	0.31372687
104	0xbe9c5115	-0.3053061
105	0xbe178ada	-0.14799061
106	0xbd8402eb	-0.06445869
107	0xbbec65f0	-0.0072143003
108	0xbe0fdb88	-0.14048588
109	0xbe52766e	-0.2055299
110	0xbe89fc87	-0.26950476
111	0xbe82e6d9	-0.25566748
112	0xbe3f11ab	-0.18659084
113	0x3f2667df	0.65002245
114	0xbe65dd34	-0.22447664
115	0xbd54cdbc	-0.051954016
116	0xbd8541ff	-0.065067284
117	0x3f150516	0.58210886
118	0x3e6a65ee	0.22890446
119	0x3d3cbf02	0.046080597
120	0x3def0ceb	0.11672386
121	0x3c38c53e	0.011277495
122	0x3cde4839	0.027134048
123	0xbe214183	-0.15747647
124	0x3e20ffcc	0.15722579
125	0x3ece236a	0.40261394
126	0x3f095b9e	0.5365542
127	0xbd7d364a	-0.061819352
128	0xbe0eb95f	-0.13937901
129	0x3ee719e8	0.45136952
130	0x3b11689e	0.00221876
131	0x3c1da760	0.009622425
132	0xbe9a8cb7	-0.30185482
133	0x3e5a67e3	0.21328692
134	0x3c27a14f	0.01023133
135	0xbe3c3de6	-0.18382987
136	0x3c9fa9b2	0.019490097
137	0x3ef05b33	0.4694458
138	0xbe727505	-0.23677452
139	0x3cdb8730	0.02679786
140	0x3a9721f5	0.0011530506
141	0x3f19883b	0.59973496
142	0x3f1c0927	0.60951465
143	0x3d96404f	0.07336485
144	0xbd7d9bc4	-0.061916128
145	0x3e78bab1	0.24289967
146	0xbde80dbb	-0.11330744
147	0xbe76f646	-0.24117383
148	0x3e961d7a	0.29319364
149	0x3f49d4a1	0.7884007
150	0x3ed62e64	0.41832268
151	0xbea8150f	-0.32828566
152	0x3e1e9c05	0.15489204
153	0xbca2cd79	-0.019873368
154	0xbe621cb3	-0.2208126
155	0xbe9935b8	-0.29923797
156	0xbe181026	-0.1484991
157	0x3e798e4f	0.24370693
158	0x3e9800af	0.29688022
159	0x3e96e076	0.29468125
160	0x3e96690a	0.29377013
161	0x3ed2b1fb	0.41151413
162	0x3d429709	0.04750732
163	0xbd04d97b	-0.032433968
164	0xbcb787e9	-0.022403674
165	0x3e524311	0.20533396
166	0x3f148ea8	0.58030176
167	0xbd81c15a	-0.06335707
168	0xbe772099	-0.24133529
169	0x3e73f545	0.23824032
170	0xbe05a762	-0.13052133
171	0x3dfcda0b	0.12346276
172	0xbea44754	-0.3208567
173	0x3e63152c	0.22176045
174	0x3eb251df	0.34828088
175	0x3cd1a693	0.025592124
176	0xbd4212a1	-0.047381047
177	0x3ee6d99c	0.45087898
178	0x3e6fbc3d	0.23411651
179	0xbe71c46b	-0.23610084
180	0xbe0c9281	-0.13727762
181	0x3e573d75	0.21019538
182	0x3ea84e0d	0.32872048
183	0x3e834ff2	0.2564693
184	0xbdc4f654	-0.09617296
185	0x3f05b3a8	0.5222726
186	0xbd97dd7c	-0.07415292
187	0xbe05850d	-0.13039036
188	0x3d83d372	0.06436814
189	0x3ee774dd	0.45206347
190	0x3ef450fa	0.4771803
191	0xbe743f89	-0.23852362
192	0xbcbfb5e8	-0.02340217
193	0x3f1ebdcd	0.62008363
194	0x3eae7859	0.34076193
195	0x3eb180f7	0.34668705
196	0xbe78483a	-0.24246302
197	0x3f29c864	0.66321397
198	0x3ebe16bd	0.37126723
199	0x3d5c6efb	0.053816777
200	0x3da2252c	0.07917246
201	0x3e9df19e	0.30848402
202	0x3e7ce435	0.24696429
203	0x3e6727b1	0.22573735
204	0xbe00396f	-0.12521909
205	0xbd256952	-0.040383644
206	0x3ebe188a	0.37128097
207	0xbda62296	-0.081120655
208	0xbe16cf40	-0.14727497
209	0xbdfb8bd8	-0.122825325
210	0xbe89bdf7	-0.26902744
211	0xbe408d05	-0.18803795
212	0x3e67ae78	0.22625148
213	0x3de7bf28	0.11315757
214	0x3cfbc426	0.03073318
215	0xbead3268	-0.3382752
216	0x3da53979	0.08067603
217	0x3ece58bd	0.40302077
218	0x3e68874e	0.22707865
219	0x3ec2193b	0.37909874
220	0xbda40c48	-0.08010155
221	0x3f3a5231	0.72781664
222	0x3e76027a	0.24024382
223	0xbe4c7c1a	-0.19969216
224	0xbd189f41	-0.03726125
225	0xbddca141	-0.10772944
226	0x3d818333	0.063238524
227	0xbe917213	-0.28407344
228	0x3d86e17a	0.06585975
229	0x3e4cfcaa	0.20018259
230	0x3f0bba93	0.54581565
231	0xbe1568e2	-0.14590791
232	0x3eac0673	0.3359867
233	0x3ecf6058	0.40503192
234	0xbe75c50b	-0.24000947
235	0xbe9002b0	-0.2812705
236	0xbdc79756	-0.09745662
237	0x3f36f30f	0.7146463
238	0x3e8c0fac	0.27355707
239	0xbea802fa	-0.3281477
240	0xbdcada4e	-0.099049196
241	0x3f1867ca	0.5953337
242	0xbdc32b55	-0.09529749
243	0x3d908fd4	0.07058683
244	0xbe5faf81	-0.21844293
245	0x3f1820a4	0.59424806
246	0x3f13f701	0.57798773
247	0x3e027220	0.12738848
248	0x3e5afa97	0.21384655
249	0x3eac0609	0.33598354
250	0x3e7e9cda	0.24864522
251	0x3ecd5fdc	0.40112197
252	0xbc97aeb8	-0.01851593
253	0x3db1e727	0.08686667
254	0xbe12dcef	-0.14342092
255	0xbd74ff1f	-0.059813615

se.3.bias f4 [32]
0	0x3f2c4b48	0.6730237
1	0x3e1dc681	0.15407754
2	0x3f0685aa	0.52547705
3	0x3e4d6e73	0.20061664
4	0x3ebe899c	0.37214363
5	0x3ea23efd	0.3168868
6	0x3e03f3d4	0.12885982
7	0x3eed7e37	0.46385357
8	0x3e83d5bd	0.25749007
9	0x3dfdeb1a	0.12398358
10	0x3f23d6e9	0.639998
11	0x3e6d2c66	0.23161468
12	0x3e479963	0.19492106
13	0x3e194128	0.14966261
14	0x3efdf63c	0.49601924
15	0xbe179592	-0.1480315
16	0x3eae6c37	0.34066936
17	0x3f03c5cc	0.5147369
18	0x3f2f30c9	0.68433815
19	0x3e2a2d7f	0.16618918
20	0x3e124f4c	0.14288062
21	0x3e1d9375	0.15388282
22	0x3edc9843	0.43084916
23	0x3f02e264	0.51126695
24	0x3f05a5e2	0.5220624
25	0xbe923789	-0.28557995
26	0x3e31d6ca	0.17367092
27	0x3e404190	0.1877501
28	0x3d7f0f9d	0.06227075
29	0x3e753582	0.23946193
30	0x3e008508	0.12550747
31	0x3e9ce8ab	0.30646262

fc.0.weight f4 [64, 1152]
0	0xbca483ec	-0.020082437
1	0xbc0ec996	-0.008715054
2	0x3bd1d7d3	0.006403902
3	0xbca30124	-0.019898005
4	0x3adcd625	0.0016848488
5	0x3c7a08bd	0.015260872
6	0x3c90acae	0.017660465
7	0x3c2cecb5	0.010554482
8	0x3cdbec0c	0.026845954
9	0xbb055256	-0.0020343265
10	0x3c672bd9	0.014109575
11	0xbd0310a4	-0.03199829
12	0x3c2c1da4	0.010505114
13	0xbb3850a3	-0.0028124235
14	0x3c107483	0.008816841
15	0xbc59a8e0	-0.013284892
16	0x3c89f9f5	0.016842822
17	0xba34ec79	-0.0006901692
18	0xbcfd155a	-0.03089397
19	0x3c4a6cfa	0.012355084
20	0xbca16067	-0.019699289
21	0x3c23cfb8	0.0099982545
22	0xbc6ab0ee	-0.01432441
23	0x3c0cabe4	0.008585904
24	0xbbbfbb92	-0.0058512175
25	0x3c19664f	0.009362771
26	0xbcf8d70d	-0.030375982
27	0xbcaecfa9	-0.021339254
28	0xbc1764a5	-0.009240304
29	0x3c63eef9	0.013911956
30	0xbd15a5b5	-0.036534984
31	0xbca2adfe	-0.019858357
32	0xbbc920b4	-0.0061379317
33	0xbbd16d67	-0.0063912156
34	0x3c957068	0.018242076
35	0x3c6328a2	0.013864668
36	0xbcbf66ce	-0.02336445
37	0x3c21d3b5	0.009877135
38	0xbc4b89cb	-0.012422989
39	0xbb55288e	-0.0032525393
40	0xbd0bdd18	-0.0341464
41	0xbcaf5cf8	-0.021406636
42	0x3cd04e66	0.025428008
43	0x3c821be8	0.015882447
44	0xbcd1d133	-0.02561245
45	0x3c27b67a	0.010236377
46	0x3ac1daee	0.0014789978
47	0xbd273a77	-0.04082724
48	0xbcb70a95	-0.022343913
49	0x3c8d8470	0.017275065
50	0xbce6f752	-0.028194103
51	0xbd296e27	-0.041364815
52	0x3c31f66d	0.010861975
53	0xbceab92e	-0.028652754
54	0xbcd77be9	-0.026304202
55	0xbcab4c50	-0.020910412
56	0xbcf48fcd	-0.029853726
57	0x3c829a74	0.01594279
58	0xbc3b3c32	-0.011427926
59	0xbccd7c24	-0.025083609
60	0xbce6dfec	-0.028182946
61	0xbbaaf5ec	-0.0052173045
62	0x3c22bbc9	0.009932467
63	0xbb5eecb1	-0.003401559
64	0xbd051d73	-0.032498788
65	0xbbf79494	-0.0075555537
66	0xbc676ce9	-0.014125087
67	0x3c7a5829	0.015279808
68	0xbc9574d9	-0.018244194
69	0xbd0778c8	-0.03307417
70	0x3c678ef4	0.014133204
71	0x3c2901ca	0.010315368
72	0xbc8e5902	-0.017376427
73	0x3ab5b2e8	0.0013862522
74	0x3ccd08c8	0.025028601
75	0xbcb8bf9c	-0.022552304
76	0x3c418487	0.011811382
77	0x3c5ef2fe	0.013607739
78	0xbc5abf26	-0.013351237
79	0x3b8d3e19	0.004310381
80	0x3c9e2a16	0.019307178
81	0x3b61664c	0.003439325
82	0xbc2834ba	-0.010266477
83	0x3c43a3b9	0.01194089
84	0xb7707c74	-1.4334091e-05
85	0x3cb723b5	0.022355894
86	0x3ad7402f	0.0016422326
87	0xbbbcda0f	-0.0057632993
88	0xbd0183ae	-0.03161972
89	0xbc767685	-0.015042906
90	0xbb9d15dd	-0.004793866
91	0x3c1d41d6	0.009598216
92	0xbb95fc7e	-0.0045772186
93	0xbbfdc9a6	-0.0077449856
94	0xbcfcc3b9	-0.030855047
95	0xbd22cbc8	-0.039745122
96	0x3bc1835b	0.0059055514
97	0xbc820c6a	-0.01587506
98	0xbb0108d7	-0.0019689107
99	0x3b6ad482	0.003583223
100	0xbb976fd6	-0.004621486
101	0xbcb4527e	-0.022011992
102	0x3c8f749e	0.017511662
103	0xbbf2050c	-0.0073858555
104	0xbcbb2774	-0.022845961
105	0xbcf5f959	-0.030026125
106	0x3b29aab7	0.0025889107
107	0xbba5acf3	-0.0050560175
108	0xbbef2d7d	-0.007299124
109	0xbcaae142	-0.020859364
110	0xbc8af03a	-0.016960252
111	0xbc80b674	-0.015712
112	0xbc370a93	-0.011171955
113	0xbc66c62a	-0.014085332
114	0xbc780a21	-0.015139134
115	0xbd1ca3b4	-0.038242057
116	0xbd0ede97	-0.034880247
117	0xbcfbbb28	-0.030728891
118	0xbc7f963c	-0.0155997835
119	0xbcad7473	-0.021173691
120	0xbb129725	-0.0022367921
121	0xbcc71629	-0.024302559
122	0xbc4a4f37	-0.012347988
123	0x3ca41cad	0.020033205
124	0x3b6548b6	0.0034985966
125	0xba757252	-0.00093630434
126	0xbb370da5	-0.0027931717
127	0x3c0ef269	0.008724787
128	0xbafb72f0	-0.0019184034
129	0x3b173731	0.0023073668
130	0xbcefc8fa	-0.029270638
131	0xbd1dfebc	-0.03857301
132	0xbc944741	-0.018100383
133	0x3c5153b2	0.012776302
134	0xbc94ce72	-0.018164847
135	0x3c9153dd	0.017740184
136	0xbc3ca9ca	-0.01151509
137	0xbb9ec9db	-0.0048458404
138	0x3c45b842	0.012067856
139	0x3c1e61b0	0.009666845
140	0x3c9e96d4	0.01935903
141	0xbcb2d144	-0.021828301
142	0xbc396b8c	-0.011317145
143	0xbd215828	-0.039390713
144	0xbcea6bc2	-0.028615836
145	0xbc290c09	-0.010317811
146	0xbc8828dd	-0.016621048
147	0xbbc970c0	-0.006147474
148	0xbc743170	-0.014904365
149	0xbd0006ce	-0.03125649
150	0xbd01d5ac	-0.031697914
151	0xbcd746c3	-0.026278859
152	0x3c2cd970	0.010549888
153	0xbc94eef3	-0.018180346
154	0xbd40754e	-0.04698687
155	0xbc81b5d8	-0.01583378
156	0x3c24e885	0.010065203
157	0xbcc814a7	-0.02442391
158	0xbbc4230f	-0.0059856246
159	0xbcb8dc86	-0.022566091
160	0x3acbe371	0.0015555454
161	0xbcd79de5	-0.026320407
162	0xbca6e448	-0.020372525
163	0xbce29d64	-0.02766294
164	0xbcf28316	-0.029603522
165	0xbbaa6250	-0.005199708
166	0x3c35feba	0.011108095
167	0xbb3992c9	-0.002831625
168	0x3b55a9dc	0.0032602465
169	0xbc2d0c3f	-0.010562002
170	0xbcba3b42	-0.022733334
171	0xbd232e3c	-0.039839014
172	0x3b080935	0.002075744
173	0x3c939686	0.018016111
174	0xbce01def	-0.027358023
175	0xbc969488	-0.018381372
176	0x3c092d69	0.008372643
177	0x3b8fd935	0.004389907
178	0xbd23f3b4	-0.040027335
179	0xbcb28fc3	-0.021797067
180	0xbbeec04f	-0.0072861086
181	0xbce5fed9	-0.028075622
182	0xbccc6b2a	-0.024953444
183	0xbc489280	-0.01224196
184	0xbc42e706	-0.011895901
185	0xbcdc8cdc	-0.026922636
186	0xbca73675	-0.02041171
187	0xbcdf3952	-0.027249012
188	0xbd2af2ff	-0.041735645
189	0xbc98d2f0	-0.01865527
190	0x3cbe1078	0.023201212
191	0x3c0bdf8c	0.008537184
192	0xba124062	-0.0005579052
193	0xbd020a22	-0.031747945
194	0xba580e5e	-0.0008241887
195	0x3abab9d7	0.0014246058
196	0xbc84ba38	-0.016202077
197	0xbc498f5f	-0.012302249
198	0xbd00ed9d	-0.031476606
199	0x3c90a6a0	0.017657578
200	0xbb3b1dbd	-0.002855166
201	0x3cecfc1f	0.028928814
202	0xbb61ef3a	-0.0034474866
203	0x3bc737cd	0.00607965
204	0xbc3c046b	-0.011475663
205	0xbcbfb6ee	-0.023402657
206	0xbca9e2ce	-0.020738032
207	0x3cbd9a5c	0.023144893
208	0x3b2f4a10	0.0026747026
209	0x3aa43882	0.0012529048
210	0x3b963d41	0.0045849388
211	0x3c95ffb7	0.01831041
212	0xbab265c8	-0.0013610655
213	0xbd2bda71	-0.04195637
214	0x3b5af2fc	0.003340899
215	0xbd2b750c	-0.04185967
216	0xbc094593	-0.008378404
217	0xbcc1b375	-0.023645142
218	0x3c7fa434	0.015603114
219	0x3cd5c247	0.026093615
220	0xbc18f159	-0.0093348855
221	0xbccca42e	-0.02498063
222	0xbc45a897	-0.012064121
223	0xbd0fcd44	-0.035107866
224	0xbc92ffc9	-0.017944233
225	0xbc522839	-0.012826973
226	0xbd099344	-0.03358771
227	0xbd246a1f	-0.040140267
228	0xbbbebdc1	-0.0058209603
229	0xbc2c5a0e	-0.010519518
230	0x3c81eeea	0.015860993
231	0xbd022fce	-0.03178387
232	0xbb29cd53	-0.0025909736
233	0xbcb73f40	-0.022369027
234	0xbd154b4a	-0.036448754
235	0xbce062df	-0.027390895
236	0x3c058f4f	0.008151843
237	0xbcb4593f	-0.022015212
238	0xbcc40c71	-0.023931714
239	0xbd17aacf	-0.03702813
240	0xbccb698d	-0.024830604
241	0xbcbe8f5e	-0.023261722
242	0xbccf66c5	-0.025317559
243	0xbcb2193c	-0.021740548
244	0xbc86a3c8	-0.016435519
245	0xbcede98d	-0.02904203
246	0x3b98b09f	0.0046597268
247	0xbcd48adf	-0.025945125
248	0x3cac8213	0.021058118
249	0xbc11a875	-0.008890261
250	0xbd333c29	-0.043758545
251	0x3c9f4277	0.019440873
252	0x3cde86eb	0.027163943
253	0xbc90f3a5	-0.017694304
254	0xbb5788a3	-0.0032887838
255	0x3c55f75b	0.013059462

fc.0.bias f4 [64]
0	0xbd0f942f	-0.03505343
1	0x3df97f38	0.12182468
2	0xbe0ee3ef	-0.13954137
3	0xbbc69f62	-0.0060614804
4	0xbc969353	-0.018380797
5	0x3c3eb248	0.011639185
6	0x3cda7b15	0.026670018
7	0xbcaf4db7	-0.021399362
8	0xbd9548a6	-0.07289247
9	0x3c533bd9	0.012892687
10	0x3c0bb97e	0.0085281115
11	0xbcc70e28	-0.024298742
12	0xbd26709e	-0.040634744
13	0x3dce653d	0.100779034
14	0xbcf70150	-0.030151993
15	0xbb97279c	-0.004612876
16	0xbce5c522	-0.028048102
17	0x3d1fa52d	0.038975883
18	0x3c5a6033	0.0133286
19	0x3dfdb87a	0.12388702
20	0xbcbc46ce	-0.022982981
21	0xbd1e351d	-0.03862487
22	0x3d027223	0.03184713
23	0x3d0a29d2	0.03373129
24	0xbd255b94	-0.04037054
25	0xbc06b052	-0.008220749
26	0x3d2da299	0.042391393
27	0xbd082043	-0.033233892
28	0xbd03bb37	-0.032160964
29	0xbe132a0a	-0.14371505
30	0xbddad529	-0.10685188
31	0x3c829e42	0.015944604
32	0x3d8971b1	0.06711138
33	0x3d96b2a7	0.07358294
34	0x3db03db9	0.08605523
35	0xbd90066b	-0.07032474
36	0x3d7f8b97	0.062388983
37	0x3a2c1389	0.000656419
38	0xbcc71a73	-0.024304604
39	0x3d954499	0.072884746
40	0xbcea70a8	-0.028618172
41	0xbd745f7d	-0.059661377
42	0x3b422536	0.002962423
43	0x3e0b00d1	0.1357453
44	0x3d109ec7	0.035307672
45	0xbd68ba5e	-0.05681836
46	0x3c24f578	0.01006829
47	0x3c7eddeb	0.015555839
48	0xbc0fa639	-0.008767658
49	0xbd9a0c76	-0.07521908
50	0xbe4e3e87	-0.2014104
51	0x3dbcf417	0.09226244
52	0x3c4eda46	0.012625283
53	0xbc76486b	-0.015031914
54	0x3c4922fa	0.0122764055
55	0x3d85eb5b	0.06539031
56	0x3930accd	0.00016849041
57	0x3aeb690f	0.0017960387
58	0x3b0f258b	0.0021842446
59	0xbbab7af4	-0.005233163
60	0x3dd99b7e	0.10625361
61	0xbdcad99c	-0.09904787
62	0x3a882f6b	0.0010390108
63	0x3a944ac3	0.0011313785

fc.3.weight f4 [27, 64]
0	0x3dd414f5	0.1035556
1	0xbe7843ee	-0.24244663
2	0xbe7dce60	-0.24785757
3	0x3d3fbe55	0.046812374
4	0xbeea4f97	-0.45763847
5	0xbed1ce68	-0.40977788
6	0xbedce09f	-0.43140122
7	0x3cd6f883	0.026241546
8	0xbeec3b1b	-0.46138844
9	0xbd925a7e	-0.07146166
10	0xbee52416	-0.44754094
11	0xbed436e4	-0.41448128
12	0x3dcb35e7	0.099223904
13	0xbe889954	-0.2667948
14	0xbe9471fc	-0.28993213
15	0xbee811ae	-0.4532599
16	0xbf07494c	-0.5284622
17	0xbe808504	-0.25101483
18	0xbd5987b2	-0.053107925
19	0xbe36ef01	-0.1786461
20	0x3ca93373	0.020654416
21	0x3d0d4241	0.034487013
22	0xbed1d449	-0.40982273
23	0xbea32543	-0.31864366
24	0xbf27e14e	-0.6557816
25	0xbb787ce7	-0.0037916244
26	0xbec29990	-0.38007784
27	0xbd49a6d0	-0.04923135
28	0xbdf2408d	-0.11828718
29	0xbf0c3b62	-0.5477811
30	0xbecb428f	-0.39699218
31	0x3da41cb5	0.08013288
32	0xbef9b663	-0.48771963
33	0xbec35a7e	-0.38154978
34	0xbf01be06	-0.5068058
35	0xbef751ba	-0.4830454
36	0xbed7653a	-0.42069417
37	0x3db24e75	0.08706371
38	0xbee9c072	-0.45654637
39	0xbea91be3	-0.33029088
40	0xbe086072	-0.13318041
41	0xbea4706a	-0.32117015
42	0xbf031221	-0.5119954
43	0xbf1203d2	-0.5703708
44	0xbeecd4f7	-0.4625623
45	0xbed79496	-0.4210555
46	0xbf24c2b9	-0.64359623
47	0x3d8863fc	0.066596955
48	0x3c217202	0.009853842
49	0xbf180ffe	-0.593994
50	0xbf04b9b5	-0.51845866
51	0xbf14cddd	-0.5812662
52	0x3dce6384	0.10077575
53	0x3d8db394	0.069190174
54	0x3cf1294a	0.029438633
55	0xbed63a52	-0.4184137
56	0xbe9e18f6	-0.3087842
57	0x3de5dc8f	0.11223709
58	0xbdcca5ad	-0.09992538
59	0x3cea8058	0.028625652
60	0xbea1d39e	-0.31606764
61	0xbec9d488	-0.3941996
62	0x3d870f5f	0.06594729
63	0xbf4746b1	-0.7784224
64	0xbd95a59c	-0.07306978
65	0x3e0b2261	0.13587333
66	0xbe6d82a0	-0.2319436
67	0x3d7d1d4f	0.06179553
68	0x3db9fa21	0.090809114
69	0x3da8cd57	0.082422905
70	0x3d0c0ae7	0.034190085
71	0xbdc5cad7	-0.09657829
72	0x3e809ad9	0.2511814
73	0x3c2f1d12	0.010688083
74	0x3e60e62b	0.21962802
75	0xbe5539de	-0.20822856
76	0xbd99d16a	-0.07510646
77	0xbf0a09bc	-0.53921103
78	0xbec2bbe7	-0.38033983
79	0xbe248fef	-0.16070531
80	0xbd23867d	-0.03992318
81	0x3ceda8b0	0.0290111
82	0x3c2da613	0.010598677
83	0xbf05143c	-0.51984
84	0xbdcc860d	-0.09986506
85	0x3d0f0306	0.034914993
86	0x3e7d7a11	0.24753596
87	0xbf0899e5	-0.53359824
88	0xbde656a0	-0.11246991
89	0xbdd2daba	-0.10295625
90	0xbf2caf49	-0.67454964
91	0xbc5ed798	-0.013601206
92	0x3d139fc5	0.03604104
93	0xbd4eaaf9	-0.05045602
94	0x3dfd23ef	0.123603694
95	0xbdc342d6	-0.09534232
96	0xbdfc3334	-0.12314454
97	0x3e137aa1	0.14402248
98	0x3e1dfdb4	0.15428811
99	0xbd233ce8	-0.039853007
100	0x3ccc7d70	0.024962157
101	0xbc8f9c52	-0.017530594
102	0xbeb8c8f3	-0.36090812
103	0xbed1557a	-0.40885526
104	0xbdd2f2b4	-0.10300198
105	0xbe23181e	-0.15927169
106	0x3dd7a691	0.10529817
107	0xbeadb446	-0.339266
108	0x3dbf49a2	0.09340216
109	0xbd9d449d	-0.076791026
110	0x3dd0004a	0.10156305
111	0x3dc25c77	0.094902925
112	0x3d920e9f	0.07131695
113	0x3dca5bbe	0.0988078
114	0x3df65a91	0.12028993
115	0xbe3fae4d	-0.18718834
116	0x3d9238dc	0.07139751
117	0xbde0060b	-0.109386526
118	0xbce96de8	-0.02849479
119	0x3e474ba1	0.19462444
120	0xbe842691	-0.25810674
121	0x3db81361	0.08988071
122	0x3d1f0ac9	0.038828645
123	0xbdce9e22	-0.10088755
124	0x3e5a8ad8	0.21342027
125	0xbe83ea7a	-0.2576483
126	0xbd8d4a2e	-0.06898914
127	0x3e7a1401	0.24421693
128	0xbbdc3890	-0.00672061
129	0x3e20680d	0.15664692
130	0xbdec862d	-0.115490295
131	0xbcabd719	-0.02097659
132	0x3af4f0ec	0.0018687523
133	0xbe1dad4e	-0.15398142
134	0x3e37ebab	0.17960994
135	0xbb1dc1cd	-0.0024071813
136	0x3d9ecca7	0.07753878
137	0xbd3b5357	-0.045733776
138	0xbddcb766	-0.10777168
139	0xbec226ed	-0.37920323
140	0xbd888a29	-0.06666977
141	0x3ddb5ce6	0.10711078
142	0x3e4f3900	0.20236588
143	0xbe50af1c	-0.20379299
144	0x3ddb1f9f	0.106993906
145	0x3e25c216	0.16187319
146	0xbdcca0d3	-0.09991612
147	0x3c3c5d98	0.011496924
148	0xbd346002	-0.044036873
149	0x3cead17c	0.028664343
150	0x3ebe8c6b	0.37216505
151	0xbe30bdc4	-0.1725989
152	0xbceb420b	-0.028718015
153	0xbdcc00c1	-0.09961081
154	0xbea6c5a5	-0.32572666
155	0x3cd4bd1c	0.02596908
156	0xbd2ddc86	-0.042446636
157	0xbc1305be	-0.008973537
158	0xbeeb5fb8	-0.45971465
159	0x3d0007ee	0.031257562
160	0x3ddb5074	0.107087046
161	0xbcfd5986	-0.030926477
162	0xbcf49571	-0.029856415
163	0x3d3b46bf	0.045721766
164	0xbe533a36	-0.20627674
165	0xbd9e90cf	-0.07742464
166	0x3dffe563	0.12494924
167	0x3e8a8b12	0.27059227
168	0x3ceb357b	0.028712025
169	0x3e2cb06a	0.16864172
170	0xbded565b	-0.115887366
171	0xbf09fb54	-0.5389912
172	0x3d889411	0.066688664
173	0xbef0a7b3	-0.47002944
174	0x3d517ff1	0.051147405
175	0x3dde7ece	0.1086403
176	0xbc8fcf5a	-0.017554928
177	0xbecd2b6c	-0.4007219
178	0xbf0cce39	-0.5500217
179	0xbea06b67	-0.3133194
180	0xbb931086	-0.0044880537
181	0xba110f2f	-0.00055335736
182	0x3d4a890c	0.049447104
183	0xbeccd9b4	-0.40009844
184	0x3d5b011e	0.053467862
185	0xbdcc7a9e	-0.09984325
186	0xbb8df471	-0.004332118
187	0xbdddd07e	-0.10830782
188	0xbee1eb3b	-0.4412478
189	0x3d501c48	0.05080822
190	0x3c781ea0	0.01514402
191	0xbeb33dc5	-0.35008064
192	0x3dbf70ab	0.093476616
193	0xbdf8ecda	-0.12154551
194	0xbd307189	-0.043077026
195	0x3d89338c	0.06699285
196	0xbf063e5e	-0.52438915
197	0x3ddc8244	0.10767034
198	0xbe612138	-0.21985328
199	0x3ddda4c5	0.10822443
200	0xbee3b733	-0.44475707
201	0xbd32a0c8	-0.043610364
202	0x3e25451f	0.16139649
203	0xbecf06a1	-0.40434745
204	0x3daf58a2	0.08561827
205	0x3e95c654	0.29252875
206	0xbe72aaaf	-0.23697923
207	0x3e8ed750	0.27898645
208	0xbf0cf62d	-0.55063134
209	0x3d7104b2	0.05884237
210	0x3dd4a1f6	0.10382454
211	0xbdb5b045	-0.08871511
212	0xbd268a49	-0.040659223
213	0xbdd56691	-0.104199536
214	0x3e3acdbd	0.18242545
215	0xbf33a221	-0.70169264
216	0xbd6503c4	-0.055911794
217	0x3bc0e8ec	0.0058871415
218	0x3dfb6c87	0.12276559
219	0xbe05b624	-0.13057762
220	0x3d61946f	0.055073198
221	0xbe971ee6	-0.2951576
222	0xbe4968b1	-0.19668843
223	0x3d9c999c	0.07646486
224	0x3de6e257	0.1127364
225	0x3d945865	0.072434224
226	0xbedf5544	-0.4361974
227	0xbdfd2b19	-0.12361736
228	0x3e5540aa	0.20825449
229	0xbdaa2739	-0.083082624
230	0x3da04d33	0.078272246
231	0x3d856ad6	0.06514518
232	0x3c9910e8	0.01868482
233	0xbe5e8dce	-0.21733782
234	0x3e0268fb	0.1273536
235	0xbe844ae6	-0.25838393
236	0xbe9cb86d	-0.30609456
237	0x3e0cd519	0.13753165
238	0xbe626977	-0.22110544
239	0xbc8b4b30	-0.017003626
240	0xbdab5c07	-0.08367162
241	0xbf1150de	-0.5676402
242	0x3dc05029	0.09390289
243	0xbe6ba067	-0.23010407
244	0xbd916ed6	-0.071012184
245	0x3cbfb2ff	0.023400782
246	0x3d375a83	0.044764053
247	0x3e482eff	0.19549178
248	0xbd681c87	-0.05666783
249	0xbda22f23	-0.07919147
250	0xbccb43bd	-0.024812574
251	0x3ba74221	0.0051043187
252	0x3e7f225d	0.24915452
253	0xbde0a77a	-0.109694436
254	0x3c360a59	0.0111108655
255	0x3d764c2c	0.060131237

fc.3.bias f4 [27]
0	0xbe950b35	-0.29110113
1	0x3d017c0a	0.031612433
2	0x3ea9128e	0.3302197
3	0x3e2bcb70	0.16776824
4	0x3e7765cb	0.24159925
5	0xbe4832a8	-0.19550574
6	0x3dc3bee7	0.09557896
7	0xbe5d1a57	-0.21592079
8	0x3eaf563f	0.34245488
9	0xbd18deb5	-0.037321765
10	0x3db68d31	0.08913649
11	0x3e7e0d5d	0.24809785
12	0x3dbc0fe2	0.09182717
13	0xbe968ef2	-0.29405934
14	0x3df2b736	0.11851351
15	0x3ed8d192	0.4234739
16	0x3df03440	0.11728716
17	0xbe6bb860	-0.23019552
18	0xbf3ee499	-0.7456756
19	0xbe38e766	-0.18057021
20	0x3e772919	0.24136771
21	0x3e442ad0	0.19156957
22	0x3e6b27f2	0.22964457
23	0xbf088ce9	-0.5334001
24	0x3e5dc2cc	0.2165634
25	0xbe44e3db	-0.19227545
26	0xbd940189	-0.07226855
