emnist_cnn.pth (torch, 313506 bytes, 15 tensors)

conv1.weight f4 [1, 1, 3, 3]
0	0xbf800000	-1.0
1	0x3f800000	1.0
2	0x3f800000	1.0
3	0x3f800000	1.0
4	0xbf800000	-1.0
5	0x3f800000	1.0
6	0xbf800000	-1.0
7	0x3f800000	1.0
8	0x3f800000	1.0

conv2.weight f4 [32, 1, 3, 3]
0	0x3deb8aec	0.115011066
1	0x3e925172	0.28577763
2	0x3dba9498	0.09110373
3	0xbeae4ee1	-0.34044555
4	0xbed59994	-0.41718733
5	0xbe9081b7	-0.28223965
6	0x3e0c11dc	0.13678688
7	0x3e7909aa	0.24320093
8	0x3dd5cd53	0.10439553
9	0xbe8b360c	-0.27189672
10	0xbe1af850	-0.15133786
11	0x3eab87d0	0.33502054
12	0xbed388a6	-0.41315192
13	0x3ed44e02	0.41465765
14	0xbe98cf39	-0.29845598
15	0x3dc0b390	0.09409249
16	0x3e47dbb1	0.195174
17	0xbd88f661	-0.06687618
18	0x3d3fc57d	0.0468192
19	0x3e859e07	0.26097128
20	0x3ba66fc3	0.005079241
21	0x3e00d92b	0.12582843
22	0xbe255f2e	-0.1614959
23	0xbed9d94a	-0.4254859
24	0xbeadb6c4	-0.33928502
25	0xbe55bbd6	-0.20872435
26	0x3dcef74c	0.10105762
27	0x3e814169	0.25245216
28	0xbf04db63	-0.5189726
29	0xbdff2e45	-0.12459997
30	0xbdde2d8e	-0.108485326
31	0xbe92fc2d	-0.2870802
32	0x3eae4c32	0.34042507
33	0xbe55d7ee	-0.20883152
34	0xbebd379e	-0.36956495
35	0x3e18082b	0.14846866
36	0x3dc1a704	0.09455684
37	0xbee96ad5	-0.4558932
38	0xbe9d0135	-0.30664983
39	0x3e53db33	0.20689087
40	0x3f08e4bb	0.53474015
41	0xbe012196	-0.12610468
42	0xbeeed748	-0.46648622
43	0x3d42bcc4	0.047543302
44	0x3e5ad794	0.21371299
45	0xbeea97e2	-0.45819002
46	0x3e613f70	0.21996856
47	0xbe0059e5	-0.12534292
48	0x3ecfdc5a	0.40597802
49	0x3d2edba3	0.04268993
50	0x3d50828b	0.050905745
51	0xbe484a6b	-0.19559638
52	0xbf198e43	-0.599827
53	0x3d9cb8a3	0.07652404
54	0x3d9cb569	0.07651789
55	0x3e3f2cca	0.1866943
56	0xbf355acc	-0.7084167
57	0x3e8919e0	0.26777554
58	0xbe098c8e	-0.13432524
59	0xbe1b943e	-0.15193269
60	0x3e98ad8e	0.29819912
61	0x3dfa0ce4	0.1220949
62	0x3ef41dbe	0.4767894
63	0xba189c7d	-0.00058216584
64	0xbeb99773	-0.3624836
65	0x3e28b7fe	0.16476437
66	0x3eabcb69	0.33553627
67	0xbeef3425	-0.4671947
68	0xbd641175	-0.05568071
69	0x3e6169b6	0.22012982
70	0xbf24a463	-0.64313334
71	0x3e870ee3	0.26378545
72	0xbedf2df2	-0.4358974
73	0x3e632a1c	0.22184032
74	0x3e2e144a	0.16999927
75	0xbd579faa	-0.052642502
76	0xbeec73ac	-0.46182
77	0xbd520e9b	-0.05128346
78	0x3e7c9a3b	0.24668209
79	0x3e5f5336	0.21809086
80	0xbebd9535	-0.37027898
81	0xbe94ad83	-0.2903863
82	0x3d7696ad	0.06020229
83	0x3e509335	0.20368655
84	0x3d8f8202	0.07007219
85	0x3ec465e3	0.38358983
86	0xbefe0d63	-0.49619588
87	0x3e1c3f7d	0.15258594
88	0xbee77f1c	-0.45214164
89	0x3e8ea339	0.27858904
90	0x3ea0406e	0.31299156
91	0x3eb46514	0.35233366
92	0x3e753e1d	0.23949476
93	0xbdde3704	-0.10850337
94	0xbda199e2	-0.07890679
95	0xbd483778	-0.048881024
96	0xbe73f92a	-0.23825517
97	0xbed716f5	-0.42009702
98	0xbeb4a7fe	-0.35284418
99	0x3ebbf836	0.36712807
100	0x3c2086bf	0.009797751
101	0xbeeffa3b	-0.46870598
102	0x3e0a4240	0.13501835
103	0x3eecaa93	0.46223888
104	0x3ecd0d36	0.40049142
105	0xbe6a9506	-0.2290841
106	0xbe16c78d	-0.1472456
107	0x3db86828	0.09004241
108	0xbf0f12ad	-0.5588787
109	0x3cbed1c8	0.02329339
110	0x3e873e18	0.2641456
111	0x3e8cb77a	0.27483732
112	0x3de87b76	0.11351673
113	0x3e86777c	0.26263034
114	0x3eee154c	0.46500623
115	0xbdd74c85	-0.10512642
116	0xbd28955c	-0.041158065
117	0xbdd55301	-0.10416222
118	0xbe79f7bb	-0.24410908
119	0x3e94761e	0.28996366
120	0x3e7e1832	0.24813917
121	0x3eff3523	0.49845228
122	0xbeaf0157	-0.3418071
123	0xbea7684b	-0.32696757
124	0xbf09acd1	-0.5377932
125	0x3cfcd3c1	0.03086269
126	0xbdea9734	-0.11454621
127	0x3e302fe7	0.17205773
128	0x3d8c1eff	0.068418495
129	0xbeb570ca	-0.35437614
130	0xbe862503	-0.26200113
131	0x3ea37d61	0.31931594
132	0x3e498726	0.19680461
133	0xbe971d7d	-0.29514685
134	0xbe9f6f85	-0.3113977
135	0xbd99b6b2	-0.075055495
136	0xbef0b9f0	-0.4701686
137	0xbe86dc88	-0.26340127
138	0x3e5834f9	0.21113957
139	0x3e607570	0.21919799
140	0xbe9c66d1	-0.30547193
141	0x3d1b8210	0.037965834
142	0x3e92436f	0.28567073
143	0xbea1a8c4	-0.3157407
144	0xbebc566f	-0.36784694
145	0xbdb58026	-0.08862333
146	0x3e18fd93	0.14940481
147	0xbedbad62	-0.42905718
148	0xbe3b1278	-0.18268764
149	0x3e15d7dd	0.14633127
150	0xbb1e333c	-0.0024139425
151	0xbcbfd160	-0.023415267
152	0x3f2d52a2	0.6770421
153	0xbec7ab4d	-0.3899788
154	0x3d7464ae	0.059666328
155	0x3e326355	0.17420705
156	0xbf15f728	-0.58580256
157	0x3e31194c	0.17294806
158	0x3e366485	0.17811783
159	0xbe600af0	-0.21879172
160	0xbe54a4b5	-0.20765956
161	0x3e451f51	0.19250228
162	0x3eabe56e	0.33573478
163	0x3b1074fa	0.002204238
164	0x3edc1526	0.42984885
165	0x3e8e8330	0.27834463
166	0x3e27d704	0.16390616
167	0x3d9dec68	0.077111065
168	0xbe2df1a7	-0.16986714
169	0x3f0b9aaa	0.54532874
170	0x3e8fb303	0.28066263
171	0x3eb8ff5e	0.3613233
172	0xbc82448e	-0.01590183
173	0xbe93292f	-0.28742358
174	0x3d288a2a	0.04114739
175	0xbed4cfc7	-0.41564772
176	0xbe0f07fe	-0.13967893
177	0xbea1220c	-0.31471288
178	0xbe61e754	-0.22060901
179	0xbe8f6408	-0.28006005
180	0x3d898ab4	0.06715909
181	0xbedb5aa1	-0.42842582
182	0x3af808a9	0.0018923479
183	0xbeb7706a	-0.35827953
184	0x3ef7bfc1	0.48388484
185	0x3df66b7a	0.12032218
186	0x3e771d49	0.24132265
187	0xbe4a8cb3	-0.19780235
188	0xbe255e08	-0.16149151
189	0x3e5212e0	0.20515013
190	0x3d0818c0	0.03322673
191	0xbeef54b6	-0.46744317
192	0x3d55d774	0.052207425
193	0x3eb3e530	0.35135794
194	0xbe4f53fb	-0.2024688
195	0x3e803f4f	0.250483
196	0xbead7d55	-0.33884683
197	0xbec10fcb	-0.37707362
198	0xbe60a195	-0.21936639
199	0x3db6f77e	0.08933924
200	0xbc60f16f	-0.013729437
201	0x3ec4402f	0.38330218
202	0xbefacb65	-0.48983303
203	0x3e253eb8	0.16137207
204	0xbe28d2c8	-0.16486657
205	0x3ea41672	0.32048374
206	0xbe6aba53	-0.2292264
207	0x3ea9320e	0.33046
208	0xbea77991	-0.32709935
209	0xbeb8c064	-0.36084282
210	0xbf1c92fd	-0.61161786
211	0x3dff9a44	0.12480596
212	0x3e974172	0.29542118
213	0x3e1a9a47	0.15097915
214	0x3e1d4ad0	0.1536057
215	0xbd3875f9	-0.045034382
216	0x3d76d49b	0.06026135
217	0xbecc38a3	-0.3988696
218	0x3eba4622	0.36381632
219	0x3e071016	0.1318973
220	0xbe7d3cfb	-0.24730293
221	0xbe4aeede	-0.19817683
222	0x3e5aec1b	0.2137913
223	0xbeb26590	-0.3484311
224	0xbe91a507	-0.28446218
225	0xbe26c6fc	-0.16286844
226	0xbeab1c2d	-0.33419934
227	0xbe8273b0	-0.25478888
228	0x3e9cb85d	0.30609408
229	0x3ea15708	0.31511712
230	0x3ea9689e	0.3308763
231	0xbe3b92bf	-0.18317698
232	0xbe75d0fc	-0.24005502
233	0xbe598b6e	-0.21244594
234	0xbebe60e0	-0.37183285
235	0xbea4b13d	-0.32166472
236	0xbf0098d2	-0.50233185
237	0xbe6d1565	-0.23152693
238	0xbbe41a38	-0.0069611333
239	0xbdf32085	-0.11871437
240	0x3eb0fc8e	0.34567684
241	0x3e808a5c	0.2510556
242	0x3e784995	0.2424682
243	0xbe9d3633	-0.30705413
244	0xbea18a8c	-0.31551015
245	0xbda0adb9	-0.07845635
246	0xbe547e2e	-0.20751259
247	0xbe2283ec	-0.15870637
248	0x3dbab11d	0.09115813
249	0x3e22d169	0.15900196
250	0xbf36cf9f	-0.71410555
251	0xbe931422	-0.28726298
252	0x3e993ea0	0.29930592
253	0x3e3cf23c	0.1845178
254	0xbe00f972	-0.12595156
255	0xbecf91b2	-0.40540844

conv2.bias f4 [32]
0	0x3c420533	0.01184206
1	0x3b1d3dcc	0.0023993133
2	0xbdb0989a	-0.086228564
3	0x3e91dc68	0.2848847
4	0x3e310376	0.17286476
5	0x3e0dc5de	0.13845012
6	0xbeb07bb3	-0.34469375
7	0x3e6c3bfd	0.23069759
8	0xbe293975	-0.16525824
9	0x3e13ec40	0.14445591
10	0xbd8183ac	-0.063239425
11	0x3ea0fa10	0.31440783
12	0xbe792240	-0.24329472
13	0xbb10610a	-0.0022030496
14	0x3e42312e	0.18964073
15	0xbd96b4c2	-0.073586956
16	0xbe1c0be5	-0.15238912
17	0xbdcfd263	-0.1014755
18	0x3ef9d1ac	0.4879278
19	0xbea058d0	-0.3131776
20	0xbdb672f8	-0.08908647
21	0x3be1f637	0.006895806
22	0x3d6b810e	0.057496123
23	0xbe1c4646	-0.15261182
24	0xbe0631f4	-0.13104993
25	0x3f203306	0.62577856
26	0xbc64fec7	-0.013976759
27	0x3eaea9c2	0.3411389
28	0xbdb1f383	-0.08689024
29	0x3e074ae4	0.13212162
30	0xbec5dc25	-0.3864452
31	0xbe54f3f2	-0.20796183

bn2.weight f4 [32]
0	0x3f8b3512	1.0875571
1	0x3f541273	0.8284065
2	0x3f85b469	1.0445682
3	0x3f9c454b	1.2208647
4	0x3fabafab	1.3412985
5	0x3f7a8189	0.97853905
6	0x3f6a9962	0.91640294
7	0x3f7e6256	0.993688
8	0x3f91f53f	1.1402968
9	0x3f3bdeeb	0.7338702
10	0x3f743318	0.9539046
11	0x3f3cca72	0.7374641
12	0x3f6fd4e8	0.93684244
13	0x3f913ae9	1.1346103
14	0x3fce84c2	1.6134264
15	0x3fa310a8	1.2739458
16	0x4001d301	2.0285037
17	0x3f8502bd	1.0391461
18	0x4012a12f	2.2910879
19	0x3f9a759f	1.2067145
20	0x3f776548	0.9663892
21	0x3f98ac5c	1.19276
22	0x3f90db20	1.1316872
23	0x3f91576a	1.1354802
24	0x3f8a8a82	1.0823519
25	0x3fb08c17	1.3792752
26	0x3f98a485	1.1925207
27	0x3f9370dc	1.1518817
28	0x3f766bc4	0.9625819
29	0x3f9e9524	1.2389264
30	0x3fee884b	1.8635343
31	0x3fa793c2	1.3091967

bn2.bias f4 [32]
0	0xbef5141e	-0.4786691
1	0xbf4a6371	-0.79057986
2	0xbf29609b	-0.66163033
3	0xbf091bd3	-0.5355808
4	0xbfb657e0	-1.4245567
5	0xbf251c44	-0.64496255
6	0xbf96a52b	-1.1769155
7	0xbeef702b	-0.46765265
8	0xbf3bcc0c	-0.73358226
9	0xbec85a3b	-0.3913134
10	0xbf16cceb	-0.5890643
11	0xbf809e5a	-1.0048325
12	0xbf9b028d	-1.2110153
13	0xbf25883e	-0.64661014
14	0xbf802fb4	-1.0014558
15	0xbf34bbbe	-0.7059897
16	0xbda151aa	-0.07876904
17	0xbeefeca0	-0.46860218
18	0xbccbbc1e	-0.024869975
19	0xbf0d87b9	-0.5528522
20	0xbf1d911d	-0.6154955
21	0xbee7b908	-0.45258355
22	0xbf0e6075	-0.5561593
23	0xbf101bf2	-0.5629264
24	0xbf27db44	-0.6556895
25	0xbf6ae531	-0.9175597
26	0xbf2713ea	-0.6526476
27	0xbe90a4d2	-0.28250748
28	0xbf23e923	-0.64027613
29	0xbe64858b	-0.22316568
30	0xbf25e123	-0.64796656
31	0xbebd89d4	-0.37019217

bn2.running_mean f4 [32]
0	0xbc925bc4	-0.017866023
1	0xbd92aa9e	-0.07161449
2	0xbea982f4	-0.33107722
3	0xbda69f09	-0.08135802
4	0x3d9ead07	0.07747846
5	0xbdb5e6c3	-0.08881905
6	0xbe271ced	-0.16319628
7	0xbafae6ce	-0.0019142271
8	0xbec37626	-0.38176078
9	0x3dd51bc2	0.10405685
10	0xbe4e7408	-0.2016145
11	0x3f11489f	0.56751436
12	0x3d15c851	0.03656799
13	0xbe485466	-0.19563445
14	0xbd4ba2a4	-0.049715653
15	0xbeaf1868	-0.34198308
16	0xbe4f9e12	-0.20275143
17	0xbeb7816d	-0.35840932
18	0x3fa294d1	1.2701665
19	0xbf53b608	-0.8269963
20	0xbe3ed998	-0.18637693
21	0xbe3afbb3	-0.18260078
22	0xbb739f4b	-0.0037173803
23	0xbe8d409f	-0.27588364
24	0xbed81528	-0.4220364
25	0x3eeab678	0.45842338
26	0xbe9ae8bd	-0.3025569
27	0xbecbaf1e	-0.3978204
28	0xbcc236bf	-0.023707746
29	0x3e0a11cf	0.13483356
30	0x3e2d2f38	0.16912544
31	0xbe9e52b6	-0.30922478

bn2.running_var f4 [32]
0	0x3d2b487d	0.041817177
1	0x3dbec3c5	0.09314684
2	0x3e1863d6	0.14881834
3	0x3e89099c	0.26765144
4	0x3da46308	0.08026701
5	0x3dbd86fa	0.0925426
6	0x3e7b0a96	0.24515757
7	0x3e584e07	0.21123515
8	0x3dce9b6d	0.10088239
9	0x3cfb1384	0.030648954
10	0x3e966797	0.29375908
11	0x3e16643e	0.14686677
12	0x3e58c2d0	0.21168065
13	0x3dc8af9c	0.0979912
14	0x3dea7233	0.11447563
15	0x3e4f85d1	0.2026589
16	0x3eb48249	0.3525565
17	0x3e9d0584	0.3066827
18	0x3f1bcc42	0.6085855
19	0x3ee2ece1	0.4432135
20	0x3d0a283c	0.033729777
21	0x3e7340eb	0.23755233
22	0x3c5a1255	0.013310035
23	0x3db96300	0.09052086
24	0x3e4e7706	0.20162591
25	0x3d4f8117	0.05066022
26	0x3ebf0830	0.37310934
27	0x3f13a720	0.5767689
28	0x3e50b182	0.20380214
29	0x3d835544	0.064127475
30	0x3ea03760	0.31292248
31	0x3dc36d23	0.095423006

se.1.weight f4 [8, 32, 1, 1]
0	0x3fce57ce	1.6120546
1	0x3e48b289	0.19599356
2	0x3f89261e	1.0714757
3	0xbe2aa880	-0.1666584
4	0xbf705f8e	-0.93895805
5	0x3f597fa2	0.8496038
6	0xbef6669e	-0.48125166
7	0xbf7a1039	-0.97681004
8	0xbeb940d4	-0.36182272
9	0x3ed18a40	0.4092579
10	0x3fb37a3b	1.4021677
11	0xbd6dab62	-0.05802477
12	0x3f8e6dc1	1.1127244
13	0x3f9d40ba	1.2285378
14	0xbf1ad49c	-0.60480666
15	0xbf5c90e7	-0.86158603
16	0x3d847c66	0.064690396
17	0xbf361b5f	-0.71135515
18	0x3f1e7e73	0.61911696
19	0x3f03df05	0.51512176
20	0x3f737aa8	0.95109034
21	0xbeaee08d	-0.34155694
22	0xbf4a8f9b	-0.79125375
23	0x3fa94a8e	1.3225877
24	0xbf06a172	-0.52590096
25	0x3fa6f6e1	1.3044091
26	0x3f910926	1.1330917
27	0xbe96e2d5	-0.29469934
28	0xbf23674f	-0.6382951
29	0xbf32b97a	-0.69814265
30	0x3f24ec29	0.6442285
31	0xbf852bf3	-1.0404037
32	0x3ef48346	0.47756404
33	0x3f46e919	0.7769943
34	0x3ef2e772	0.47442204
35	0x3ea9a645	0.33134666
36	0xbc84338d	-0.016137863
37	0xbe052afa	-0.13004676
38	0x3f91ae7e	1.1381376
39	0x3d0708b5	0.032967288
40	0x3e4d8e99	0.20073928
41	0x3e98107c	0.29700077
42	0x3f924dfb	1.1430048
43	0x3f7ea25c	0.9946649
44	0x3f774901	0.9659577
45	0x3f39cb13	0.7257549
46	0x3ea2a93f	0.3176975
47	0x3e64b53e	0.22334763
48	0x3f03606a	0.5131899
49	0x3f07a039	0.52978855
50	0x3f8207f5	1.0158678
51	0x3ef592d8	0.47963595
52	0x3ec1d481	0.3785744
53	0x3eda2d61	0.42612746
54	0xbe1ae25e	-0.15125415
55	0x3f4e109e	0.80494106
56	0x3e0b28d2	0.1358979
57	0x3eb0aa61	0.3450499
58	0x3f4e1ecf	0.8051576
59	0x3eeb89aa	0.46003467
60	0x3f0f0f47	0.55882686
61	0x3eb3a372	0.35085636
62	0x3f56afc7	0.83861965
63	0xbeb302be	-0.3496303
64	0xbbdea4f0	-0.0067945644
65	0x3cf002b6	0.029298168
66	0x3d831766	0.06400947
67	0xbdc55f6b	-0.0963734
68	0xbe0d42c7	-0.13795005
69	0xbda73fcd	-0.08166466
70	0x3b3e3fa4	0.0029029632
71	0x3d9d547e	0.07682131
72	0x3d4d2d79	0.050092194
73	0xbba0e2ff	-0.0049098725
74	0xbe2908bc	-0.16507238
75	0xbe269fc3	-0.16271882
76	0xbe3246c8	-0.17409813
77	0x3dfee52c	0.12446055
78	0xbe1c0310	-0.15235543
79	0xbe19b43b	-0.15010159
80	0x3c7df619	0.015500569
81	0xbe1e3341	-0.1544924
82	0x3c846c46	0.01616491
83	0x3cb795d9	0.02241032
84	0xbd4e367f	-0.05034494
85	0x3cc89f90	0.024490148
86	0xbdef95ac	-0.116984695
87	0xbdc91628	-0.09818679
88	0xbdb45595	-0.08805386
89	0x3da8e853	0.08247437
90	0xbe5347cb	-0.20632856
91	0xbe545a7a	-0.20737639
92	0xbdc5e286	-0.096623465
93	0x3d8480ed	0.06469903
94	0xbd7dbb58	-0.061946243
95	0xbcdff452	-0.02733818
96	0xbc890fb9	-0.01673113
97	0xbda7e608	-0.08198172
98	0xbdbbcda2	-0.09170081
99	0x3dc04dcb	0.09389838
100	0xbdfbda61	-0.12297512
101	0xbda1b514	-0.07895866
102	0xbe2b1dc4	-0.16710573
103	0xbc17f785	-0.009275322
104	0xbd9bdb26	-0.076101586
105	0x3d19015e	0.03735482
106	0xbdf8cd28	-0.121485054
107	0xbe100235	-0.14063342
108	0xbe086c59	-0.13322581
109	0x3d7c84d9	0.06165013
110	0x3e04df10	0.12975717
111	0xbd81903a	-0.06326337
112	0x3e16f804	0.14743048
113	0xbe49e759	-0.19717158
114	0xb9c2785e	-0.00037092244
115	0xbd6bd75c	-0.05757843
116	0xbd99bfba	-0.07507272
117	0xbe271695	-0.16317208
118	0xbd85c2c8	-0.06531292
119	0x3e14ceda	0.14532033
120	0xbd732336	-0.05935975
121	0x3de02ac4	0.10945657
122	0xbe024136	-0.12720188
123	0x3dc952d5	0.09830252
124	0xbe20ecef	-0.15715383
125	0xbd88c352	-0.066778794
126	0xbe45cf8f	-0.19317459
127	0xbe390e62	-0.18071893
128	0xbe13d195	-0.14435418
129	0xbddcdf22	-0.10784747
130	0xbe20cb2c	-0.15702504
131	0xbe12b43f	-0.14326571
132	0xbe26a88f	-0.16275238
133	0x3d3c473f	0.045966383
134	0xbd0c9937	-0.034325805
135	0xbdf4756b	-0.11936458
136	0xbe7d9bdb	-0.24766485
137	0x3d671765	0.056418795
138	0xbea47c28	-0.32125974
139	0xbe7e495d	-0.24832673
140	0xbe126b87	-0.14298831
141	0xbdfee82d	-0.12446628
142	0x3dc0fa6f	0.094227664
143	0xbe547b3a	-0.20750132
144	0xbc34c69f	-0.011033683
145	0xbe8655a5	-0.26237217
146	0xbe252867	-0.16128694
147	0xbe1c111e	-0.15240905
148	0xbe837b5e	-0.2568006
149	0xbdf159e4	-0.117847234
150	0xbde06978	-0.109576166
151	0xbe345dd6	-0.1761392
152	0xbdcf4340	-0.10120249
153	0x3d6fa428	0.05850616
154	0xbe8adb18	-0.2712028
155	0x3da0511f	0.078279726
156	0xbe1434d9	-0.14473285
157	0xbe05f5d3	-0.13082056
158	0xbd0fecd5	-0.03513797
159	0xbe348ec9	-0.17632593
160	0xbd7f3d5a	-0.06231437
161	0xbcc5dfb8	-0.024154529
162	0xbdba05b5	-0.0908312
163	0xbcfa67f8	-0.030567154
164	0x3d2d1c70	0.04226345
165	0x3e1425a3	0.14467482
166	0xbe218d6d	-0.15776606
167	0xbd9b37f7	-0.07579034
168	0x3e16b2d9	0.14716662
169	0xbe050a73	-0.12992267
170	0x3e2f39fd	0.17111965
171	0xbe15c326	-0.14625224
172	0xbd1bf888	-0.038078815
173	0xbde4365b	-0.1114318
174	0xbe1700fc	-0.1474647
175	0xbd33d764	-0.043906584
176	0xbe16b467	-0.14717256
177	0x3e03c0b5	0.1286648
178	0x3d935538	0.071939886
179	0x3de50aa6	0.11183672
180	0xbc9f2170	-0.019425124
181	0x3d4283f0	0.047489107
182	0xbe28593b	-0.16440289
183	0xbd569418	-0.052387327
184	0x3dee00f2	0.11621274
185	0xbe303d58	-0.17210901
186	0xbe0b2f7e	-0.13592336
187	0x3e0f02fb	0.1396598
188	0x3dc6f6ee	0.09715067
189	0x3c481710	0.01221253
190	0xbd84061a	-0.06446476
191	0xbe29d229	-0.16584076
192	0x3d2e49c2	0.04255081
193	0x3e0a2356	0.13490042
194	0xbe0ab468	-0.13545382
195	0x3e008c53	0.1255353
196	0xbe2e1937	-0.17001806
197	0x3e2601d8	0.16211641
198	0x3d9c615f	0.076357596
199	0xbe24f685	-0.16109665
200	0x3d8a83eb	0.067634426
201	0x3c99bb1b	0.018765977
202	0xbe394c1f	-0.18095444
203	0x3cc092ef	0.023507563
204	0xbd5aa829	-0.053383026
205	0xbdd8a0a1	-0.105775125
206	0xbb7366f9	-0.0037140234
207	0xbc9ef8e8	-0.019405797
208	0xbe359532	-0.17732695
209	0xbd1ab54f	-0.037770566
210	0xbcd4a7ab	-0.025958857
211	0xbd7ddb3d	-0.06197666
212	0xbe20e408	-0.15711987
213	0x3da0ec6c	0.07857594
214	0x3d9d17a2	0.07670523
215	0x3e03b3e9	0.12861599
216	0x3d923141	0.07138301
217	0x3d5178c1	0.05114055
218	0xbcd8370c	-0.026393436
219	0xbd4ef19b	-0.05052338
220	0xbc6b9f7b	-0.014381285
221	0xbdd8fd05	-0.10595135
222	0xbd0a7543	-0.033803236
223	0x3c3e8406	0.0116281565
224	0x3e940208	0.289078
225	0x3f9e5dd5	1.2372385
226	0x3f16c97d	0.58901197
227	0x3f2a8e97	0.66623825
228	0xbf22d088	-0.63599443
229	0x3f43edea	0.76534903
230	0x3e91d79b	0.28484806
231	0x3f4e9f91	0.8071223
232	0x3e4a52bc	0.19758123
233	0x3f76eea8	0.9645791
234	0x3edf78e7	0.4364693
235	0xbe084713	-0.13308363
236	0x3f9991c9	1.1997615
237	0x3f3fefd6	0.74975336
238	0x3ccfb92f	0.025356857
239	0x3eb84513	0.359902
240	0x3f37d7ff	0.7181396
241	0x3f4da831	0.80334765
242	0x3f2bf8b3	0.6717636
243	0x3f0e8b14	0.55680966
244	0x3f38d59f	0.7220096
245	0x3f81b7ac	1.0134177
246	0xbe85620e	-0.26051372
247	0x3f413129	0.7546564
248	0x3ecd5de0	0.40110683
249	0x3e4cf28c	0.200144
250	0x3e8302a8	0.25587964
251	0x3b899957	0.0041991877
252	0x3e79a51c	0.2437939
253	0x3f0530f6	0.52027833
254	0x3f2646a5	0.64951545
255	0x3eab20fd	0.33423606

se.1.bias f4 [8]
0	0x3eb3cf76	0.35119218
1	0x3e85bb01	0.26119235
2	0xbd94f1d1	-0.07272685
3	0xbe2aa784	-0.16665465
4	0x3d9707c5	0.07374529
5	0xbe23c7b0	-0.15994143
6	0xbdae346f	-0.08506095
7	0x3ec68b74	0.3877827

se.3.weight f4 [32, 8, 1, 1]
0	0x3ee70999	0.4512451
1	0x3f6d375b	0.9266259
2	0x3ea773a1	0.32705405
3	0xbe570e8f	-0.21001647
4	0x3e059d98	0.13048398
5	0xbe22b286	-0.15888414
6	0x3d935a77	0.07194989
7	0x3f65608b	0.8960044
8	0x3f1a79fd	0.6034239
9	0x3f4cb511	0.79963785
10	0x3d32fa40	0.04369569
11	0x3d90d8d3	0.07072606
12	0x3d7b4f1b	0.061354738
13	0xbda66048	-0.08123833
14	0xbe84c063	-0.2592803
15	0x3f2bbf4a	0.6708876
16	0x3e3bf11e	0.18353698
17	0x3d55c5f1	0.052190725
18	0xbe5cd489	-0.2156545
19	0x3e3dfb53	0.18552904
20	0x3e620ad9	0.2207445
21	0xbdc85120	-0.09781098
22	0xbe2270bb	-0.15863316
23	0x3eda8aec	0.42684114
24	0x3e9046d8	0.2817905
25	0x3f15339b	0.5828187
26	0x3c814900	0.01578188
27	0x3dcf95f2	0.10136022
28	0xbe872cdf	-0.2640142
29	0xbea6c69f	-0.3257341
30	0xbe6b1f55	-0.22961171
31	0x3ea96dbc	0.33091533
32	0x3f3cfb17	0.7382063
33	0x3deef7c4	0.11668351
34	0xbd7a7b30	-0.061152637
35	0xbe1fb1bb	-0.15595143
36	0x3e271e7b	0.16320221
37	0x3a798200	0.00095179677
38	0x3e228080	0.15869331
39	0x3e5cddea	0.21569028
40	0x3f27fa8d	0.65616685
41	0x3f601db9	0.87545353
42	0xbe8f087e	-0.27936167
43	0xbea591af	-0.3233771
44	0x3e65d0be	0.2244291
45	0xbe80598e	-0.25068325
46	0xbeab68d9	-0.3347843
47	0x3ee82b50	0.45345545
48	0x3de12c6b	0.109948
49	0x3e700442	0.23439124
50	0xbd0350ed	-0.0320596
51	0xbd930076	-0.07177822
52	0xbd086bf6	-0.033306085
53	0xbcb16170	-0.021652907
54	0x3e01b937	0.1266831
55	0x3e57a1f2	0.21057871
56	0x3e6fc40d	0.23414631
57	0x3f61d201	0.88211066
58	0x3e7eb0b2	0.24872091
59	0x3e9923a8	0.29910016
60	0xbd258d20	-0.04041779
61	0xbc9281f0	-0.017884225
62	0xbe1cda4b	-0.15317647
63	0x3f5cad5b	0.8620202
64	0x3ef84c74	0.4849583
65	0x3f58653d	0.8452948
66	0xbc227d80	-0.009917617
67	0x3d681c6d	0.056667734
68	0x3e867ff7	0.26269504
69	0xbe91203b	-0.28344902
70	0xbdb1195b	-0.08647414
71	0x3f420648	0.75790834
72	0x3f2ae73f	0.66759104
73	0x3f871f23	1.0556377
74	0x3d383298	0.044970125
75	0x3df714b6	0.12064497
76	0xbe4ea52a	-0.20180193
77	0x3e8013b5	0.25015035
78	0x3e969d80	0.29417038
79	0x3f1201ab	0.57033795
80	0x3ee85ba3	0.45382413
81	0x3f594890	0.84876347
82	0xbe60fd15	-0.21971543
83	0xbe080f52	-0.13287094
84	0x3e8a3216	0.26991338
85	0xbe99405a	-0.2993191
86	0x3e97704f	0.29577872
87	0x3f10f142	0.5661813
88	0x3f51229a	0.8169342
89	0x3f8054e1	1.0025903
90	0x3d9f2b90	0.07771981
91	0x3e22d404	0.1590119
92	0x3d148ee3	0.03626908
93	0x3e3f512a	0.18683305
94	0xbd9be3b9	-0.07611794
95	0x3f73d60e	0.95248497
96	0x3f3f0970	0.74623775
97	0x3f494db5	0.78634197
98	0xbe2acbd3	-0.16679315
99	0xbe85597e	-0.2604484
100	0x3d884a60	0.06654811
101	0x3e604916	0.2190288
102	0x3eb1786c	0.34662187
103	0x3f32228b	0.6958396
104	0x3d476dfc	0.048688874
105	0xbd153a0e	-0.03643232
106	0xbe734873	-0.23758106
107	0xbe43b513	-0.19112043
108	0x3e457a5f	0.19284962
109	0xbe31cad1	-0.17362525
110	0x3d044748	0.03229454
111	0x3f32600f	0.69677824
112	0x3ec137ad	0.3773779
113	0x3eb468e1	0.35236266
114	0x3e9f3d17	0.31101295
115	0x3ddc330e	0.107519254
116	0x3dba2f4f	0.09091055
117	0x3e4d0bfa	0.200241
118	0x3d943559	0.07236738
119	0x3f28ea48	0.65982485
120	0x3e9ba349	0.30398014
121	0x3f665b23	0.89982814
122	0x3d90bf24	0.07067707
123	0xbe96eed1	-0.29479077
124	0xbe238b29	-0.15971054
125	0xbdae46e8	-0.08509618
126	0xbd3d8e30	-0.04627818
127	0x3f655606	0.89584386
128	0xbf203e32	-0.625949
129	0xbe8bc37b	-0.27297577
130	0xbea8e295	-0.32985368
131	0x3db69bd1	0.08916438
132	0x3eafd741	0.34343913
133	0x3e401eda	0.18761769
134	0x3dca9193	0.09891047
135	0xbe95023f	-0.29103276
136	0x3f08967a	0.5335461
137	0x3e1c78f1	0.1528051
138	0x3e981559	0.29703787
139	0x3d41b6a6	0.047293328
140	0x3ec7feb1	0.39061502
141	0x3eb0780d	0.3446659
142	0x3cb3733c	0.021905534
143	0x3f07efac	0.53100085
144	0xbdf70e84	-0.120633155
145	0xbe85eba7	-0.2615635
146	0x3dc03caf	0.093865745
147	0x3eb0e9f2	0.34553486
148	0xbdeeb8ca	-0.116563395
149	0xbd252f18	-0.040328115
150	0x3e184c5a	0.14872876
151	0xbf08b194	-0.5339596
152	0x3ef02874	0.46905863
153	0x3f143601	0.57894903
154	0x3ea168c1	0.31525233
155	0xbe0386d6	-0.12844405
156	0x3d8c689b	0.068558894
157	0xbe3b8a32	-0.18314436
158	0x3e85b89e	0.26117414
159	0x3eca26c6	0.39482707
160	0x3f4053ab	0.7512767
161	0x3f7e0085	0.9921954
162	0xbd8e9914	-0.06962791
163	0xbc892d28	-0.016745165
164	0x3eca15ee	0.39469856
165	0xbe915e3d	-0.2839221
166	0x39816d06	0.00024686026
167	0x3f4a9e25	0.7914756
168	0x3f445a33	0.76700133
169	0x3deb6c7a	0.114953
170	0xbd5848d0	-0.052803814
171	0xbe760b0c	-0.24027652
172	0x3e07971e	0.1324124
173	0x3ea582ed	0.3232645
174	0xbc286852	-0.010278778
175	0x3f0f3098	0.55933523
176	0x3e2ba7da	0.16763249
177	0xbdece21d	-0.11566565
178	0xbd82746f	-0.06369864
179	0x3e39ac12	0.18132046
180	0x3e3b12ca	0.18268886
181	0xbead843d	-0.33889952
182	0x3e9249c2	0.28571898
183	0xbd8f8c7e	-0.07009219
184	0x3eca5d7a	0.39524442
185	0xbda8e33b	-0.08246466
186	0xbd119794	-0.035544947
187	0xbea55e08	-0.32298303
188	0x3e0e4b3c	0.13895887
189	0xbe5a1e9f	-0.21300744
190	0xbe50a39b	-0.2037491
191	0x3e04cb54	0.12968189
192	0x3f3366fd	0.7007902
193	0x3f1a8e09	0.6037298
194	0xbdcc4ea8	-0.0997594
195	0xbd9d0f9b	-0.07668992
196	0x3e15327b	0.14570038
197	0x3ea09fdd	0.31371966
198	0xbddae3a4	-0.1068795
199	0x3ee7f255	0.45302072
200	0xbe302124	-0.17200142
201	0x3f23c922	0.6397878
202	0x3e93b8fd	0.28852072
203	0xbe7db434	-0.24775773
204	0x3f10c40e	0.56549156
205	0xbe16afab	-0.1471545
206	0x3e5c8764	0.21536022
207	0x3e6e9e43	0.2330256
208	0x3e1cc6b2	0.15310171
209	0x3f116033	0.56787413
210	0xbd256848	-0.040382653
211	0xbe10de29	-0.14147247
212	0xbe058929	-0.13040604
213	0xbe563a73	-0.20920734
214	0xbe63709b	-0.22210924
215	0x3f1994fb	0.5999295
216	0x3eb3ec4a	0.35141212
217	0x3f28b544	0.6590159
218	0x3e8f3859	0.27972677
219	0xbe30eb31	-0.17277218
220	0xbea02bde	-0.31283468
221	0x3e33cefa	0.17559424
222	0x3e052618	0.13002813
223	0x3ed4f416	0.41592473
224	0x3e9da391	0.30788854
225	0xbea85fad	-0.32885495
226	0xbe2012c2	-0.15632156
227	0xbeb64655	-0.35600534
228	0xbe11173b	-0.14169018
229	0x3ea82991	0.32844213
230	0xbe8cfbb1	-0.27535775
231	0x3e5e36e4	0.21700627
232	0x3f86ebcc	1.054071
233	0xbe2e5304	-0.17023855
234	0xbd634e81	-0.05549479
235	0xbe73c2da	-0.23804799
236	0x3da077d9	0.07835359
237	0x3e987cb9	0.29782656
238	0x3e5c6a01	0.21524812
239	0xbeeb667a	-0.4597662
240	0xbe9f7cd2	-0.31149918
241	0xbef51ede	-0.47875112
242	0x3e8d9146	0.27649897
243	0xbe4b48b1	-0.19851948
244	0xbdf0fb9f	-0.11766743
245	0x3e9d87b9	0.3076761
246	0xbe8e2693	-0.27763805
247	0x3dc674fc	0.09690282
248	0x3f657760	0.89635277
249	0xbd5f65a2	-0.054540284
250	0x3eada838	0.33917403
251	0x3e965c8b	0.2936748
252	0x3e84a5d3	0.25907764
253	0x3d4e09c8	0.050302297
254	0xbeb765ec	-0.35819948
255	0xbe03347a	-0.12812987

se.3.bias f4 [32]
0	0x3ea7ee0b	0.327988
1	0x3f1c39d9	0.6102577
2	0x3ee5da0b	0.44892916
3	0x3eee6926	0.46564597
4	0x3e724ee4	0.23662907
5	0x3f733d2b	0.9501521
6	0x3e627b40	0.22117329
7	0x3f249e5e	0.6430415
8	0x3f55b298	0.8347564
9	0x3f12b42a	0.5730616
10	0x3f02f2fe	0.51152027
11	0x3eaa2a94	0.3323561
12	0x3f4a692c	0.7906673
13	0x3ea36363	0.31911764
14	0x3d9a3d18	0.07531184
15	0x3f6943f0	0.9111929
16	0x3cc3ecfa	0.02391671
17	0xbdf38f59	-0.11892576
18	0x3ecda639	0.4016588
19	0xbcf1522b	-0.029458126
20	0x3f1bfc84	0.60932183
21	0x3f2aa025	0.6665061
22	0x3ec0380a	0.37542754
23	0x3e639c67	0.22227632
24	0x3f36d0c6	0.71412313
25	0x3dec902e	0.115509376
26	0x3f1dc206	0.6162418
27	0x3e00aa43	0.1256495
28	0xbe0be275	-0.13660605
29	0xbede8036	-0.43457192
30	0x3de8908e	0.113556966
31	0xbdc4aac5	-0.09602884

fc.0.weight f4 [64, 1152]
0	0xba95b732	-0.0011422394
1	0xbc3db380	-0.011578441
2	0xbe108f51	-0.14117171
3	0xbd701b4a	-0.058619775
4	0x3d3c704f	0.046005543
5	0xbce4f6ca	-0.02794971
6	0xbcd753a5	-0.026285002
7	0x3d1941e2	0.037416346
8	0x3e5ddea3	0.2166696
9	0xbda0cdf0	-0.078517795
10	0xbdd87ce9	-0.105707
11	0xbe78d0fe	-0.24298474
12	0xbe5aeb83	-0.21378903
13	0x3e2f3e84	0.17113692
14	0xbdbf237c	-0.0933294
15	0x3cfbd00c	0.030738853
16	0xbe07036e	-0.13184902
17	0xbde38c0f	-0.111106984
18	0xbc88c21d	-0.016694123
19	0x3cd2fa3b	0.025754085
20	0xbcb577fa	-0.022151936
21	0xbdf09e36	-0.11748926
22	0xbe10ad9c	-0.14128727
23	0x3e3d1f99	0.18469085
24	0xbe45c0a9	-0.19311775
25	0xbe06e7e3	-0.13174395
26	0x3e3173f8	0.17329395
27	0xbec7f8fa	-0.39057142
28	0xbe41e4e8	-0.18934977
29	0x3dd7bdf9	0.10534281
30	0x3e501fed	0.20324679
31	0x3e0f4cb2	0.139941
32	0x3cd74d73	0.026282048
33	0xbe1f5096	-0.15558085
34	0xbeb4d560	-0.35319042
35	0x3dcbbbfe	0.09947966
36	0xbde8506e	-0.11343466
37	0xbe2c6bca	-0.16837993
38	0xbd0b911d	-0.034073938
39	0xbe931464	-0.28726494
40	0xbe4a2dc4	-0.1974402
41	0xbe25b1de	-0.16181132
42	0x3df177f3	0.117904566
43	0x3db0aabe	0.086263165
44	0xbe498a3f	-0.19681643
45	0xbd88c45f	-0.0667808
46	0xbee9d011	-0.45666555
47	0x3d8fbf82	0.07018949
48	0x3e127d1a	0.14305535
49	0xbd48ceba	-0.049025275
50	0xbe5af979	-0.21384229
51	0xbe90f3d1	-0.28311017
52	0xbeb6ab0c	-0.35677373
53	0x3ea42421	0.32058814
54	0x3e685cfe	0.22691724
55	0x3e0d404d	0.1379406
56	0xbe012294	-0.12610847
57	0xbe0990a0	-0.13434076
58	0xbd91cc9a	-0.07119103
59	0x3ea0f6a8	0.31438184
60	0x3e78b752	0.24288681
61	0x3e512190	0.2042296
62	0xbcc87147	-0.024468077
63	0x3df2ac71	0.11849297
64	0x3d8906b7	0.06690734
65	0x3e77e5af	0.24208711
66	0x3d212c13	0.039348673
67	0xbe8413af	-0.25796267
68	0xbe9d3bdd	-0.30709735
69	0x3ec583cb	0.38577113
70	0x3c3d9397	0.011570833
71	0xbe16806b	-0.14697425
72	0xbd3b9ca5	-0.045803685
73	0x3ec3677b	0.38164887
74	0x3eba0975	0.3633534
75	0x3d81036d	0.062994815
76	0x3e7807ce	0.24221727
77	0x3ea539a5	0.32270542
78	0x3c5186af	0.012788459
79	0x3db402a7	0.087895684
80	0x3d932c23	0.07186153
81	0xbe471964	-0.1944328
82	0x3e82fb05	0.25582138
83	0x3edfb865	0.4369537
84	0xbeb05056	-0.3443629
85	0xbeacddd3	-0.33762988
86	0xbe9ec74b	-0.31011423
87	0xbe8945f5	-0.26811185
88	0x3ee926b8	0.45537353
89	0x3ebe0e8a	0.37120467
90	0x3dbaf6a7	0.091290765
91	0xbe10a985	-0.14127167
92	0xbe02be9f	-0.12768029
93	0x3e2bcf61	0.16778328
94	0x3c446a78	0.011988275
95	0x3e93868d	0.28813592
96	0xbeb9357e	-0.36173624
97	0xbea49fd5	-0.32153192
98	0x3e8b5d0f	0.27219436
99	0x3c335a83	0.010946873
100	0xbe9c31d2	-0.3050676
101	0x3e2d026d	0.16895457
102	0xbea6af57	-0.3255565
103	0xbe46e563	-0.19423442
104	0x3e5bb1b1	0.21454503
105	0x3dfad96f	0.122485034
106	0xbe15d98b	-0.14633767
107	0x3d391d86	0.04519417
108	0xbb783679	-0.0037874265
109	0xbd2e36e6	-0.042532824
110	0x3dcd7b8d	0.10033331
111	0xbda9c0ad	-0.08288703
112	0xbd7b0db1	-0.061292354
113	0x3d8b6675	0.068066515
114	0x3d335de5	0.043790717
115	0x3d73a958	0.05948767
116	0xbda4b986	-0.08043198
117	0xbd947100	-0.072481155
118	0x3e3ccc3e	0.18437287
119	0x3f0b1f31	0.5434447
120	0x3d02fe5d	0.03198086
121	0xbe13cd69	-0.14433827
122	0xbed1c2c0	-0.40968895
123	0x3cf4b6e2	0.029872362
124	0x3e93cd83	0.2886773
125	0x3df2d11c	0.11856291
126	0x3c53db51	0.012930707
127	0x3e446998	0.19180906
128	0xbe313bae	-0.17307922
129	0x3e3ab942	0.18234733
130	0x3dfffd23	0.12499454
131	0x3e6d7e8e	0.23192808
132	0xbd983951	-0.07432807
133	0xbda449c2	-0.08021881
134	0x3dd2c92b	0.10292276
135	0x3f15a55d	0.5845545
136	0x3e14b5ee	0.14522526
137	0xbe3121b6	-0.17298016
138	0xbdb4240f	-0.0879594
139	0xbeb3a9a7	-0.35090372
140	0x3e97fcd1	0.2968507
141	0x3f237b3b	0.6385991
142	0x3e77d9cf	0.24204181
143	0xbdc164a9	-0.094430275
144	0x3c28d5e9	0.010304906
145	0xbe306424	-0.172257
146	0x3e61f098	0.22064435
147	0x3e929472	0.2862888
148	0xbe06962f	-0.13143228
149	0xbe8f8ab0	-0.28035498
150	0xbdc9e077	-0.098572664
151	0x3e9ebdbb	0.31004128
152	0x3dbc13d1	0.09183467
153	0x3e1819e6	0.1485363
154	0x3eea339d	0.45742503
155	0x3c1ffa1b	0.00976422
156	0x3e4ff548	0.20308411
157	0x3ecf3a97	0.40474388
158	0xbe57a52a	-0.21059099
159	0xbe09813d	-0.13428207
160	0x3e6e8002	0.23291019
161	0xbdd6c52c	-0.10486826
162	0x3e26449c	0.1623711
163	0x3f20f0db	0.62867516
164	0xbc776917	-0.015100739
165	0x3d4ac341	0.049502615
166	0x3c7dd660	0.0154930055
167	0xbe7b9dce	-0.24571916
168	0xbe52e860	-0.20596457
169	0xbbc2d3d4	-0.005945662
170	0xbec40e68	-0.3829224
171	0xbeda715d	-0.42664614
172	0x3e89ec54	0.26938117
173	0x3e26066b	0.16213386
174	0x3e202e2f	0.15642618
175	0xbdad7027	-0.08468657
176	0xbe5dd62f	-0.21663736
177	0xbf107080	-0.5642166
178	0x3ed6434f	0.41848227
179	0x3f2af13d	0.6677435
180	0xbed7bd77	-0.42136738
181	0xbe694f98	-0.22784269
182	0x3ef786ac	0.48344934
183	0xbe88d63e	-0.26725954
184	0xbcb0f88f	-0.021602897
185	0xbd711b57	-0.058863964
186	0xbd154408	-0.036441833
187	0x3d477610	0.048696578
188	0x3e358cb0	0.1772945
189	0xbe2b1145	-0.16705807
190	0xbe6d7a5a	-0.23191205
191	0x3dbd986a	0.09257586
192	0x3e1881df	0.14893292
193	0x3e22ffe0	0.15917921
194	0xbe4d53f5	-0.20051558
195	0xbea24a5d	-0.3169736
196	0xbe7ad6b6	-0.24495968
197	0xbe7e93a5	-0.2486101
198	0x3e54ebc1	0.20793058
199	0x3dbd248a	0.09235485
200	0x3eb4e3c7	0.3533003
201	0x3dc36dc3	0.0954242
202	0xbf0310b7	-0.5119738
203	0xbdc5b14e	-0.09652959
204	0x3eaac18e	0.33350796
205	0xbecec4eb	-0.4038461
206	0x3dc87f8d	0.097899534
207	0xbe54f5be	-0.20796868
208	0xbeb35b7f	-0.35030743
209	0x3dc2c102	0.095094696
210	0x3de3a340	0.11115122
211	0xbe453222	-0.19257405
212	0x3ea74bab	0.32674918
213	0x3d1401b4	0.036134437
214	0xbd81a95e	-0.06331132
215	0xbe0f3694	-0.13985664
216	0x3e7171c5	0.23578556
217	0xbc361f4b	-0.011115859
218	0xbe2ece5d	-0.17070909
219	0x3e956d67	0.2918503
220	0x3e46d4b1	0.19417073
221	0xbdfb9fbf	-0.122863285
222	0xbc6aee25	-0.014339005
223	0xbce8d9de	-0.0284242
224	0xbe049883	-0.12948804
225	0x3df45eb2	0.11932124
226	0x3dfe4b72	0.12416734
227	0x3e2d8b46	0.1694766
228	0x3d2130a8	0.039353043
229	0xbbb3aa13	-0.005482921
230	0xbe004c67	-0.12529145
231	0x3d92a5f3	0.071605586
232	0x3e2dad40	0.16960621
233	0x3e9fe0d3	0.31226215
234	0xbf088fc1	-0.5334435
235	0xbdff46a0	-0.124646425
236	0xbe5a1ec7	-0.21300803
237	0xbe664de3	-0.22490649
238	0xbc0fe434	-0.008782435
239	0x3e6bc346	0.2302371
240	0xbeda3471	-0.42618135
241	0x3c1928e3	0.009348127
242	0x3c8dff0e	0.017333534
243	0xbeab41f5	-0.3344876
244	0x3ca7a5e5	0.020464847
245	0x3d810b57	0.06300991
246	0x3dfe88e6	0.12428455
247	0x3e3b03ea	0.18263212
248	0xbeda0e97	-0.42589256
249	0xbe89b8ad	-0.2689871
250	0xbd7074c3	-0.058705103
251	0xbe2ef4b7	-0.17085539
252	0xbef923f9	-0.48660257
253	0xbf2f630a	-0.68510497
254	0xbef333fb	-0.47500595
255	0xbe815312	-0.2525869

fc.0.bias f4 [64]
0	0x3d1b3a7a	0.037897564
1	0xbbdfaad1	-0.006825783
2	0x3df2c9a6	0.11854868
3	0x3dc08666	0.094006345
4	0xbc9c7165	-0.01909704
5	0xbcd8b006	-0.026451122
6	0xbc98638d	-0.018602157
7	0xbcbee230	-0.023301214
8	0x3ac899f1	0.0015304667
9	0xbda6573d	-0.08122108
10	0xbbe941c3	-0.007118435
11	0xbc5fe7ae	-0.013666077
12	0x3b076c7d	0.002066403
13	0x3ced209f	0.028946219
14	0x3bc89ec0	0.00612244
15	0xbce8316b	-0.028343877
16	0x3d82679e	0.0636742
17	0xbc4e51d9	-0.012592756
18	0x3d3767eb	0.04477684
19	0x3d414344	0.04718329
20	0xbb8caa36	-0.0042927517
21	0xb98d283a	-0.00026923587
22	0x3dc8ded0	0.09808123
23	0xbe006af4	-0.125408
24	0x3cafb33a	0.021447767
25	0x394ff0cb	0.0001983076
26	0xbc1d1b29	-0.009588995
27	0x3dcb5ca7	0.099297814
28	0x3e3bac1d	0.18327375
29	0xbc9f30df	-0.019432483
30	0xbc1c60bd	-0.009544549
31	0x3dac3a45	0.084095515
32	0xbc099ace	-0.008398725
33	0x3c102a6a	0.008799175
34	0xbcf299a5	-0.029614279
35	0xbe5f391c	-0.21799129
36	0x3ca31f32	0.019912336
37	0xbd2f4a12	-0.04279525
38	0x3d14bbe6	0.036312006
39	0xbd8d9005	-0.06912235
40	0xbd0274a0	-0.031849504
41	0x3bf5cbfc	0.0075011235
42	0xbd346fc9	-0.04405192
43	0xbde62b16	-0.11238687
44	0x3e3223ca	0.17396465
45	0xbd0efe6d	-0.034910608
46	0x3c2ec0fa	0.010666126
47	0x3c47ed27	0.012202538
48	0xbd21978a	-0.03945116
49	0xbdf31544	-0.118692905
50	0x3dba9fc6	0.091125056
51	0xbd014629	-0.03156105
52	0xbc71c995	-0.014757534
53	0x3bd97da8	0.006637294
54	0xbd17be4d	-0.03704672
55	0x3d92ae33	0.07162132
56	0xbdd004c9	-0.10157163
57	0xbd6ba151	-0.05752689
58	0xbcb978cc	-0.022640608
59	0xbd15f754	-0.036612824
60	0xbd6dcd64	-0.058057204
61	0x3e04a02e	0.12951729
62	0x3c5e484f	0.013567044
63	0xbceb9d0a	-0.028761405

fc.3.weight f4 [27, 64]
0	0xbe8f06a2	-0.27934748
1	0xbd6f3c82	-0.058407314
2	0xbf3b77f2	-0.732299
3	0xbee8bf67	-0.45458528
4	0x3d94664d	0.07246075
5	0xbdb6416d	-0.08899198
6	0x3cc0bb05	0.023526678
7	0xbd42c481	-0.047550682
8	0xbaa1ee7f	-0.0012354403
9	0xbede51a9	-0.43421677
10	0xbd45adfa	-0.04826162
11	0xbdbca5b1	-0.09211291
12	0x3dcd20c5	0.10016016
13	0xbee14cd8	-0.4400394
14	0xbd127a06	-0.035760902
15	0x3c83a61a	0.016070414
16	0xbeed6643	-0.46367082
17	0x3dc39cbf	0.09551381
18	0xbe6d6928	-0.23184645
19	0xbf1b44af	-0.6065168
20	0xbd032a79	-0.032022927
21	0xbdca0ac4	-0.09865335
22	0xbf1e1359	-0.6174827
23	0xbecec98f	-0.40388152
24	0xbc82117d	-0.01587748
25	0xbe6a3dcf	-0.2287514
26	0xbdd43c69	-0.10363085
27	0xbef17634	-0.47160494
28	0xbed9711d	-0.4246911
29	0x3de2e6fc	0.11079213
30	0xbd26debf	-0.04073977
31	0xbf281ab7	-0.65665764
32	0x3c91df46	0.01780666
33	0xbdebac0e	-0.11507426
34	0xbd9c5f81	-0.076354034
35	0xbf7455fb	-0.95443696
36	0xbef63d8d	-0.48093835
37	0xbed7f43e	-0.4217853
38	0xbea6932e	-0.32534164
39	0xbedb2cfd	-0.4280776
40	0xbeb26467	-0.34842226
41	0x3d206200	0.03915596
42	0xbf18e9c0	-0.59731674
43	0xbf052353	-0.52007025
44	0xbdd692e3	-0.10477235
45	0xbd8db647	-0.06919532
46	0xbd5e786a	-0.054314055
47	0xbe918e4e	-0.28428882
48	0xbec8c0b1	-0.39209512
49	0xbed060be	-0.40698808
50	0xbebec2f3	-0.3725811
51	0xbed12902	-0.408516
52	0xbe0aa540	-0.135396
53	0x3d49a8af	0.049233135
54	0xbebffbba	-0.3749674
55	0xbf155253	-0.5832874
56	0xbf16635c	-0.5874536
57	0xbe97232d	-0.29519024
58	0xbecbeac6	-0.39827555
59	0x3d1c4ba5	0.038158078
60	0xbe98cf82	-0.29845816
61	0xbecefcb5	-0.40427175
62	0x3d9a8ed8	0.075467765
63	0xbed989fe	-0.42488092
64	0xbe398aa0	-0.18119287
65	0x3d9d27dc	0.07673618
66	0xbe9e92bd	-0.30971327
67	0x3dbac582	0.09119703
68	0xbba67aa1	-0.0050805365
69	0xbdd00266	-0.101567075
70	0x3b3548c6	0.0027661785
71	0x3dd82ce7	0.105554394
72	0xbc3ecb0c	-0.01164509
73	0x3e1b76c7	0.15182029
74	0x3d8c9cad	0.06865821
75	0xbd31062a	-0.04321877
76	0x3e019ac5	0.12656696
77	0xbe856e92	-0.2606092
78	0xbc69d8c6	-0.014272874
79	0x3daac605	0.083385505
80	0x3c819afd	0.015820974
81	0xbc0872fd	-0.008328197
82	0x3d8d9a53	0.06914201
83	0x3e7678cd	0.2406952
84	0xbd43b6c3	-0.047781717
85	0xbb9994d9	-0.0046869335
86	0x3e13cd58	0.14433801
87	0x3dd3586d	0.103196
88	0x3cc2ca33	0.023778057
89	0xbde5bf92	-0.1121818
90	0x3d6f2c3f	0.058391806
91	0x3d9e9182	0.07742597
92	0xbe4f944d	-0.20271416
93	0x3d0d35f4	0.03447528
94	0x3e022fe5	0.12713583
95	0xbdb958cd	-0.090501405
96	0x3dc13309	0.09433562
97	0xbdac7864	-0.084214
98	0x3d15854d	0.03650408
99	0xbdf09c66	-0.11748581
100	0x3e1cea80	0.1532383
101	0xbf00f82b	-0.50378674
102	0xbe8003e1	-0.2500296
103	0x3e14ef03	0.145443
104	0x3e2732cc	0.16327971
105	0xbbbc3ba7	-0.005744416
106	0x3e918ff5	0.28430143
107	0xbed03970	-0.4066882
108	0xbea792af	-0.32729098
109	0x3d834b07	0.06410795
110	0x3d9c929c	0.07645151
111	0xbea1b3e5	-0.3158256
112	0xbe2f2a2e	-0.17105934
113	0xbbee7607	-0.0072772535
114	0xbefbb2af	-0.49159762
115	0xbe8bd3cd	-0.2731003
116	0xbcaba06c	-0.020950519
117	0x3bd00ff5	0.0063495585
118	0x3da0e3be	0.078559384
119	0xbd8bb797	-0.06822126
120	0x3c24f711	0.010068671
121	0xbc425f14	-0.011863489
122	0x3e2d6c01	0.16935731
123	0xbd8213f2	-0.063514605
124	0xbed26ed4	-0.4110018
125	0x3e2b4245	0.16724499
126	0x3d908a6b	0.07057651
127	0xbe93e09d	-0.28882304
128	0xbec204ba	-0.3789423
129	0xbd9ffa1a	-0.07811375
130	0xbe8e2e9f	-0.27769944
131	0xbe64eefd	-0.22356792
132	0xbd04aee1	-0.03239334
133	0xbd4e31c2	-0.05034042
134	0xbdac2469	-0.08405382
135	0xbcaad5b2	-0.020853851
136	0x3dd94d0b	0.10610398
137	0x3e691b44	0.22764307
138	0xbd12178c	-0.035666987
139	0xbd8ea8b2	-0.0696577
140	0x3c1eda9d	0.009695676
141	0x3e040671	0.12893082
142	0x3ca876ff	0.020564554
143	0x3daef555	0.08542887
144	0xbd662540	-0.056187868
145	0x3d45f514	0.048329428
146	0x3e818802	0.25299078
147	0xbe43f748	-0.19137299
148	0xbc51ecc2	-0.012812795
149	0x3dbf4112	0.09338583
150	0xbd30ccf9	-0.043164227
151	0x3e0f1695	0.13973458
152	0xbdd2c1dd	-0.10290883
153	0xbe8f19bb	-0.27949318
154	0x3da1d6c0	0.079022884
155	0x3e3a0919	0.18167533
156	0xbf53039b	-0.82427377
157	0x3cee4874	0.029087283
158	0x3dae143c	0.08499953
159	0xbcd5cc0b	-0.026098272
160	0xbdb32a87	-0.08748346
161	0x3d79bbb3	0.06097002
162	0x3d8276c7	0.06370311
163	0x3e272700	0.16323471
164	0xbea3259c	-0.3186463
165	0x3da839ca	0.082141474
166	0x3c712049	0.01471717
167	0x3e144be6	0.14482078
168	0xbe1570ae	-0.14593765
169	0xbcd63ad4	-0.026151098
170	0xbe2eca19	-0.17069282
171	0xbf03c0c6	-0.51466024
172	0x3ecb65f8	0.39726233
173	0x3ba33f0f	0.0049818824
174	0xbcb0823e	-0.02154648
175	0xbe5b57c3	-0.21420197
176	0x3e0b83e4	0.13624531
177	0xbe8afe71	-0.27147248
178	0x3e1aaf15	0.15105851
179	0xbe690871	-0.22757126
180	0xbdc62ecf	-0.09676897
181	0x3d2ef5ab	0.042714756
182	0xbee01de1	-0.43772796
183	0xbebc1fd1	-0.36743024
184	0xbecfeba3	-0.40609464
185	0xbc697b54	-0.014250595
186	0xbb953e85	-0.004554572
187	0xbdf72db0	-0.12069261
188	0xbe87e49f	-0.26541612
189	0xbec333fc	-0.38125598
190	0x3dfebe65	0.124386586
191	0x3e2e9c19	0.17051734
192	0x3e459238	0.1929406
193	0x3d068ac9	0.0328472
194	0xbeeb36d9	-0.45940283
195	0x3e58193f	0.2110338
196	0x3c7eda28	0.015554942
197	0xbd134c3c	-0.035961375
198	0xbca9ecb1	-0.020742746
199	0x3c45bd85	0.012069111
200	0xbd2b9e90	-0.041899264
201	0xbeb5e1c8	-0.3552382
202	0x3de7628f	0.112980954
203	0xbd6aac9c	-0.05729352
204	0xbdbdb7ec	-0.09263596
205	0xbf61d882	-0.8822099
206	0xbc98020f	-0.01855567
207	0x3d8faf82	0.07015897
208	0x3da6e034	0.08148232
209	0x3be5e8c3	0.0070162727
210	0x3e0dd725	0.13851602
211	0xbddb3ba9	-0.10704739
212	0x3c9d5785	0.019206772
213	0xbd33f5a0	-0.043935418
214	0x3e223821	0.15841724
215	0xbf122394	-0.5708554
216	0x3aced633	0.0015780389
217	0xbe8def86	-0.27721804
218	0x3dbfe168	0.09369165
219	0xbe0c5ebd	-0.13708015
220	0xbe11a131	-0.14221646
221	0xbd2a0ff2	-0.041519113
222	0xbc09c3e5	-0.008408521
223	0xbe8083cd	-0.25100556
224	0x3da85e24	0.08221081
225	0x3d136dca	0.035993375
226	0x3dc98085	0.09838966
227	0xbf0dadaf	-0.55343145
228	0xbd49f339	-0.04930422
229	0x3df42acc	0.11922225
230	0xbded7b99	-0.1159584
231	0xba08b044	-0.0005214254
232	0x3ddf3b53	0.10899987
233	0xbd28d742	-0.04122091
234	0xbee8ec9b	-0.45493016
235	0xbde32be3	-0.11092355
236	0xbe5b676e	-0.21426174
237	0xbd532209	-0.05154613
238	0x3a856c43	0.0010179359
239	0xbdde13e5	-0.10843638
240	0x3dc5d6b2	0.096600905
241	0xbe027e68	-0.12743533
242	0x3e33e104	0.17566305
243	0x3e30bc25	0.17259271
244	0xbe011e8f	-0.12609313
245	0xbd0243da	-0.03180299
246	0xbeebfef4	-0.4609295
247	0x3e83a0f6	0.2570874
248	0x3def8cdb	0.11696788
249	0xbe7dc248	-0.24781144
250	0xbf0f548f	-0.559884
251	0x3d34eebf	0.044173
252	0x3e4bae0a	0.1989061
253	0x3e3fcdab	0.187308
254	0x3dcbf8f7	0.09959596
255	0x3df03f33	0.11730804

fc.3.bias f4 [27]
0	0xbeb9b792	-0.36272866
1	0x3e30a2d0	0.17249608
2	0x3e2d6ce4	0.1693607
3	0xbe2dae6a	-0.16961065
4	0x3dd40f67	0.103545
5	0x3e001133	0.12506561
6	0x3d935039	0.07193036
7	0xbe50a28a	-0.20374504
8	0xbd5646ba	-0.052313544
9	0x3e08cfc4	0.13360506
10	0x3c98785e	0.018612083
11	0xbe0b5f64	-0.13610607
12	0x3d2e1ff4	0.04251094
13	0xbe5dbc13	-0.21653776
14	0x3e84069b	0.2578629
15	0x3e03e50a	0.1288034
16	0x3e536726	0.20644817
17	0xbe87d84f	-0.26532218
18	0xbf231243	-0.6369974
19	0xbea4fd38	-0.3222444
20	0x3cf62b81	0.030050041
21	0x3e154a12	0.14579037
22	0x3de3f911	0.1113149
23	0xbec68fcd	-0.38781586
24	0x3ebacefb	0.3648604
25	0xbece101a	-0.4024666
26	0x3e92ad26	0.28647727
